trained_models/feng_ye_han_chan.pth (torch, 210147 bytes, 72 tensors)

enc1.layer.0.weight f4 [3, 1, 3, 3]
000000 b2 2e 90 bb ff ea 51 be 61 14 b8 bd c6 36 49 3e
       -0.0044000978 -0.204998 -0.08988262 0.196498
000010 57 7c a9 3e 7b a7 e4 3e b6 4f ec 3d 87 5e 53 bd
       0.33102676 0.44659027 0.11538641 -0.05160382
000020 c0 55 e8 3d 80 61 1b be 97 21 45 be 0f b4 4c bd
       0.113444805 -0.15173912 -0.19251095 -0.049976405
000030 09 3f 02 3e ef 57 27 3d 0e 33 03 be cb b3 3c 3e
       0.12719359 0.040855344 -0.12812445 0.1842796
000040 fa 79 aa 3e e7 97 b4 bd 5b af 06 3e 96 1e 02 3e
       0.33296186 -0.088180356 0.1315283 0.1270698
000050 f7 95 4e be 58 98 ac 3e 2e 8a 13 be 4c 47 2b 3e
       -0.20174395 0.3370998 -0.1440818 0.16726416
000060 72 3c 40 3e e3 25 6b be 2a a3 9a be
       0.18773058 -0.22963671 -0.3020261

enc1.layer.1.weight f4 [3]
000000 7e 14 65 3f 06 20 53 3f 0d 9d 5f 3f
       0.89484394 0.8247074 0.87349015

enc1.layer.1.bias f4 [3]
000000 37 a9 ea 3e b8 3b b4 3e 9b 97 a4 3e
       0.45832226 0.35201812 0.32146916

enc1.layer.1.running_mean f4 [3]
000000 90 cd d4 bd a0 93 56 bc 26 aa a7 bc
       -0.103907704 -0.01309672 -0.020466875

enc1.layer.1.running_var f4 [3]
000000 1f 5f 2f 3e e6 9b 0d 3c da 18 47 3c
       0.1712613 0.008643126 0.012151921

enc1.layer.3.weight f4 [32, 3, 1, 1]
000000 23 2e 79 be 09 e8 ef 3c 86 5f 20 bf 43 fe e1 3e
       -0.24334006 0.029285448 -0.6264576 0.441393
000010 00 3d 64 be f9 b1 fd be b9 7c c4 3d 38 4d 1f 3e
       -0.22288895 -0.49549845 0.095941015 0.155568
000020 0f b3 cf 3e 7a 03 43 3e c1 bb a0 be c4 54 09 3e
       0.40566298 0.19044295 -0.31393245 0.13411242
000030 cc 89 7a 3e e4 25 da 3e 7e af 7f bd f2 62 a9 bd
       0.24466628 0.42607033 -0.06242322 -0.082708254
000040 57 68 fb bd 93 ef 07 3e 16 f8 65 bf 48 62 dc 3d
       -0.122757606 0.13274984 -0.89831674 0.10760933
000050 73 8f e2 bd 11 dd b2 be 6a b8 a2 3e 79 86 4c 3e
       -0.11062517 -0.34934285 0.31781322 0.19973172
000060 fc 00 b9 3e 98 ea 3d 3e 50 69 dd be b5 60 d0 be
       0.36133564 0.18546522 -0.4324441 -0.40698782
000070 5b 96 70 3e 98 b7 12 3d bd df 83 be 09 d6 c7 3e
       0.23494856 0.03581962 -0.25756636 0.39030483
000080 c6 eb b4 3e 2d 55 69 3e 54 40 bf 3e f6 87 4b 3e
       0.3533613 0.22786398 0.37353766 0.19876084
000090 3d 4b 32 3e 64 d9 1c 3e c8 42 35 3e 37 6e fe be
       0.17411514 0.15317303 0.17701256 -0.49693462
0000a0 2c 24 93 3e af 5a ee bd 04 46 f7 bd aa cf 14 3f
       0.28738534 -0.1163839 -0.12073901 0.5812937
0000b0 88 80 bd 3e 9b ba fe be 77 30 64 be a8 04 8d be
       0.37012124 -0.49751744 -0.22284113 -0.27542615
0000c0 9e 5a 66 3e 10 63 ab be 93 fe fb 3c 6a fa df be
       0.22495505 -0.33474016 0.030761039 -0.43745738
0000d0 32 07 17 bd 89 9b d0 3e ad a0 50 be c4 95 19 bf
       -0.036872096 0.40743664 -0.20373793 -0.5999415
0000e0 6c 0c 2d be 1f 25 82 be 57 f0 b4 3e 57 be bc 3e
       -0.1689927 -0.25418946 0.35339615 0.36863968
0000f0 5b 64 c8 be 9d 72 1b bf 5d 6c 81 3e f7 13 aa be
       -0.39139065 -0.6072176 0.25277987 -0.33218357
000100 c0 24 0e be 50 b4 a5 be 75 a5 e6 bd 23 e3 a3 bd
       -0.13881207 -0.3236413 -0.11262027 -0.08002307
000110 cf e1 00 bf f8 a7 88 be 16 18 41 be 9f 56 72 3e
       -0.50344557 -0.2669065 -0.18856844 0.23665856
000120 ad e3 d5 3e 2d f8 a5 3e 5a 8e dc 3e 71 29 16 bf
       0.41775265 0.32415906 0.43077356 -0.58656985
000130 df 7c b8 be cf 6d dc 3e e3 94 f6 bb c7 c0 73 3e
       -0.3603277 0.43052527 -0.007525073 0.23804007
000140 31 50 00 bf 58 96 a3 3d 69 ff 34 3f 94 0c a4 be
       -0.5012236 0.0798766 0.70702225 -0.32040846
000150 8d 0e b2 bd 60 b4 c4 3e c8 93 0d 3f a2 6a 0e 3f
       -0.086941816 0.38418865 0.5530362 0.5563146
000160 79 fd 2d 3e 25 53 ea be 4c 7b 8b be ce b8 8b be
       0.16991223 -0.4576656 -0.27242506 -0.27289432
000170 ca 76 8b 3e bd e8 92 3e 03 2c 28 3e 70 28 8b 3e
       0.27239066 0.2869319 0.16423039 0.2717929

enc1.layer.4.weight f4 [32]
000000 85 42 3d 3f 34 1a 20 3f 85 4c 57 3f c0 55 5c 3f
       0.73929626 0.6253998 0.84101135 0.86068344
000010 ca 55 51 3f d2 84 0c 3f f7 a8 14 3f 15 d3 20 3f
       0.8177153 0.5489017 0.5807032 0.62822086
000020 04 77 44 3f fc 08 3b 3f 1f 34 66 3f 1c 52 81 3f
       0.76744103 0.73060584 0.8992328 1.0103183
000030 59 e7 45 3f d0 49 41 3f f2 c1 55 3f 32 44 38 3f
       0.77306134 0.75503254 0.8349906 0.7197906
000040 07 ab 56 3f 58 31 32 3f f3 ed 81 3f bd ef 3f 3f
       0.83854717 0.6960654 1.0150741 0.74975187
000050 95 cd 20 3f ee 70 5d 3f a2 f2 42 3f f5 0e 5d 3f
       0.62813693 0.8650044 0.7615148 0.8635095
000060 e4 87 7f 3f f8 a9 49 3f 19 99 1f 3f bb 0f 7f 3f
       0.9981673 0.78774977 0.62342983 0.9963338
000070 84 84 66 3f 16 e3 16 3f de a8 23 3f ca 72 80 3f
       0.9004595 0.58940256 0.63929546 1.0035031

enc1.layer.4.bias f4 [32]
000000 30 eb 4d be de e5 a5 bc a3 4f 68 3d c8 1d cf 3d
       -0.20109248 -0.02025121 0.056716572 0.10113102
000010 46 55 0e be 1c 7f a9 be 14 ff 85 be 36 64 0b be
       -0.13899717 -0.3310479 -0.26171172 -0.13612446
000020 50 99 ae bd 40 70 0d bd d5 ea 02 be ba a3 3b 3d
       -0.08525336 -0.034530878 -0.12784894 0.04581044
000030 69 70 61 3d 5f 09 1b 3d b0 45 98 be 82 9f 1b be
       0.055038843 0.037850734 -0.29740667 -0.15197566
000040 c6 0c a3 3d 40 67 62 be 69 31 9b bd cf a3 73 be
       0.07961421 -0.22109699 -0.075777836 -0.23792957
000050 a5 20 39 be 2b 64 13 be 53 a1 2c be e8 35 eb bd
       -0.18078859 -0.1439368 -0.16858415 -0.11484891
000060 5d 86 05 3e ef 67 60 be 40 9e d5 bd 0c 44 f3 bd
       0.13039537 -0.21914648 -0.104305744 -0.11878213
000070 c7 9c eb bd fd 99 22 3b 8e 1e c1 be cd ce 7c 3e
       -0.11504512 0.0024811022 -0.37718624 0.24688263

enc1.layer.4.running_mean f4 [32]
000000 ce a2 db be c5 89 81 bd 22 37 a6 3e b3 d9 f7 3c
       -0.42897648 -0.063251056 0.32463938 0.030255174
000010 fb 2b a8 3e bc 2e 45 bd 62 c1 0e bf 59 83 e2 3c
       0.32846054 -0.048140272 -0.5576383 0.027650522
000020 d0 f4 e2 3d bf cd f9 bd 83 fa 48 3e a5 ec d4 3e
       0.110818505 -0.12197446 0.19626813 0.41586795
000030 18 85 87 3e 94 6c 61 be 62 ed c1 3e c7 81 0b bf
       0.2646873 -0.22014076 0.3787642 -0.544949
000040 5c c7 00 bc ba 71 c9 bd c7 3a fe be b6 f8 3f 3e
       -0.007860031 -0.09836145 -0.4965422 0.1874722
000050 3f ef d7 be ee 20 d9 be c6 03 b0 be f2 c2 15 be
       -0.42174718 -0.42407936 -0.3437788 -0.14625147
000060 52 00 1e 3f 56 c4 ab be 11 e9 f3 bd 33 ed 75 3e
       0.6171924 -0.3354823 -0.11909688 0.24016266
000070 63 9d c7 3e dd d4 5b 3e ec 7a 33 be 7b dd c4 3e
       0.38987264 0.2146792 -0.1752736 0.38450226

enc1.layer.4.running_var f4 [32]
000000 c2 51 73 3e 4d 3b 14 3e ee 45 f4 3d 29 97 1a 3d
       0.23761657 0.14475746 0.119274005 0.037741814
000010 bf 1d 05 3e ea ca 52 3c c0 6b d3 3e 17 bc 8e 3d
       0.12999628 0.012865761 0.41293144 0.06969469
000020 14 96 eb 3d 5e f4 88 3d d1 35 ea 3d 9c 1b 28 3e
       0.115032345 0.06687234 0.11436046 0.16416782
000030 aa 10 85 3d 9c 7e ee 3d c0 44 57 3e d0 51 8f 3e
       0.06497319 0.116452426 0.2102232 0.27992105
000040 fe 43 21 3d d4 86 eb 3d 41 2a 83 3e 62 44 df 3d
       0.039371483 0.11500326 0.25618175 0.10901715
000050 fb aa 89 3e 48 13 30 3e 9d 8d 18 3e 44 1b 7c 3d
       0.2688826 0.17194855 0.14897771 0.06154944
000060 0e 7b b5 3e 98 86 87 3e e7 23 c6 3d a6 f0 43 3e
       0.35445446 0.26469874 0.096748166 0.19134769
000070 00 eb 5f 3e ed f7 46 3e 42 56 ac 3d 41 d7 0d 3e
       0.21866989 0.19430514 0.0841489 0.13851644

enc2.layer.0.weight f4 [32, 1, 3, 3]
000000 b2 e5 6b 3e ea 1b 84 3d b6 b4 b2 3e cb 3b e0 bd
       0.2303684 0.06450637 0.34903497 -0.109489046
000010 0e 54 81 3e 35 94 b2 3e 1d f0 19 3e ed aa 21 3c
       0.2525944 0.34878698 0.15033002 0.009867412
000020 d5 d7 9e 3e 80 44 a0 3d ed 3f 84 be 16 3a 61 bd
       0.31024042 0.07825565 -0.25830022 -0.054987036
000030 5a 10 c0 be 2f 45 da bc eb 33 70 3d ea 78 24 be
       -0.37512475 -0.026644317 0.058643263 -0.1606175
000040 b8 d2 a2 3d 7d 83 c1 3c c6 6a 1d be 7f 74 c3 bc
       0.07950348 0.023622269 -0.15372762 -0.02385926
000050 96 38 1b 3e bb fc b1 3c 95 08 b7 bd c4 4a 6e 3e
       0.15158305 0.021726957 -0.08937184 0.23270708
000060 8c d8 64 3e c2 37 33 3e 96 32 93 be 2b a0 30 3e
       0.22348231 0.17501739 -0.28749532 0.17248599
000070 de cb 81 be 49 a5 87 3e 48 2b fa 3c d1 12 b0 bd
       -0.2535085 0.2649329 0.030538216 -0.08597339
000080 d5 66 b2 be 06 6d 94 be 90 8c 65 be af cb 6b bd
       -0.3484408 -0.28989428 -0.22416902 -0.057567295
000090 4c fa d7 3d e7 38 94 3a c9 34 02 be 40 b1 88 bd
       0.10545787 0.0011308462 -0.12715448 -0.06674433
0000a0 0c 15 2d 3e 95 24 3d 3e 29 26 f0 bd f0 3d 2f bd
       0.1690256 0.18470986 -0.117260285 -0.042783678
0000b0 42 b8 69 3e 8f 4b 0d bd 64 0c 00 3e dd 2d 53 3e
       0.22824195 -0.034495886 0.12504727 0.20622964
0000c0 d2 de 4d 3c ef 81 b9 3d 97 1d 6c 3e b0 45 28 3c
       0.0125653315 0.09057986 0.23058163 0.010270521
0000d0 b2 b8 38 3e e8 9a be bd d6 c9 8c bd 02 48 20 be
       0.18039206 -0.0930689 -0.06874435 -0.15652469
0000e0 1b ab a7 3d 34 1d 00 be 2a 99 70 3e c7 d0 53 be
       0.08186933 -0.1251114 0.23495927 -0.20685111
0000f0 82 e0 fe bd fb 32 c1 be 6f ba d4 be f7 a7 41 bd
       -0.12445165 -0.37734208 -0.41548488 -0.047279324
000100 33 73 45 3e 22 98 e5 bd 4c 17 66 3e 23 81 a5 3e
       0.19282226 -0.11210658 0.22469825 0.32325086
000110 25 fe 3c be 72 9c c1 bd 8a 36 8e 3e 06 3a 1b 3e
       -0.18456323 -0.09453668 0.27775985 0.15158853
000120 7a 57 ac be aa 41 f0 bc e8 2f c4 be b6 9a 81 3e
       -0.3366049 -0.029328186 -0.383178 0.25313348
000130 0e 02 2f 3e 03 9c 64 3d 08 39 01 be 23 15 a4 be
       0.17090628 0.055812847 -0.12619412 -0.32047376
000140 17 f6 cf 3d 65 80 c6 be 1e e9 23 3e 1f ff 94 be
       0.1015436 -0.38769832 0.16006896 -0.29100892
000150 47 00 5d 3e c9 50 56 3c 1c 7a 24 be 6b d5 af be
       0.21582137 0.013080784 -0.16062206 -0.34342512
000160 e5 f4 d6 bc 9b 09 4f bd 9c 79 cf be 50 65 1a be
       -0.026239822 -0.05054627 -0.40522468 -0.1507771
000170 a7 ec b6 be 5a 9f fe bd 1f fb 05 be ad 92 2b 3c
       -0.35727426 -0.12432738 -0.13084076 0.010471982
000180 65 94 58 be 93 5d 95 3e b8 0f 01 be db 6f 14 bd
       -0.21150358 0.29172954 -0.12603652 -0.036239486
000190 59 09 94 3e b8 14 f9 3d 3c b4 a7 3e 2f a8 8b 3e
       0.28913382 0.12162155 0.32754695 0.2727675
0001a0 55 2d d6 bd ec 6b 90 3d 1b c1 45 be 13 d9 7b be
       -0.10457865 0.070518345 -0.19311945 -0.24594526
0001b0 af 50 ab bc db 65 b0 be 42 06 2f be a3 f7 85 bc
       -0.020912496 -0.3445271 -0.17092231 -0.016353434
0001c0 5e 87 06 3e c6 6c 03 3e 66 f2 db 3c e3 9d 28 be
       0.13137576 0.12834463 0.026848983 -0.16466479
0001d0 49 34 ab 3e c0 60 d2 bd 52 42 72 be a5 f1 16 be
       0.33438328 -0.1027236 -0.23658112 -0.14740618
0001e0 ae c2 bd be 3e 51 ec 3d 23 10 c7 bd ce b2 91 bd
       -0.3706259 0.11538933 -0.09719875 -0.071141824
0001f0 3c b7 c6 3d df a7 79 be e2 88 df 3d ba 90 85 bd
       0.09702918 -0.24380444 0.1091478 -0.06521745
000200 a8 39 62 bd b1 9c 87 3e eb ef c3 3d da d8 93 3e
       -0.055230767 0.26486734 0.09567245 0.28876382
000210 aa e4 f7 3d 52 52 95 bd 3d 1f a2 3d 3d fc e3 3d
       0.12104161 -0.07291092 0.079161145 0.11132095
000220 28 4e 4a 3e ae ed 4e bd 42 32 5d 3e bc 16 42 3c
       0.19756377 -0.050519638 0.21601203 0.011846241
000230 66 fb 74 be 9f 8c 35 3e 30 71 37 3e 65 54 2e 3e
       -0.23924026 0.17729424 0.17914271 0.17024381
000240 1c f3 a5 be 5c d9 00 be 40 07 36 3d f4 6f 12 bd
       -0.3241204 -0.12582916 0.044440508 -0.035751298
000250 5d 95 af be f5 86 0f 3e d3 80 46 bd c4 34 91 be
       -0.34293643 0.14016326 -0.0484627 -0.2836057
000260 1c e8 00 be 8d e4 68 3c 77 33 a6 bd ef dc f1 3d
       -0.12588543 0.014214647 -0.08115285 0.11809718
000270 3d 5c f6 3c 55 1b 01 3d fd 17 89 3e c8 d4 84 bd
       0.03007328 0.031520206 0.26776114 -0.06485897
000280 05 3b 2b 3e 23 c7 b1 3e 8a dd 22 3e 94 93 99 3e
       0.16721733 0.34722242 0.15904823 0.29995406
000290 b5 36 68 3e f4 d7 d6 3d 15 00 ec 3d 42 c8 38 3e
       0.22677119 0.104904085 0.11523453 0.18045142
0002a0 dd d7 8b bd c3 6e 44 3d 9c fe 9c 3e 11 1c 91 be
       -0.06828282 0.047957193 0.30663002 -0.28341725
0002b0 1b 9d 18 be c7 ed df be b3 2d f2 bd 44 e4 76 3d
       -0.14903681 -0.43736097 -0.11825123 0.060276285
0002c0 1a af c4 be 9d 85 f6 bc 4e f9 94 3d 12 2f ae bd
       -0.38414842 -0.030093009 0.072741136 -0.08505072
0002d0 fe 90 3e be a5 5a f1 be cf 83 c1 be d2 8e 0e be
       -0.18609998 -0.4713947 -0.37795874 -0.13921669
0002e0 a7 cc e3 bd 37 e1 78 3e 62 19 b6 bd c0 03 38 3e
       -0.11123019 0.24304663 -0.0889156 0.1797018
0002f0 ab d6 62 be 70 7f 19 3e 9e a5 97 3d 64 54 ba 3d
       -0.22152202 0.1499002 0.07404636 0.090981275
000300 0e 1a 61 3d 85 4e 30 3e 1e be 1e 3e 52 40 6b 3e
       0.05495649 0.17217453 0.15502211 0.22973755
000310 c6 a5 a5 3e 08 ba 3c 3e 39 24 2c be df 7b 75 be
       0.32353038 0.1843034 -0.16810693 -0.23973034
000320 d3 16 40 be 77 e8 bf bd ec 76 94 3c d0 f1 57 bd
       -0.18758707 -0.09370511 0.018123113 -0.052720845
000330 74 0f aa 3d ac 60 1c be 09 4d e0 be 3d 26 1d be
       0.08303729 -0.15271252 -0.43808773 -0.15346618
000340 c9 4c 43 be 1f 58 54 3e 79 a3 84 be 60 2e 0c be
       -0.1907226 0.2073674 -0.2590597 -0.13689566
000350 d3 00 30 3e 1c dd 78 be a6 20 d7 bb a6 fd d1 3d
       0.17187814 -0.24303097 -0.0065651713 0.10253458
000360 49 24 7c 3e 5e 9b 41 3e 93 47 13 bc 90 98 83 bd
       0.24623217 0.18906924 -0.008989233 -0.06425583
000370 62 f8 a5 3e 0c ff 36 be bb 62 43 bc 8c 7e 17 be
       0.32416064 -0.1787073 -0.011925395 -0.14794368
000380 93 f9 a5 be 5e 98 06 be 42 7d 80 be 57 44 36 be
       -0.32416973 -0.13144061 -0.25095564 -0.17799507
000390 8b 7b 3d be b8 dc 14 be 27 9d c3 3e 47 02 8b 3e
       -0.18504159 -0.14537323 0.38205835 0.27150175
0003a0 e9 74 34 3d a9 5f 2e 3e a7 77 c9 3d 50 83 47 bd
       0.044056807 0.17028679 0.09837275 -0.048709214
0003b0 1a 3a c0 bd 00 42 15 3e 3e 65 56 3e be 9c 3c be
       -0.09386082 0.14575958 0.20937058 -0.18419167
0003c0 43 2f 6e 3e fe d1 9e 3e 92 e1 5e 3e 4f 64 e5 3c
       0.23260216 0.31019586 0.21765736 0.028001932
0003d0 3a 5d 0e 3e 42 54 bc 3d d6 89 82 3d 50 63 85 3e
       0.1390275 0.091957584 0.06373946 0.26052332
0003e0 11 ed 99 3e 22 05 ed 3a 3a 1a bf 3d 8c 41 45 bd
       0.3006368 0.0018083195 0.09331174 -0.048158213
0003f0 32 81 18 be cf 62 a2 be 90 fc 4a 3e 3e ce ba bd
       -0.14893034 -0.3171601 0.19822907 -0.09121369

enc2.layer.1.weight f4 [32]
000000 9c ee 8d 3f 81 7b 77 3f e1 59 86 3f 2a 91 6a 3f
       1.1088443 0.96672827 1.0496179 0.9162775
000010 31 0c 70 3f e5 3d 91 3f 74 fb 75 3f b4 52 7d 3f
       0.937686 1.1347014 0.9608681 0.9895432
000020 24 c6 60 3f bd 2d 52 3f 92 83 5f 3f 20 8c 65 3f
       0.8780234 0.8210104 0.87310135 0.8966694
000030 7c e8 70 3f 0a 98 81 3f f2 f4 87 3f 7a b6 73 3f
       0.94104743 1.0124524 1.0621626 0.9520031
000040 15 47 69 3f 15 fc 8e 3f 6a 55 8a 3f 1c 37 7b 3f
       0.9112409 1.1170679 1.0807316 0.98130965
000050 8d 3f 79 3f af 5c 8d 3f 25 91 72 3f 53 d4 81 3f
       0.97362596 1.104391 0.9475272 1.0142921
000060 29 64 7b 3f 1f 8d 7c 3f 4f 85 70 3f 87 dc 87 3f
       0.9819971 0.98652834 0.9395341 1.0614175
000070 9d 8f 57 3f fd 28 69 3f e1 95 88 3f 0c 90 5e 3f
       0.8420351 0.9107817 1.067074 0.8693855

enc2.layer.1.bias f4 [32]
000000 f0 0a 00 3d 8d b6 1d bd 51 ed 3f be c5 58 89 3c
       0.03126043 -0.038504172 -0.18742873 0.016765961
000010 71 83 0b be 9c 8f d3 bd ea f8 84 3c 45 34 08 bd
       -0.1362436 -0.10330126 0.016231973 -0.033252973
000020 0c be d9 bd bb e7 01 be 70 2f 02 3d f3 8a 1d bd
       -0.10631952 -0.12686054 0.03178352 -0.03846259
000030 14 d5 3e be 7e d4 7e 3d 8d 32 fd bd 1c dd 91 3c
       -0.1863597 0.062214367 -0.123631574 0.017805628
000040 97 57 e1 bb 4f 79 05 3d e0 99 d5 3d b5 9d 79 3d
       -0.0068768966 0.032586392 0.1042974 0.060941417
000050 15 dd 24 3c f2 77 8a 3d a4 a2 5a 3c 17 62 57 3d
       0.010062476 0.06761159 0.013344441 0.05258378
000060 51 c7 5e 3d f3 c8 a7 bd 58 e4 e7 bc 33 b4 b9 bd
       0.0543893 -0.08192625 -0.028307125 -0.090675734
000070 0b 08 85 3b e0 7c bc 3c 30 d4 24 3e 2e d8 81 bd
       0.0040597967 0.023008764 0.16096568 -0.06340061

enc2.layer.1.running_mean f4 [32]
000000 5d eb 85 3e bc 68 e7 bd 6a 96 af 3d c0 04 84 be
       0.2615613 -0.11299273 0.08573611 -0.25784874
000010 fb c8 b8 3d b4 c9 33 3d 24 d4 f8 bd a8 8c db 3d
       0.09022709 0.04389353 -0.121498376 0.107201874
000020 4e 0c 12 be 85 71 6c be 0e c1 95 be 28 01 57 3e
       -0.14262506 -0.2309018 -0.29248852 0.20996535
000030 b7 ae 10 bd cc 47 b2 be d2 2c 19 3e 00 dd 26 3e
       -0.03532287 -0.34820402 0.14958504 0.16295242
000040 d1 6a ad be af ec e5 3d 16 cd ef 3e be 90 69 be
       -0.33870557 0.112267844 0.46836156 -0.22809121
000050 ac 44 2d be 0b e5 c4 3e 8e 8d 60 be 19 7a 0b be
       -0.16920727 0.38455996 -0.21928999 -0.13620795
000060 9c 0f 5c 3c 60 b3 a1 bb 3e bb f4 3d dc bc 88 3e
       0.013431456 -0.0049347132 0.11949776 0.26706588
000070 e0 ce 49 be 95 3e 7f 3e 26 5c ec bd cd 98 98 3e
       -0.19707823 0.24926217 -0.115410134 0.29804078

enc2.layer.1.running_var f4 [32]
000000 d4 09 85 3d 1a c6 de 3c 1e 06 58 3d 30 7e 0d 3e
       0.06496015 0.027194072 0.05274021 0.13817668
000010 06 24 37 3d 0b 02 75 3c e3 ec 9a 3c 87 6b bd 3d
       0.04471209 0.0149541 0.018911785 0.09249025
000020 30 98 a2 3d 1c 55 7c 3d 7a 5e b8 3e 4c f1 3a 3e
       0.07939184 0.061604604 0.3600958 0.1825611
000030 31 65 35 3d ec c5 c0 3d ca 63 f1 3d 67 e8 f7 3c
       0.044285957 0.094127506 0.117866114 0.030262185
000040 0a be 1f 3e 59 f1 94 3d 36 4b 30 3e 0b a6 91 3e
       0.15599838 0.07272596 0.1721619 0.28446993
000050 80 0a 1d 3d 01 f6 0f 3e 60 59 2c 3d 83 82 8e 3d
       0.03834009 0.14058687 0.042077422 0.06958487
000060 04 7a e2 3d 41 3c 1b 3d 8c e7 f1 3c 14 73 69 3e
       0.11058429 0.03789926 0.029529355 0.22797805
000070 2e 66 23 3e df 66 fd 3d f9 3a 64 3d 10 87 55 3e
       0.15956947 0.12373137 0.055720303 0.20852304

enc2.layer.3.weight f4 [64, 32, 1, 1]
000000 bc b8 b9 3d 98 e1 4f bd ef 4d ad bc 5b c1 03 be
       0.090684384 -0.050752252 -0.021155326 -0.12866728
000010 f5 e3 2f bd 14 0f 95 3c 91 b2 81 3c 5b 92 37 bc
       -0.042942006 0.018195666 0.015832217 -0.011204327
000020 e0 66 8e bc 01 60 14 3d fd 04 18 3d 0c ad 7a 3d
       -0.017383039 0.03622437 0.037114132 0.061200187
000030 c2 bf 84 3c c1 70 1a 3e f5 99 82 3d 4f 8a bc bd
       0.016204719 0.15082075 0.06377021 -0.09206068
000040 d1 07 ca bd 08 ff 0b be 4b 54 2e be 97 a5 62 bd
       -0.09864772 -0.13671505 -0.17024343 -0.0553337
000050 e9 f5 7b 3e 01 24 60 be 47 09 f3 3d 1e 56 82 3d
       0.24605526 -0.21888734 0.11867004 0.06364082
000060 57 38 c9 bd 3c b4 fb 3b 76 db 35 bd d0 91 36 3e
       -0.09825199 0.0076813977 -0.044398747 0.1782906
000070 f6 c2 e2 3d b3 99 f2 bc 54 47 28 be 09 72 6b 3d
       0.11072342 -0.029614305 -0.1643346 0.0574818
000080 56 d1 5a bd 64 c3 6a 3d ce 2f 0c 3e ab d7 aa bd
       -0.053422295 0.057315245 0.13690111 -0.08341917
000090 89 05 a0 3d 23 10 c5 bd ff 09 a7 3b d9 8d 56 3e
       0.07813556 -0.096222185 0.005097627 0.20952548
0000a0 e4 4c 44 3d 55 8a 3c bb d9 d3 a1 bd 1d 52 fe 3b
       0.04792489 -0.0028768976 -0.07901735 0.0077612535
0000b0 22 9d 74 bc 6f 0d 30 bd be 3a 09 3e 2e e2 7e 3c
       -0.0149300415 -0.04298156 0.13401315 0.015556855
0000c0 92 4c 9f 3d 0a 08 0c bd 60 55 27 3e 4e 06 ba bc
       0.077782765 -0.034187354 0.16341162 -0.022708084
0000d0 0a 28 06 3c 9a d7 20 3c 21 15 8e bc 17 aa 29 be
       0.008188257 0.009817028 -0.01734406 -0.1656879
0000e0 ab 5f 9b bd 66 6e 3d 3d 01 cd 18 3e 72 18 d1 3d
       -0.075866066 0.046247862 0.14921953 0.10209741
0000f0 84 eb ee 3d 85 98 04 be c6 ed 4c 3e b2 cf 4d bd
       0.11666015 -0.12948807 0.20012578 -0.0502469
000100 c2 bc 14 3e a1 15 c7 bd af d7 a5 bc 9a 7b 2b bc
       0.1452513 -0.09720922 -0.020244448 -0.010466481
000110 ec be d9 3c 89 e3 8b 3d 6d 19 6c bd 67 88 9f bd
       0.026580296 0.06830508 -0.057641435 -0.077896886
000120 a5 5d 8b 3d 04 88 d8 bd 02 10 c9 3d 32 b7 82 bd
       0.06804971 -0.10572818 0.098175064 -0.06382598
000130 a1 f5 8b 3d 25 19 18 3e 14 6b de bd 2e 4f 9d bd
       0.06833959 0.14853342 -0.10860267 -0.07681118
000140 80 dc ac 3c 2d eb 84 be 3c d8 ca 3d 46 e2 6b 3d
       0.021101236 -0.25960675 0.09904525 0.057588838
000150 d1 d4 a3 bd 65 ad 6d 3e 56 56 ec 3d c6 79 20 3e
       -0.07999576 0.23210676 0.11539905 0.15671453
000160 7b e2 76 3d 38 ba e8 bd 06 7c 91 bd a1 42 41 3d
       0.060274582 -0.113636434 -0.07103734 0.047182683
000170 ae 42 b3 bd d0 4f 79 3d 8a cb bc 3d 91 dd 32 bc
       -0.087529525 0.06086713 0.092185095 -0.010917083
000180 90 30 b8 3d e0 39 69 3d 78 ac 1b be 5a a4 74 3c
       0.089936376 0.05693996 -0.1520251 0.014931763
000190 f0 8f df 3d a6 8e 9f 3d b3 98 65 be 19 69 87 bc
       0.10916126 0.0779088 -0.22421531 -0.016529607
0001a0 43 8f 5b 3e f5 8e 96 3c bf 6d f7 bd 31 ab 33 3b
       0.21441369 0.018378714 -0.12081479 0.002741527
0001b0 2b 7a 4b 3e 5f b4 24 be f0 9c 3e 3e 30 ad 90 bd
       0.19870822 -0.16084431 0.18614554 -0.07064283
0001c0 9a 78 f4 bc ad 13 e0 bd 57 fe 94 3d 6d 3e 10 3e
       -0.029842664 -0.10941253 0.07275074 0.14086314
0001d0 bc 5e d5 bd 26 72 c9 3b b1 47 51 be 55 1e 9e bd
       -0.1041846 0.0061476408 -0.20437504 -0.07720629
0001e0 36 23 ba 3c 07 34 f7 bd d4 ff b1 bd 65 51 5b 3d
       0.022721868 -0.1207047 -0.086913735 0.05354442
0001f0 0e 06 ac bb 42 43 e5 3c 15 45 fa bd f4 3f 8d bd
       -0.005249745 0.027986173 -0.122202076 -0.06896964
000200 83 41 a3 bd 2b 0e 7c 3d ca 17 36 bd 7e ca 05 3d
       -0.0797148 0.06153695 -0.04445628 0.032663815
000210 89 7d 1f bd fe 7c fc bc c6 b6 fd 3d 17 94 70 3c
       -0.03893808 -0.03082132 0.12388377 0.014683745
000220 11 e2 8d bd ef 8c fa 3d 53 cb bd 3d c7 89 d7 bd
       -0.06927884 0.12233912 0.09267297 -0.10524326
000230 7f dd b6 3d be e0 0c ba ed 6c 76 bd 8e 92 13 be
       0.08928966 -0.00053740654 -0.060162473 -0.14411375
000240 2d 20 bb bd 73 f5 92 3d ac e9 32 be a7 e3 ec bd
       -0.091369964 0.07175722 -0.17471951 -0.11566859
000250 c7 8b 1e bb 48 e2 d2 3d f0 17 5e bd 9b a1 5a 3d
       -0.00241922 0.10297066 -0.054222047 0.053376775
000260 eb 5d 4b be a1 ec 0c 3e d5 d9 0f be e4 85 87 be
       -0.19860046 0.13762142 -0.1404794 -0.26469338
000270 33 5c c6 bc b3 21 94 bd a2 1d 17 be 93 b2 18 be
       -0.024213886 -0.0723299 -0.14757398 -0.1491187
000280 70 33 93 3d be be 13 3e dc ec 8f 3c 6a ad d1 bd
       0.07187545 0.14428231 0.017568998 -0.10238154
000290 4f bc 03 3a 63 ca da bd 85 0d b2 bc 68 28 e0 bd
       0.00050253136 -0.106831335 -0.021734962 -0.10945207
0002a0 52 c0 2f 3d 0a 9f a8 bd f2 49 33 bd 47 37 df bd
       0.04290802 -0.08233459 -0.04377169 -0.10899215
0002b0 cd fa 18 3e f2 9b 3a be 67 ea f7 3d de 85 1d 3e
       0.14939423 -0.18223551 0.121052556 0.15383098
0002c0 c6 77 83 3c 66 85 cb bc af 29 04 3d 9f c3 da 3d
       0.016048323 -0.024843883 0.032266315 0.10681843
0002d0 dd 8b eb ba 51 54 b5 3d 6e e7 4f bd 8f ed 00 be
       -0.001797076 0.08853973 -0.050757818 -0.12590621
0002e0 94 e7 a5 bb 09 d3 96 bd 81 56 1c 3e 4a c2 76 3e
       -0.0050630067 -0.073644705 0.15267374 0.24097553
0002f0 1a c6 0e 3e 87 36 70 bd 1f a4 1c 3c 29 4f 79 3d
       0.13942757 -0.05864575 0.009560614 0.06086651
000300 26 4f 55 bc 22 54 17 be 8c 08 d5 3d 01 99 19 3e
       -0.013019359 -0.14778188 0.10402021 0.14999773
000310 23 ac 09 3d a6 19 3b 3e 01 7c 0c be 7b d8 44 bc
       0.033611428 0.18271503 -0.13719179 -0.012014504
000320 b5 7f a0 bd fc 35 fc bd e4 b4 be 3d 18 33 08 3e
       -0.07836858 -0.12314984 0.09311846 0.1330074
000330 93 00 ee 3d 0f 15 af bb 09 65 fc bd 7b 86 ce 3c
       0.11621203 -0.0053430866 -0.123239584 0.02521061
000340 3a 8c 8b bd 6b 03 34 3d 03 46 17 3e bb 44 19 bd
       -0.068138555 0.043948572 0.14772801 -0.037419062
000350 ca 2e e2 bd 2f b9 73 3e a2 fa 23 be 31 99 8b bd
       -0.110440806 0.2380111 -0.16013578 -0.06816328
000360 fc 0a 71 bd 64 39 c8 3d 76 2e 06 bd 87 c4 23 be
       -0.058848366 0.097765714 -0.032759152 -0.15992938
000370 28 ac 30 be 3a 32 00 be 85 76 3a 3e c9 9e 5d 3d
       -0.17253172 -0.1251916 0.18209274 0.054106507
000380 fa e9 78 3d 30 a7 6f bc 8e 0a 24 be 43 e2 85 3e
       0.060770012 -0.014627263 -0.16019651 0.26149186
000390 4c cc 82 bc 9d f4 8e 3d c8 21 9f be 55 ee a1 3d
       -0.015966557 0.0698025 -0.3108046 0.07906786
0003a0 36 53 d3 bc 3c 2e cf bd 2e 76 34 be b5 85 2e be
       -0.025796514 -0.101162404 -0.17623207 -0.17043193
0003b0 75 04 cd 3d 19 4b 16 be b3 55 b7 bd 59 9f 91 bb
       0.10010616 -0.14677085 -0.08951893 -0.0044440445
0003c0 bf 23 53 3e 85 82 8d bd 59 44 28 3e a0 50 fb bd
       0.20619105 -0.0690966 0.16432323 -0.122712374
0003d0 a9 90 99 bd cf 44 48 3e 46 d8 1d bd e2 34 21 3d
       -0.07498295 0.19557498 -0.038536333 0.039357074
0003e0 0f ea 5c bd 45 45 7a 3d d2 91 e4 3c 81 cb 28 3d
       -0.053934153 0.061101217 0.027901564 0.0412097
0003f0 73 e3 ca 3d 1a 84 71 be b4 39 c4 bd c0 99 9c bd
       0.09906664 -0.23585549 -0.095813185 -0.07646513

enc2.layer.4.weight f4 [64]
000000 e8 3c 67 3f 50 f7 50 3f 59 66 2f 3f 1d 7e 4b 3f
       0.9032731 0.8162737 0.68515545 0.7948931
000010 38 ee 2f 3f ae 0b 55 3f f6 f5 2a 3f 34 0b 72 3f
       0.6872287 0.83220947 0.66781557 0.94548345
000020 86 27 5f 3f ed 8c 60 3f 9b b5 3f 3f a0 93 5f 3f
       0.8716968 0.87715036 0.7488648 0.8733463
000030 88 a1 60 3f 0e 89 59 3f 39 31 47 3f ef 52 52 3f
       0.8774648 0.84974754 0.7780948 0.82157797
000040 1b 67 41 3f fb 02 61 3f e9 7b 53 3f 97 c7 61 3f
       0.7554795 0.8789517 0.82610947 0.88195175
000050 1b b9 46 3f ca 92 4f 3f d3 20 4b 3f 55 dc 58 3f
       0.776262 0.8108336 0.7934696 0.847112
000060 19 38 56 3f 56 a7 5e 3f 7f c9 69 3f ce 0a 38 3f
       0.8367935 0.86974084 0.91323084 0.71891487
000070 5e 96 55 3f 6b 53 41 3f a5 9e 5f 3f 80 f4 35 3f
       0.8343257 0.7551791 0.8735145 0.710762
000080 8a c0 22 3f 06 6d 40 3f 4f 3c 64 3f 74 c0 54 3f
       0.6357504 0.75166357 0.89154524 0.8310616
000090 a0 2c 40 3f a7 7b 37 3f 71 6e 43 3f e0 95 45 3f
       0.7506809 0.71673054 0.76340395 0.77181816
0000a0 87 d6 58 3f a2 6f 37 3f 6c ba 2e 3f 11 59 5b 3f
       0.8470234 0.71654713 0.6825321 0.8568278
0000b0 68 1e 7d 3f f2 a0 40 3f 79 c3 3e 3f c6 16 58 3f
       0.9887452 0.75245583 0.7451702 0.8440975
0000c0 60 ab 30 3f 73 7f 55 3f 74 39 32 3f fd ed 7d 3f
       0.690115 0.833976 0.69618917 0.99191266
0000d0 f7 55 63 3f d3 21 75 3f 90 c8 44 3f 91 5a 84 3f
       0.88803047 0.95754737 0.76868534 1.0340139
0000e0 ab 0f 23 3f e3 4b 28 3f 92 6b 4e 3f c9 2d 56 3f
       0.6369578 0.65740794 0.8063289 0.8366361
0000f0 b9 b6 63 3f 02 1b 3c 3f 14 49 4b 3f 77 09 34 3f
       0.8895069 0.7347871 0.79408383 0.7032694

enc2.layer.4.bias f4 [64]
000000 3c ea 1f bc 6e 4e 14 be f8 45 55 be 64 a3 3a be
       -0.009760436 -0.14483044 -0.20827472 -0.18226391
000010 d9 a5 e9 3c d9 96 75 bd 5e ce c1 bd 2e 9f 59 bc
       0.028521465 -0.059958313 -0.094631895 -0.01328258
000020 5d 80 a8 bd 01 81 83 bd 04 fa af be 81 2f 89 bc
       -0.08227608 -0.0642109 -0.34370434 -0.016746284
000030 bf 17 d7 bd 14 fe 36 be dc 04 9e bd e3 a1 1c be
       -0.10502576 -0.1787036 -0.077157706 -0.1529613
000040 1f 9b f8 bd 72 50 04 bd d2 e1 9b bd eb c4 c8 3d
       -0.12138962 -0.03230328 -0.07611431 0.09803184
000050 3f fd e1 3c ec 7c 46 bd e5 75 38 be e7 8f 39 be
       0.027586577 -0.04845898 -0.18013723 -0.181213
000060 99 99 c3 bd 51 b9 2b 3e cd 2a 8f bd 5b ed 3b bd
       -0.09550781 0.16769911 -0.069905855 -0.045880657
000070 7c 31 5b bd 45 1c ba be bb a4 0b be 77 36 c4 bd
       -0.05351399 -0.36349693 -0.13637058 -0.09580701
000080 f4 5b 81 be 00 76 00 be 58 7c e8 3d df 6e 81 bd
       -0.25265467 -0.12545013 0.11351842 -0.06319975
000090 80 2c 13 be 8c 9e f1 bb 2e 4c 17 be bc f3 22 be
       -0.14372444 -0.0073736366 -0.14775154 -0.1591329
0000a0 88 76 10 be 0a 23 0e be bc 55 ca bd db 4c 77 be
       -0.14107716 -0.13880554 -0.09879634 -0.24150412
0000b0 d1 62 4b bd a6 60 4d be 26 21 00 3c dc 8d b0 bd
       -0.049654786 -0.200564 0.007820403 -0.086208075
0000c0 60 27 e6 bc da 27 0a bd b0 af 41 be 21 9e be bd
       -0.028094947 -0.03372941 -0.18914676 -0.093075044
0000d0 25 b1 c8 bd b7 0d 85 3d 02 8b 5f bd ee 0b bc bd
       -0.09799413 0.064967565 -0.054575928 -0.09181963
0000e0 60 5f d6 bd 78 ba e6 bd ba eb 9d be 00 df df bb
       -0.1046741 -0.11266035 -0.30843908 -0.0068320036
0000f0 36 ca 98 3d 9b af 8d be 78 73 52 be 76 d4 56 3d
       0.07460444 -0.2767304 -0.2055186 0.052448712

enc2.layer.4.running_mean f4 [64]
000000 bc 41 a2 bd 28 71 5f 3e f7 8a 74 3e 89 9a 6a be
       -0.07922694 0.2182051 0.23881136 -0.22910513
000010 24 4c d7 be 42 e7 0c 3e 18 d1 cb 3c 7c 65 49 be
       -0.42050278 0.13760093 0.024879977 -0.1966762
000020 06 29 05 3e b8 3e 2f be 9a a2 8a 3e 43 c6 fa 3d
       0.1300393 -0.17113769 0.2707718 0.12244847
000030 1d e6 a3 bd 12 7b f2 bb 5a 55 57 be ca fd 40 3e
       -0.08002875 -0.007399925 -0.21028653 0.18846813
000040 4a 8e 00 be 1d ff 09 3d 1d a1 78 3e 88 b4 82 be
       -0.12554279 0.03369056 0.2428021 -0.2552836
000050 00 84 7c be 0a fa 41 3e 05 c8 2c 3e f6 8b 92 3e
       -0.24659729 0.18943039 0.16873176 0.28622407
000060 ee 3b 56 be 19 a3 55 be f7 26 7b bd db 30 ab be
       -0.20921299 -0.20862998 -0.061316457 -0.3343571
000070 78 f7 76 be 67 07 82 be ef a4 2a 3e a0 9e 92 be
       -0.2411784 -0.25396273 0.1666448 -0.28636646
000080 3f b0 0e 3c b4 9f ab 3c ae 16 71 be 58 17 3b be
       0.0087090125 0.020950176 -0.23543808 -0.18270624
000090 bc 18 01 3e 06 a7 69 be 68 7b 33 3e a5 34 32 3e
       0.12607092 -0.2281762 0.17527544 0.17402895
0000a0 8e 30 43 3e 96 48 cc bd bc 37 d2 be 39 09 02 3f
       0.19061491 -0.09974782 -0.41058147 0.5079532
0000b0 cf 20 3e 3e 96 f8 58 ba c7 24 3c be 01 56 a3 3e
       0.18567203 -0.0008276788 -0.18373404 0.31901553
0000c0 c7 18 b7 bd 6e 48 e1 be 76 1a c8 3c dd 14 b8 3d
       -0.08940273 -0.44000572 0.02442668 0.08988354
0000d0 a6 46 6c 3d d4 a6 b0 3e f6 03 02 bf 6c 7e 34 3d
       0.057684563 0.3450228 -0.50787294 0.044065878
0000e0 b9 c2 cc be 5c f3 a3 bc 46 7b e5 3d a6 e3 06 3e
       -0.39992312 -0.020013504 0.11205153 0.13172778
0000f0 50 99 cd be aa 88 f6 3e da 99 ea 3e 00 73 a2 be
       -0.4015603 0.4815114 0.45820504 -0.31728363

enc2.layer.4.running_var f4 [64]
000000 05 2d a4 3e 80 96 26 3e ca a2 43 3e e3 d7 8d 3e
       0.32065597 0.16268349 0.19105068 0.2770377
000010 bc 99 62 3e 51 fc 8d 3e 07 f0 88 3e e0 b8 40 3f
       0.22128958 0.27731565 0.26745626 0.75282097
000020 ff d3 2c 3e 9b 8f 95 3e 66 5c 54 3e d0 cb 6f 3e
       0.16877745 0.29211125 0.20738372 0.23417592
000030 1d ef 56 3e 16 dd 83 3e e5 92 b2 3e e5 6f 94 3e
       0.20989652 0.25754613 0.34877697 0.2899162
000040 6f e5 0c 3e c6 ff 51 3e 4a aa 84 3e 8c 96 33 3e
       0.13759397 0.20507726 0.2591117 0.17537898
000050 d6 97 57 3e 42 3d 59 3e ea 28 ca 3d 78 08 36 3e
       0.21054015 0.21214774 0.09871085 0.17776668
000060 d3 4b 22 3e 02 e7 a1 3e aa 68 80 3e 4b 0a 32 3f
       0.15849237 0.31621557 0.25079852 0.69546956
000070 e5 10 b6 3e 27 6b bd 3e 56 18 37 3e 3c 44 42 3f
       0.35559765 0.36995813 0.17880377 0.7588537
000080 b8 5b 02 3e 54 6a 38 3e 7a f8 80 3e 18 cd 59 3e
       0.127303 0.18009311 0.25189573 0.21269643
000090 cf 4b 46 3e 73 0a c6 3e b9 ee 85 3e 5a 0e dc 3d
       0.19364856 0.38679847 0.26158693 0.10744925
0000a0 44 ec 0b 3e c7 bc d9 3e d2 5a 23 3f f8 f3 57 3e
       0.13664347 0.42526838 0.63810456 0.2108916
0000b0 e4 5f 53 3e c6 10 2e 3e 4b f6 34 3e 98 39 aa 3e
       0.20642048 0.16998586 0.17672078 0.33247066
0000c0 e2 f9 b1 3e e2 7f a4 3e 9d 7f 8d 3e 44 8d 41 3e
       0.34760958 0.32128817 0.27636424 0.18901545
0000d0 99 9a 13 3e 09 ee 4f 3e c8 0b aa 3e 06 8b 7d 3e
       0.14414443 0.20305647 0.33212113 0.24760064
0000e0 68 81 ff 3d 71 48 28 3e 3c 36 94 3e c8 d9 e9 3e
       0.12475854 0.16433884 0.28947628 0.45673966
0000f0 50 0e c7 3e cd 58 23 3e db 4f 94 3e 80 8b 80 3e
       0.38878107 0.15951844 0.28967175 0.2510643

enc3.layer.0.weight f4 [64, 1, 3, 3]
000000 4b f6 3d 3d ed 59 78 3e d8 2e 24 3e ba d2 4f be
       0.04637746 0.24253054 0.16033494 -0.2029523
000010 13 f7 90 3e 52 0f 03 bd 14 31 ff 3d 18 fe a3 bc
       0.28313503 -0.031997032 0.12460533 -0.020018622
000020 cf 98 53 3e bd 55 45 3e c5 f9 aa 3d e4 08 ad 3d
       0.2066376 0.19270988 0.08348421 0.084489614
000030 21 2b 2b 3e 5d 48 b1 3e d1 31 97 bd 5b 9b 2f 3e
       0.16715671 0.3462552 -0.073825486 0.17149107
000040 84 00 a8 3e aa 81 04 3e 2e 80 6b 3e 95 b7 ea 3d
       0.32812893 0.12940088 0.22998115 0.11460797
000050 db 56 48 bd 9c 4c e3 bd 31 72 14 3e 1e dd 8b 3e
       -0.048910957 -0.110985965 0.14496686 0.27317137
000060 60 67 bb be d6 23 58 3e 41 91 a3 3e cc 74 bc bd
       -0.36602306 0.2110742 0.31946757 -0.09201965
000070 05 32 76 3b cd ff c4 bd c3 94 6a 3c 7f 81 38 3e
       0.0037566435 -0.096191026 0.014317694 0.18018149
000080 3b f4 b8 3e a9 7b 8b 3e e3 01 4b 3e 2f 59 78 be
       0.36123833 0.27242783 0.19824938 -0.24252771
000090 4d 28 8d 3e cd 56 55 3e 18 1d 02 3e cf 7f eb 3c
       0.2756981 0.20833893 0.12706411 0.028747467
0000a0 10 74 2d 3e 04 42 6f 3e 2c 35 ee ba 8a 02 15 bd
       0.16938806 0.23365027 -0.0018173805 -0.036379375
0000b0 2e 7d 36 be de 39 7c 3e 60 97 28 be 3a 0f 40 bd
       -0.1782119 0.2463145 -0.16463995 -0.04688952
0000c0 61 92 0e 3d 83 50 36 be 09 bf 37 3e d9 d3 80 be
       0.034807567 -0.1780415 0.17943968 -0.25161627
0000d0 e4 68 2e 3e 6d 39 87 be 7c cc 7d be ae 1e 01 3d
       0.170322 -0.26411 -0.24785036 0.0315234
0000e0 2a 3c 03 be c2 0d 86 3e b1 1d b3 be 63 f3 d0 bd
       -0.1281592 0.2618237 -0.3498359 -0.10202672
0000f0 f8 39 d5 3d fd 8d bb be 78 67 a6 be ed b2 33 be
       0.10411447 -0.36631766 -0.32500815 -0.17548724
000100 1c 29 24 3e 54 3c 87 3d 60 ea e3 3d 56 de 8d bd
       0.16031307 0.066033036 0.11128688 -0.06927173
000110 90 53 8d bd 3c e2 6d be 4b 2b 85 be ed 2d cf b9
       -0.06900704 -0.23230833 -0.26009592 -0.00039516334
000120 e7 a9 24 3e 90 f8 79 3e 32 de 7e 3e 45 94 f3 3d
       0.16080438 0.24411225 0.24889448 0.118935145
000130 bc dd 99 3e 50 39 11 3e 20 fd 33 3e 2b 8a 1a 3d
       0.30051982 0.14182019 0.17577028 0.037729423
000140 77 25 2b 3e 3b 11 97 3e 76 e0 08 3e 98 01 b8 3e
       0.1671351 0.29505333 0.13366875 0.35938716
000150 94 5a 36 be 58 9c b9 3d 84 0f 8a 3e 85 23 81 3e
       -0.1780799 0.09063023 0.26964962 0.25222412
000160 ea 3f 8a 3e 6c 94 20 bd 20 09 f4 3d 4a 06 91 bc
       0.27001888 -0.039204046 0.11915803 -0.017703194
000170 bc 22 62 3e 48 2c 4c 3d ad 39 6a 3d b2 13 01 3d
       0.22083563 0.049846917 0.05718391 0.031512924
000180 92 7d ac bb 17 80 0d 3e ee ac fa bd 71 a5 35 3c
       -0.0052639926 0.13818394 -0.12240015 0.011086808
000190 39 3a 55 be 80 4e 20 3e 0f ba 63 bd 8c 0e e4 bd
       -0.20822991 0.15654945 -0.05559736 -0.11135587
0001a0 fc 9b 64 be 8b 8b 5d 3e 49 50 1e 3e 55 63 c2 be
       -0.22325128 0.21635263 0.15460314 -0.3796641
0001b0 ae 36 e5 bb 63 dd 92 3d 90 36 cb bd 21 1c 73 be
       -0.0069950437 0.071711324 -0.09922516 -0.23741199
0001c0 66 7a 19 3e 04 52 29 3e 59 12 6d 3d c5 7a 49 be
       0.14988098 0.16535193 0.057878826 -0.19675739
0001d0 73 c5 c9 bd 5e 52 44 3d 1b 3b 0d bd b3 c5 ab 3e
       -0.098521136 0.047930114 -0.034480195 0.3354927
0001e0 19 70 56 3e a1 6f 85 be 11 66 27 3e 68 eb 6b 3d
       0.209412 -0.2606173 0.16347529 0.057597548
0001f0 0c 2b 9d be 3a dd be be 4a ff 3f be ec 58 d2 3b
       -0.30696905 -0.37278157 -0.18749729 0.0064192917
000200 86 d4 d8 3d 94 a3 9e bd 12 a3 bd 3e 36 d2 61 3e
       0.10587411 -0.07746044 0.37038475 0.22052845
000210 63 0d 8f 3e ab d1 d4 3d 27 cf 90 3e 3b 6b af 3e
       0.279399 0.103915535 0.28283045 0.34261498
000220 84 63 9c 3d 38 b7 03 bc ae 63 ee 3b 9c 2a 39 3d
       0.076361686 -0.008039288 0.0072750663 0.04520665
000230 37 ab 8d 3d 1f 8c 8d be 27 d4 f2 bd d5 b6 74 3e
       0.06917422 -0.27645966 -0.11856871 0.2389787
000240 8c 64 16 be 19 29 35 3e 5c cb 62 3e 4e 7d aa 3e
       -0.14686793 0.17691459 0.22147888 0.33298725
000250 43 f2 29 be 9e 59 88 be 92 7a 7a be 71 9b f9 bd
       -0.16596322 -0.26630872 -0.2446082 -0.12187851
000260 66 c1 04 3c 1a b4 4f bd 21 db 49 3e c4 25 8d be
       0.00810275 -0.050708868 0.19712497 -0.27567875
000270 3e 27 a3 be 9f 29 27 be 95 0f b2 bd 48 cf a0 bc
       -0.31865877 -0.16324471 -0.08694378 -0.01963009
000280 65 cf 7c be 9b 3e 80 3e 2c 18 de bd 9e 79 8a 3e
       -0.2468849 0.25047764 -0.10844454 0.27045912
000290 8c ca 57 3e 9c aa 0f 3e 99 81 06 3e 75 de 30 3e
       0.21073359 0.14029926 0.13135375 0.1727236
0002a0 40 92 6c bc 77 89 96 3e 9e d0 11 3e 6f 34 0b 3e
       -0.014439166 0.29401752 0.14239737 0.1359422
0002b0 a4 28 05 bd fe 05 aa be 5e c4 c2 be 5d 70 47 be
       -0.03250946 -0.33207697 -0.3804044 -0.19476457
0002c0 e6 3e a3 3d dd 74 56 bd 94 b5 b5 be 22 4c 8a 3d
       0.07970981 -0.052357543 -0.35490096 0.067528024
0002d0 32 3e 33 be ab b0 b8 be a6 e2 97 bc f2 6d 93 bd
       -0.17504194 -0.36072287 -0.018540692 -0.07198705
0002e0 a3 da d2 be 87 dc 7b be 8d 26 3d 3e 6a 1b 34 bd
       -0.41182432 -0.24595843 0.18471737 -0.043971457
0002f0 af 79 07 be a9 e8 26 3e c6 90 2e be 3a 8d c1 3d
       -0.13230012 0.1629969 -0.17047414 0.09450765
000300 4e 49 ac bd dc b2 63 be 87 13 3c 3e a3 89 39 3e
       -0.08412419 -0.22236198 0.18366824 0.1811891
000310 44 31 0f be db d7 9a be 24 d4 94 3e b2 43 65 3e
       -0.13983637 -0.3024281 0.290681 0.22389105
000320 b2 64 77 be 57 2c 41 3e ff a6 90 bc e8 76 13 3b
       -0.24159506 0.1886457 -0.017657755 0.0022501294
000330 22 89 21 3d fa 5b b8 3e b2 1e 96 3e 6f 9e a4 bd
       0.03943742 0.36007673 0.29320294 -0.08038031
000340 1d 31 5a 3e 45 71 1f 3e cf 45 8e be 9a 8f 7e bd
       0.21307798 0.15570553 -0.27787635 -0.062148668
000350 34 64 18 3e d6 9b a4 3e 30 bb 9f 3e d8 fc 03 be
       0.14881974 0.32150143 0.311975 -0.12889421
000360 f0 fd a5 bd ce 84 06 be cb 66 2a be 2e 37 99 3c
       -0.08105075 -0.13136598 -0.16640775 0.01870307
000370 d2 21 7e bd 4e 41 83 be 53 bf 09 be 86 97 0f be
       -0.062043972 -0.2563576 -0.1345189 -0.14022645
000380 86 61 76 3d b4 18 05 bd f9 ef 8c 3e 9f 00 9b be
       0.0601516 -0.03249426 0.27526835 -0.3027391
000390 ee 3c 40 be f4 b3 4c be 1f 18 af be 96 dc c6 bd
       -0.18773243 -0.19990522 -0.3419809 -0.09710042
0003a0 02 d1 b2 be 51 eb 2c 3d 45 20 2d 3e aa 71 c4 3d
       -0.34925085 0.042216603 0.16906841 0.09591992
0003b0 df 69 59 3e 12 68 5f bd bd 15 28 3e 6c 04 02 3e
       0.21231793 -0.05454261 0.16414542 0.12697
0003c0 c4 59 84 be 22 2f d4 3d 68 e8 67 3d 05 7f 54 be
       -0.25849736 0.10360552 0.056618124 -0.20751579
0003d0 f6 76 c3 3d cc d4 91 be 2e 7d 83 be ed 47 f5 3d
       0.095441744 -0.28482664 -0.25681442 0.119766094
0003e0 d1 49 be be de e4 9d 3d 6b c9 43 be e2 b4 ac 3d
       -0.37165692 0.077096686 -0.19119804 0.08432938
0003f0 a3 73 4b 3e 25 8d 1b 3d 93 71 1c 3d e8 96 a1 be
       0.1986833 0.037976403 0.03819425 -0.31560445

enc3.layer.1.weight f4 [64]
000000 cf ed 6b 3f db 4a 83 3f c9 d3 9a 3f ef 47 78 3f
       0.9215974 1.0257219 1.2095882 0.9698476
000010 a3 d1 58 3f 0a 88 56 3f 60 32 91 3f 49 c3 6a 3f
       0.8469488 0.8380133 1.1343498 0.9170423
000020 ee cd 9a 3f fc 42 83 3f 5d cc 93 3f c5 42 66 3f
       1.2094095 1.0254817 1.1546742 0.8994563
000030 89 59 6f 3f d7 f7 57 3f 02 10 70 3f 09 e8 8d 3f
       0.93495995 0.8436255 0.93774426 1.1086437
000040 32 84 6a 3f dc d6 6c 3f 88 3b 71 3f 4c e5 62 3f
       0.91607964 0.9251535 0.9423146 0.8863113
000050 a7 6b 73 3f 07 1e 4a 3f 53 9f 5d 3f 5a c6 68 3f
       0.9508614 0.7895207 0.86571234 0.9092766
000060 5e 61 76 3f 04 8f 6d 3f 42 db 79 3f 83 16 54 3f
       0.9624232 0.9279635 0.97600186 0.8284685
000070 9e 8e 7c 3f b5 a4 7f 3f b6 96 85 3f 44 a2 70 3f
       0.98655117 0.998607 1.0436618 0.939976
000080 b5 04 61 3f e0 02 6d 3f ac a3 7e 3f ea 91 7a 3f
       0.8789781 0.9258251 0.99468493 0.978789
000090 9b 12 6b 3f b6 ee 70 3f b5 a0 78 3f 86 9c 82 3f
       0.91825265 0.94114244 0.9712022 1.0204017
0000a0 5e 5b 99 3f a8 b7 75 3f a6 5e 81 3f 61 01 86 3f
       1.1981008 0.9598336 1.010701 1.0469171
0000b0 d5 a5 74 3f 05 fd 80 3f 0d 27 8a 3f 20 87 71 3f
       0.9556554 1.0077215 1.0793167 0.9434681
0000c0 3f 2d 74 3f 37 a1 46 3f e0 1a 65 3f 5b 9f 84 3f
       0.9538154 0.77589744 0.89494133 1.0361131
0000d0 88 a3 a2 3f 45 8b 6e 3f a9 fd 8a 3f 25 03 80 3f
       1.2706156 0.9318126 1.0858661 1.000096
0000e0 e1 36 65 3f a3 a6 6b 3f d0 89 86 3f 71 00 66 3f
       0.89536864 0.9205114 1.0510807 0.89844424
0000f0 86 c6 7b 3f 1a 1f 98 3f 9a 90 87 3f a1 6e 7f 3f
       0.983498 1.1884491 1.0591004 0.9977818

enc3.layer.1.bias f4 [64]
000000 52 d0 5b bc 4e 8f bf bd 72 eb 83 3d 7d 0a 12 be
       -0.013416367 -0.09353505 0.06441392 -0.14261813
000010 b2 31 2b bd df c5 f0 bd 9d 30 70 3e ad 4b 99 bc
       -0.04179544 -0.11756491 0.23456044 -0.018712843
000020 b9 86 15 3e ea 61 a6 3d 3e ec 96 bc 46 91 31 bd
       0.14602174 0.081241444 -0.018423196 -0.043351434
000030 50 e0 93 bd ea 48 23 be 92 a6 51 3b 59 a3 9a bd
       -0.072205186 -0.15945783 0.0031990153 -0.07550687
000040 68 f4 0f be 5e 7e 0a bc c4 7b 1d 3c 43 cc 8f bd
       -0.14058077 -0.00845298 0.009612028 -0.07021382
000050 35 83 36 bd c1 2a 49 be d0 dc e2 bd d1 c4 18 be
       -0.044558723 -0.19645216 -0.11077273 -0.1491883
000060 40 b3 2c bd d0 44 1d bc 0f fb cd bd 2d e4 ed bd
       -0.042163134 -0.009598926 -0.10057651 -0.11615787
000070 de 08 a4 3d 4e b8 2c 3d 72 11 25 3d 6f a0 ab 3c
       0.08009504 0.042167954 0.04029984 0.020950524
000080 dc cb 7a bd 19 01 a9 bd 64 cb a8 bc 92 ba ad 3b
       -0.06122957 -0.082521625 -0.020604797 0.005301782
000090 ae e4 8a bd c0 ad d2 3b 39 42 91 bd a9 4a 22 3e
       -0.067818984 0.006429404 -0.07092709 0.15848793
0000a0 fa e6 75 3e eb be b1 bd 55 a5 b3 3d 5b 97 22 be
       0.24013892 -0.08678993 0.08771769 -0.1587805
0000b0 fa 7a 90 bd 88 3d 3b be bf 02 6f 3d 21 0e e5 bd
       -0.07054706 -0.18285191 0.05835223 -0.111843355
0000c0 11 cf e8 bc b3 2d 0b be 4f d5 8d bd 54 08 c8 bc
       -0.02841905 -0.13591652 -0.06925451 -0.024418034
0000d0 99 23 d4 3d 00 62 a4 bd f0 36 21 3d 0a c6 14 be
       0.10358352 -0.080265045 0.039359033 -0.14528671
0000e0 29 a7 a3 bd bd 1c 45 3d 3a f6 e3 bc 96 eb be bc
       -0.07990868 0.04812311 -0.02782737 -0.023305696
0000f0 eb f0 c6 3c 67 54 0f be 6f 90 dd bd 5c 9e 54 3c
       0.0242848 -0.1399704 -0.10818564 0.012977209

enc3.layer.1.running_mean f4 [64]
000000 a6 84 a1 3e 26 93 95 3e 65 e6 ce 3d fc ce 0c 3e
       0.31546515 0.29213828 0.10102538 0.13750833
000010 35 f5 4e 3e 4c 4b ac bd f6 20 88 be 6e a1 40 be
       0.20210727 -0.08412799 -0.26587647 -0.1881158
000020 04 fa 00 3f a0 aa f8 3e 42 83 59 3d a8 ab 11 be
       0.50381494 0.48567677 0.053103693 -0.14225638
000030 fb 62 76 bd e6 44 05 bd 1d 4f 80 3e 0c 65 8d 3d
       -0.06015299 -0.03253641 0.2506036 0.06904039
000040 0e 03 30 bd 48 4a 81 be e7 22 af 3e 48 ad d9 be
       -0.042971663 -0.25251985 0.34206316 -0.42515016
000050 6c 46 b0 be d6 bd a3 bd 22 32 56 3e 2c 38 f0 3d
       -0.34428728 -0.07995193 0.20917562 0.11729464
000060 32 e2 5d be 93 e9 ec be a3 82 4d 3e 04 7a 42 be
       -0.21668318 -0.46271953 0.20069365 -0.18991858
000070 5e af 80 be 85 35 d1 bd 71 47 92 3e cc 88 09 3e
       -0.25133795 -0.10215286 0.2857013 0.1343109
000080 64 31 03 bd cf 83 98 3d e6 ca a4 be 13 79 59 be
       -0.032029524 0.074470155 -0.3218605 -0.21237592
000090 52 ef 64 bd c2 32 98 3e 43 d3 b8 bd 12 17 89 be
       -0.055892296 0.29726225 -0.0902467 -0.26775414
0000a0 7a 4c a6 be 06 7f 45 3d 06 2e 71 3e e7 b1 b9 3d
       -0.32480222 0.048216842 0.23552713 0.09067135
0000b0 8b ec 6b bd 98 f4 90 bc 30 a8 e2 be 16 35 39 3e
       -0.05759863 -0.017694756 -0.44268942 0.18086657
0000c0 24 fd be bd a8 b7 a9 bb 1d ad 4d 3d a7 93 59 bd
       -0.093256265 -0.0051793642 0.05021392 -0.053119328
0000d0 38 cc a8 3e 3f da f5 bd 06 a7 c5 be 95 42 90 3e
       0.32968307 -0.12004518 -0.3860399 0.28175798
0000e0 38 88 ac bd 03 14 eb bd fc d5 e6 3c 60 c9 97 3d
       -0.08424419 -0.11478426 0.028178208 0.07411456
0000f0 5e 73 45 be 54 96 85 3d 1e 96 d0 3d 72 a7 7a be
       -0.1928229 0.065228134 0.101848826 -0.24477938

enc3.layer.1.running_var f4 [64]
000000 80 a6 f3 3d 20 f4 88 3e 6c 4a 11 3d 98 e1 78 3d
       0.11896992 0.26748753 0.035471365 0.060762018
000010 b0 60 2e 3d bf 80 1a 3d c5 7e f9 3d cf b4 45 3d
       0.042572677 0.037720438 0.121823825 0.048268136
000020 9e 37 f0 3e cc 43 ae 3e 3a 6c 19 3d 9d 82 a4 3d
       0.46917433 0.340361 0.03745673 0.08032725
000030 de 41 00 3d aa 6d 0d 3e 79 bc b8 3d d2 38 f3 3d
       0.031312816 0.13811365 0.09020323 0.11876072
000040 0e a4 b8 3d a0 77 c2 3d fa 67 58 3e c8 eb 59 3e
       0.09015666 0.09495473 0.21133414 0.2128135
000050 c2 8e cb 3d d9 95 ad 3c c4 d4 5f 3e e5 1c 1a 3e
       0.09939338 0.021189617 0.21858507 0.15050085
000060 11 60 be 3d da 80 df 3d 8e 6e 7b 3d ec fd 9f 3c
       0.09295667 0.10913248 0.06138473 0.01953026
000070 c8 04 94 3d ab 64 a1 3d 0e 6e ba 3e f4 25 ad 3c
       0.072274745 0.07880529 0.3641209 0.021136262
000080 d0 72 ca 3c fe 48 a1 3d cf 42 e0 3d b8 02 6d 3d
       0.02471295 0.0787525 0.10950243 0.05786392
000090 ba 28 aa 3d df e0 b5 3d fd 52 ff 3d f6 90 14 3e
       0.08308549 0.088807814 0.12467001 0.14508423
0000a0 ec d7 3c 3e f7 fb a6 3c 33 e7 8a 3d 5a d5 b5 3d
       0.18441743 0.020383818 0.06782379 0.08878584
0000b0 00 94 31 3e 74 d3 ed 3d 1e b9 18 3e 82 ba b1 3d
       0.17341614 0.11612597 0.14914367 0.08678152
0000c0 44 c1 ed 3b 2c 27 7d 3c f6 03 a7 3c 9e bf 95 3e
       0.007255705 0.015451234 0.02038763 0.29247755
0000d0 d0 80 60 3e 80 bb 46 3e 4a e1 02 3e 40 d4 1b 3e
       0.21924138 0.19407463 0.12781253 0.15217686
0000e0 e8 e2 8b 3c cf 98 a4 3d 20 98 06 3e f6 00 38 3d
       0.01707597 0.080369584 0.13143969 0.04492279
0000f0 80 3c 79 3d 84 14 a9 3d 8e 23 e4 3d 9e 79 2e 3d
       0.060848713 0.08255866 0.11139594 0.042596452
