trained_models/palm_house.pth (torch, 210147 bytes, 72 tensors)

enc1.layer.0.weight f4 [3, 1, 3, 3]
0	0x3c556f82	0.013027074
1	0x3d01707b	0.03160141
2	0x3d91bffc	0.07116696
3	0xbe0cd747	-0.13753997
4	0xbee1ceb5	-0.44103017
5	0x3d81212f	0.063051574
6	0xbe24b4fb	-0.16084664
7	0xbecf2601	-0.40458682
8	0x3d833b5f	0.064078085
9	0xbe125733	-0.14291076
10	0x3dd2ed27	0.102991395
11	0x3e280e26	0.16411647
12	0x3e9179d0	0.28413248
13	0x3f0a7c30	0.54095745
14	0xbe708ac0	-0.23490429
15	0x3e46308c	0.19354457
16	0xbe417f0b	-0.1889612
17	0xbe1ad0e9	-0.15118755
18	0x3dcef6ce	0.10105668
19	0x3ece0ade	0.40242666
20	0x3e08b216	0.13349184
21	0xbeb8c241	-0.36085704
22	0x3e5b084b	0.21389882
23	0x3c280cd5	0.010256966
24	0xbd2a6dcc	-0.041608617
25	0x3b8f0e43	0.004365714
26	0x3d70602d	0.05868547

enc1.layer.1.weight f4 [3]
0	0x3f5ee44f	0.8706712
1	0x3f6ab1e9	0.9167772
2	0x3f2bfa87	0.6717915

enc1.layer.1.bias f4 [3]
0	0x3e184a7f	0.14872168
1	0x3eb81167	0.35950777
2	0x3f1ba761	0.60802275

enc1.layer.1.running_mean f4 [3]
0	0x3de44cd0	0.11147463
1	0xbdd3c416	-0.10340135
2	0xbe0ed3ac	-0.13947934

enc1.layer.1.running_var f4 [3]
0	0x3e4d2a5c	0.2003569
1	0x3da6173a	0.08109899
2	0x3d8a3e15	0.067501225

enc1.layer.3.weight f4 [32, 3, 1, 1]
0	0xbdbce74d	-0.092238046
1	0x3e0830db	0.13299887
2	0x3cea1bd0	0.028577715
3	0x3e1eb89e	0.15500113
4	0xbf2ffa43	-0.68741244
5	0x3b85dda5	0.00408526
6	0xbef96b2c	-0.48714578
7	0x3bb134c7	0.005407903
8	0x3ed51206	0.41615313
9	0xbebcce6b	-0.36876234
10	0xbc1b6351	-0.009484128
11	0x3ec698c1	0.38788417
12	0xbedeef2a	-0.43541843
13	0x3de9a037	0.11407512
14	0xbc6f86a9	-0.014619508
15	0x3e148984	0.14505583
16	0x3da47046	0.08029227
17	0x3f067a68	0.5253053
18	0xbe3e6bd0	-0.18595815
19	0x3e46bdaf	0.19408296
20	0xbdac46c2	-0.084119335
21	0x3e5fcb62	0.21854928
22	0x3f1abee6	0.6044754
23	0x3eea9c72	0.45822483
24	0x3f12ace4	0.5729506
25	0x3ee421a5	0.4455692
26	0x3e15d711	0.14632823
27	0x3f057b91	0.5214167
28	0x3c3c6679	0.011499041
29	0x3e72c11f	0.23706482
30	0xbd4c9b24	-0.04995264
31	0xbf0b4d41	-0.54414755
32	0xbe82bb86	-0.25533694
33	0xbebd7750	-0.3700509
34	0x3eb0121a	0.3438881
35	0xbe201d0f	-0.15636085
36	0x3ea0716f	0.31336543
37	0x3eed5e50	0.46361017
38	0x3f0f072f	0.55870336
39	0x3ee54c7a	0.4478491
40	0xbd8fa362	-0.07013585
41	0xbf10538c	-0.5637748
42	0x3ce2291a	0.02760749
43	0x3ec217e3	0.3790885
44	0xbce5c54e	-0.028048184
45	0xbe6eed81	-0.23332788
46	0xbe690767	-0.2275673
47	0x3e1f53b7	0.15559278
48	0xbda069a6	-0.07832651
49	0xbe0c9419	-0.1372837
50	0xbeb01e49	-0.34398106
51	0xbe8b6764	-0.27227318
52	0x3b1629ec	0.002291317
53	0x3da2f521	0.07956911
54	0xbdbdae48	-0.09261757
55	0xbf1905fb	-0.5977475
56	0xbbe27490	-0.006910868
57	0xbea416ea	-0.32048732
58	0x3e98d2dc	0.29848373
59	0x3f046f7a	0.517326
60	0x3f206c42	0.6266519
61	0x3e94a88e	0.29034847
62	0xbeda8fcf	-0.42687842
63	0x3ee35038	0.4439714
64	0xbedb8868	-0.42877507
65	0xbe922315	-0.2854239
66	0xbebb4ff2	-0.3658443
67	0xbd661590	-0.056172907
68	0x3ed457a1	0.41473106
69	0xbf072cfe	-0.5280303
70	0xbda300c4	-0.079591304
71	0xbc8eabe3	-0.017415946
72	0x3f3637bc	0.71178794
73	0x3da8c7b5	0.08241216
74	0xbf08803d	-0.53320676
75	0x3f0fc12d	0.5615414
76	0xbd8c999d	-0.06865237
77	0xbe361c42	-0.17784217
78	0x3e8dea2d	0.27717724
79	0x3f0744cb	0.52839345
80	0x3e23505c	0.15948623
81	0x3e382edb	0.17986624
82	0xbec62e61	-0.3870726
83	0xbeb90401	-0.36135867
84	0xbdb7f5a4	-0.08982399
85	0xbd0a1ea5	-0.03372063
86	0xbf23a393	-0.6392147
87	0x3e7789d9	0.24173678
88	0x3dc1524a	0.094395235
89	0x3e7acd4a	0.24492374
90	0x3e8b3652	0.2718988
91	0x3f2ea9d6	0.682279
92	0xbe624b7e	-0.2209911
93	0x3edaf3eb	0.4276422
94	0xbe10a01f	-0.14123581
95	0xbec73249	-0.38905552

enc1.layer.4.weight f4 [32]
0	0x3f94df75	1.1630694
1	0x3f6ddb2f	0.9291257
2	0x3f3b92f3	0.732711
3	0x3f73b89f	0.95203584
4	0x3f84d7af	1.0378321
5	0x3f18da76	0.59708345
6	0x3f82e505	1.0226141
7	0x3f5d93bb	0.86553544
8	0x3f55780a	0.8338629
9	0x3f7736c5	0.96567947
10	0x3f434693	0.7627956
11	0x3f95ca70	1.1702404
12	0x3f58e265	0.8472045
13	0x3f540d10	0.8283243
14	0x3f679e7d	0.9047621
15	0x3f5198c9	0.81873757
16	0x3f76df31	0.96434313
17	0x3f820d04	1.0160222
18	0x3f778524	0.9668753
19	0x3f77a47f	0.96735376
20	0x3f5b4f4d	0.8566788
21	0x3f70181b	0.9378678
22	0x3f573ab2	0.84073937
23	0x3f536172	0.82570565
24	0x3f705e7b	0.93894166
25	0x3f74fe05	0.95700103
26	0x3f846ae1	1.0345117
27	0x3f90fad5	1.1326548
28	0x3f548679	0.8301769
29	0x3f84a377	1.0362386
30	0x3f3aa719	0.7291122
31	0x3f967b89	1.175645

enc1.layer.4.bias f4 [32]
0	0x3d9b2663	0.07575681
1	0x3d858221	0.06518961
2	0x3c849198	0.016182706
3	0x3df19cc5	0.117974795
4	0x3db548f1	0.08851803
5	0xbe340cc8	-0.17583
6	0x3e0cf5f5	0.137657
7	0xbd51735f	-0.051135417
8	0x3db71b38	0.089407384
9	0x3da9309a	0.08261223
10	0xbe524fbf	-0.20538233
11	0x3e38e684	0.18056685
12	0x3e559b64	0.20860058
13	0xbdd9bafa	-0.10631366
14	0xbd86f87b	-0.06590363
15	0x3d9f78ad	0.07786689
16	0xbe019bf3	-0.12657146
17	0x3da7e27d	0.08197496
18	0x3d0914de	0.033467166
19	0x3e011da9	0.1260897
20	0x3c449e80	0.01200068
21	0x3d884e03	0.066555046
22	0x3e79ded5	0.2440141
23	0x3d92487b	0.07142731
24	0xbd40631a	-0.04696951
25	0x3e1844db	0.14870016
26	0x3e28e029	0.1649176
27	0x3cb95b76	0.02262662
28	0x3d87262f	0.0659908
29	0x3f0200fc	0.5078275
30	0x3d44578e	0.04793506
31	0x3dd0d777	0.10197347

enc1.layer.4.running_mean f4 [32]
0	0x3d511316	0.051043592
1	0xbea11502	-0.3146134
2	0x3d533c27	0.051571038
3	0x3da3ce26	0.07998304
4	0xbe0d4db8	-0.13799179
5	0x3ee48134	0.44629824
6	0xbce343d5	-0.027742306
7	0x3f3adba0	0.7299137
8	0x3f196f16	0.5993513
9	0x3ec90d98	0.39268184
10	0xbefb40be	-0.49072832
11	0xbd948064	-0.07251051
12	0x3f41ffdc	0.75781035
13	0xbe4ea630	-0.20180583
14	0x3e55f746	0.20895109
15	0xbe083b60	-0.133039
16	0xbea971de	-0.33094686
17	0xbd952a03	-0.07283404
18	0xbec2b0b2	-0.38025433
19	0x3eb69f00	0.35668182
20	0x3e2fb5e4	0.1715923
21	0xbe675d89	-0.22594275
22	0x3d8e034c	0.069342226
23	0xbe95bcec	-0.29245698
24	0x3cb07a5e	0.021542724
25	0x3dce4dc8	0.10073429
26	0x3f05bafc	0.5223844
27	0xbebc25a2	-0.36747462
28	0xbeefadbc	-0.46812236
29	0x3ea231c8	0.31678605
30	0x3eb9fffa	0.36328107
31	0xbe102c57	-0.14079414

enc1.layer.4.running_var f4 [32]
0	0x3ca9b56b	0.02071639
1	0x3e94daf7	0.29073307
2	0x3e558da2	0.2085481
3	0x3e14b44d	0.14521904
4	0x3d9726ee	0.07380472
5	0x3dea4901	0.11439706
6	0x3cec487b	0.028843155
7	0x3ec52239	0.38502672
8	0x3db9adb6	0.09066336
9	0x3d2f0ac6	0.042734884
10	0x3e85be04	0.26121533
11	0x3dccf06d	0.10006795
12	0x3ea0d78b	0.31414446
13	0x3ea3d964	0.32001793
14	0x3d7eb123	0.06218065
15	0x3c5210a8	0.012821354
16	0x3d9bd7d1	0.07609523
17	0x3cf2c99a	0.029637147
18	0x3e2239ea	0.15842405
19	0x3ecc1c3b	0.39865288
20	0x3e10be1b	0.1413502
21	0x3ecd40b9	0.40088442
22	0x3e0a8267	0.13526307
23	0x3d55102e	0.052017383
24	0x3ea9f70c	0.33196294
25	0x3e23014b	0.15918462
26	0x3e1897b9	0.14901628
27	0x3e9739ce	0.2953629
28	0x3e1fd2e4	0.15607792
29	0x3cd96970	0.026539534
30	0x3dcddb8c	0.10051641
31	0x3e7f6fd6	0.24945006

enc2.layer.0.weight f4 [32, 1, 3, 3]
0	0xbdec0f8e	-0.11526404
1	0x3cea9e10	0.028639823
2	0x3e80e8cd	0.25177613
3	0x3e91be60	0.28465557
4	0xbdbf0183	-0.0932646
5	0xbdd55589	-0.10416705
6	0x3e32bd37	0.17454992
7	0x3eb7d2f2	0.35903126
8	0x3e8600eb	0.26172575
9	0xbe49a068	-0.19690096
10	0xbe7a8cba	-0.24467745
11	0x3e9b0a60	0.30281353
12	0xbde15943	-0.110033534
13	0xbeac701a	-0.33679277
14	0xbe371c9f	-0.17882012
15	0xbd17a369	-0.037021074
16	0x3d3bcd44	0.045850053
17	0xbe339333	-0.17536621
18	0xbda41fd6	-0.08013885
19	0xbe0636d4	-0.13106853
20	0x3e36ad37	0.17839514
21	0xbdf4cfeb	-0.1195372
22	0xbe9172c1	-0.28407863
23	0x3ea716dd	0.3263463
24	0x3dadc5d7	0.084850006
25	0xbe9fa031	-0.31176904
26	0x3e5fe36c	0.21864098
27	0xbd786b16	-0.060649
28	0xbe987b3b	-0.29781517
29	0x3df46623	0.119335435
30	0xbec769b4	-0.38947833
31	0xbcf9f4a5	-0.030512163
32	0x3b0fbb65	0.0021931764
33	0xbba47040	-0.005018264
34	0xbe9a3155	-0.30115762
35	0x3d724655	0.059149105
36	0xbd1bd60e	-0.038045935
37	0x3ea1cfaf	0.31603763
38	0x3e987146	0.2977392
39	0xbdc47757	-0.09593075
40	0x3dfbf8b8	0.12303299
41	0xbdd5198c	-0.10405263
42	0x3da4a2da	0.08038874
43	0xbe846aad	-0.25862637
44	0xbeaeb609	-0.34123257
45	0xbe5b6cbc	-0.21428198
46	0xbe47dbb0	-0.19517398
47	0xbe677e89	-0.22606863
48	0xbe70a331	-0.23499753
49	0x3bd8048e	0.00659234
50	0x3d4d2d06	0.050091766
51	0x3e57295e	0.21011874
52	0xbe9cc518	-0.3061912
53	0xbe5124cc	-0.20424193
54	0xbd427f7d	-0.047484864
55	0xbe079f64	-0.13244396
56	0x3df47719	0.119367786
57	0xbd1013e4	-0.03517522
58	0xbe97c88d	-0.29645196
59	0x3dfa1f42	0.12212993
60	0x3da626cb	0.08112868
61	0xbec9120b	-0.39271578
62	0xbd452728	-0.048133045
63	0x3e9584eb	0.2920297
64	0xbddb8b0f	-0.10719883
65	0x3dcc8697	0.099866085
66	0x3e0b63a4	0.13612229
67	0xbe9e7a24	-0.3095256
68	0xbea21eb1	-0.3166404
69	0xbe39cab9	-0.18143739
70	0x3dbf5082	0.093415275
71	0xbe94880d	-0.29010049
72	0xbdbbe7a9	-0.09175045
73	0xbd63122e	-0.05543726
74	0x3e398943	0.18118767
75	0xbedac9c4	-0.4273206
76	0xbc8fd432	-0.017557237
77	0xbe98e7e1	-0.2986441
78	0xbe18376b	-0.1486489
79	0xbe1ee3d2	-0.15516594
80	0xbea7293d	-0.3264865
81	0x3caec046	0.021331917
82	0x3d2c37a2	0.042045243
83	0x3e831e60	0.25609112
84	0x3e36bc75	0.17845328
85	0xbe64aa04	-0.22330481
86	0xbccc7b25	-0.024961064
87	0xbecdf49b	-0.40225682
88	0x3b34089f	0.002747096
89	0xbe978a96	-0.2959792
90	0xbda8969c	-0.082318515
91	0xbc56b63d	-0.013104972
92	0xbdc67b14	-0.09691444
93	0x3b7993cd	0.003808248
94	0xbd864997	-0.06557005
95	0xbe3036b4	-0.17208368
96	0x3e789b06	0.24277887
97	0x3edb804e	0.42871326
98	0xbe323bd6	-0.17405638
99	0xbe93c27e	-0.28859323
100	0xbe9539b6	-0.29145592
101	0x3e834756	0.25640363
102	0xbe6b14d6	-0.22957167
103	0xbc344453	-0.011002618
104	0x3e669127	0.22516309
105	0xbd1249ba	-0.035714842
106	0x3d80c043	0.06286671
107	0x3e94beda	0.29051858
108	0x3e6ea873	0.23306446
109	0x3e78881e	0.24270675
110	0x3e9aa1d7	0.302016
111	0xbda139b5	-0.07872335
112	0xbdbbad2d	-0.0916389
113	0xbb22fd4a	-0.002487021
114	0x3ac86f48	0.0015291953
115	0x3ed2a87e	0.41144174
116	0xbdbe6b8f	-0.09297859
117	0x3ea018f8	0.3126905
118	0x3e5f3264	0.21796566
119	0xbe0fdb66	-0.14048538
120	0xbdb91f1d	-0.090391375
121	0x3edbfbf1	0.42965654
122	0x3df172fd	0.117895104
123	0x3e183c3c	0.14866728
124	0x3de60277	0.11230939
125	0x3e46c59d	0.19411321
126	0xbd999973	-0.07499971
127	0x3d84d235	0.06485406
128	0xbd33feb7	-0.043944087
129	0xbe93e8f5	-0.2888867
130	0x3d54243a	0.05179236
131	0x3ea4071e	0.3203668
132	0xbe89411a	-0.2680748
133	0x3c20d47c	0.009816285
134	0xbe13e00a	-0.14440933
135	0x3d05b304	0.032641426
136	0xbeb28516	-0.34867162
137	0xbebe1f8d	-0.37133446
138	0xbe9db9e4	-0.30805886
139	0x3dd65242	0.10464908
140	0xbe0c3ec1	-0.13695814
141	0xbe49d86d	-0.19711466
142	0x3db3e471	0.08783806
143	0xbd517d67	-0.051144984
144	0x3ce434a1	0.027857127
145	0xbe03ce69	-0.12871708
146	0x3da06e55	0.07833544
147	0xbd8ac1b7	-0.067752294
148	0x3dfd545a	0.123696044
149	0x3ea0a123	0.31372938
150	0x3dbeca11	0.09315885
151	0x3ebfeb33	0.3748413
152	0x3e8a540d	0.2701725
153	0x3db2257e	0.08698557
154	0x3e110d96	0.14165339
155	0xbe0957c5	-0.13412388
156	0xbe267021	-0.16253711
157	0x3d3234b5	0.043507297
158	0xbddb15bd	-0.106975056
159	0xbe8e22ed	-0.2776102
160	0xbe658569	-0.22414173
161	0xbeaa80b5	-0.3330132
162	0x3defe4a4	0.117135316
163	0x3e9f8d91	0.31162694
164	0x3dcf8b08	0.1013394
165	0x3db8c9ff	0.09022903
166	0x3ec97f5c	0.3935498
167	0x3e81f99c	0.2538575
168	0xbe390486	-0.18068132
169	0xbde3e9f7	-0.1112861
170	0xbe368f03	-0.17827992
171	0xbe01ef55	-0.12688954
172	0x3e81b36c	0.253322
173	0xbe00c73a	-0.12575999
174	0x3dcd311c	0.100191325
175	0x3e176673	0.14785175
176	0x3df6eab3	0.12056484
177	0x3eb04927	0.3443081
178	0x3eb095da	0.34489328
179	0xbd7d0ca3	-0.06177963
180	0xbd361a51	-0.04445869
181	0x3e6823b4	0.2266987
182	0x3e95d7e6	0.2926628
183	0xbe84cdf8	-0.25938392
184	0x3ded444d	0.11585293
185	0x3eafd8dd	0.3434514
186	0xbe00cf81	-0.12579156
187	0x3e774c7c	0.2415027
188	0x3c77cb66	0.015124178
189	0xbdf9be51	-0.12194503
190	0x3c42bdcf	0.011886074
191	0x3d5e4fa8	0.054275185
192	0xbe7afc8b	-0.245104
193	0x3b3801a1	0.0028077143
194	0xbead9ef3	-0.3391033
195	0x3e51ef8d	0.20501538
196	0x3e829241	0.25502208
197	0xbe1cda43	-0.15317635
198	0xbdf6b361	-0.120459326
199	0x3d315ca2	0.043301232
200	0xbe9ffbf5	-0.31246915
201	0x3e2bb121	0.16766788
202	0x3e9c35bb	0.30509743
203	0xbd891a69	-0.066944905
204	0xbe9d23db	-0.30691418
205	0x3df1d2ff	0.118078224
206	0x3da82e6d	0.0821198
207	0xbe133966	-0.14377365
208	0xbea228e3	-0.3167182
209	0xbe934e00	-0.28770447
210	0x3e39ca0d	0.18143483
211	0xbec15a75	-0.37764326
212	0xbe9154b8	-0.28384948
213	0xbd6172f5	-0.055041272
214	0x3e705b78	0.23472393
215	0xbd0ba535	-0.0340931
216	0xbeaa7bd1	-0.3329759
217	0xbe3c5d8c	-0.1839506
218	0xbe222e0d	-0.1583788
219	0x3d491448	0.049091607
220	0xbc2906d3	-0.010316568
221	0xbe44bb47	-0.19212066
222	0xbdbf09c3	-0.09328034
223	0x3e42d605	0.19026954
224	0xbdcd3263	-0.10019376
225	0x3da903e3	0.082526945
226	0x3e5660a2	0.209353
227	0x3d3f73f0	0.046741426
228	0x3e0146d8	0.12624681
229	0x3d89f860	0.06736827
230	0xbe1024ae	-0.14076492
231	0x3eb174d0	0.34659433
232	0xbd05c5bd	-0.03265928
233	0xbda8b000	-0.08236694
234	0xbe0c2407	-0.13685618
235	0x3eb8da25	0.3610393
236	0xbd56ca90	-0.052439272
237	0x3e1e2388	0.15443242
238	0x3e994588	0.2993586
239	0xbe81ae44	-0.25328267
240	0x3ea0df08	0.3142016
241	0xbe70cf66	-0.23516616
242	0xbe684f53	-0.2268651
243	0xbe66e8ff	-0.22549818
244	0xbdb75994	-0.089526325
245	0xbe24fab3	-0.16111259
246	0x3dc76f10	0.0973798
247	0xbc091778	-0.008367412
248	0xbe3cf321	-0.18452121
249	0x3e9ec50e	0.31009716
250	0x3e72f380	0.237257
251	0xbe1597e3	-0.14608721
252	0x3e18406d	0.14868326
253	0x3e12e646	0.14345655
254	0xbde7f8d9	-0.11326761
255	0xbdae0639	-0.08497281

enc2.layer.1.weight f4 [32]
0	0x3f86a2c3	1.0518421
1	0x3f84d4e9	1.0377475
2	0x3f7d32fd	0.98905927
3	0x3f7984f7	0.97468513
4	0x3f84bc13	1.0369896
5	0x3f69321f	0.91092104
6	0x3f838100	1.0273743
7	0x3f748c27	0.95526356
8	0x3f6a7afe	0.9159392
9	0x3f4bcfb1	0.79613787
10	0x3f8a4b0d	1.0804154
11	0x3f77cb1d	0.967943
12	0x3f65dae0	0.897871
13	0x3f860e8c	1.0473189
14	0x3f5ce90b	0.86293095
15	0x3f575ba7	0.84124225
16	0x3f912ae1	1.1341211
17	0x3f8a33a5	1.0797011
18	0x3f6de145	0.9292186
19	0x3f7c2df0	0.98507595
20	0x3f7b6be2	0.9821149
21	0x3f87a03e	1.0595777
22	0x3f6afe4c	0.91794276
23	0x3f64d89f	0.8939304
24	0x3f6c74df	0.9236583
25	0x3f7d3864	0.9891417
26	0x3f6ca8e6	0.9244522
27	0x3f9156e2	1.135464
28	0x3f609aaa	0.87736
29	0x3f896c5a	1.0736191
30	0x3f588400	0.84576416
31	0x3f7bba3d	0.9833105

enc2.layer.1.bias f4 [32]
0	0x3d95c975	0.073138155
1	0x3dd5528b	0.104161344
2	0xbdcb4335	-0.09924928
3	0x3c05ebce	0.008173896
4	0xbd882473	-0.06647577
5	0xbd45c986	-0.04828789
6	0x3da18b9f	0.07887959
7	0x3bc1b611	0.0059115966
8	0xbcc0a798	-0.023517415
9	0xbde3f187	-0.11130052
10	0xbe043222	-0.12909749
11	0x3d22e015	0.039764483
12	0xb96a8ba7	-0.00022368004
13	0xbbf6ef4b	-0.00753585
14	0xbe0b5ebc	-0.13610357
15	0xbda05343	-0.07828381
16	0x3e09f434	0.13472062
17	0x3d732434	0.059360698
18	0xbb848bdb	-0.0040449924
19	0x3d8f5974	0.06999484
20	0x3cc6f46c	0.024286471
21	0x3d530a89	0.05152372
22	0xbe11cf9f	-0.14239357
23	0xbd89c095	-0.06726185
24	0x3cf8d772	0.03037617
25	0x3bc889f5	0.0061199614
26	0x3cb89942	0.022534017
27	0x3d90d3bb	0.070716344
28	0xbcf109c8	-0.02942361
29	0x3d8443f8	0.064582765
30	0xbda6417e	-0.081179604
31	0xbd104002	-0.035217293

enc2.layer.1.running_mean f4 [32]
0	0x3f0c983a	0.5491978
1	0xbecd4bea	-0.4009698
2	0xbd227a4c	-0.039667413
3	0xbed15d60	-0.40891552
4	0xbc31a4ed	-0.010842544
5	0xbe5332d7	-0.20624863
6	0xbea501f6	-0.3222806
7	0xbe471355	-0.19440968
8	0xbef9246c	-0.486606
9	0xbe448a9a	-0.19193497
10	0x3c885a47	0.01664461
11	0xbc683822	-0.014173539
12	0x3ec9fb02	0.39449316
13	0x3ec0bca4	0.3764392
14	0xbe0958d1	-0.13412787
15	0xbee0505e	-0.43811315
16	0x3eb05596	0.34440297
17	0xbef1e1f7	-0.4724271
18	0x3ea9b584	0.33146298
19	0x3ee94982	0.45563895
20	0x3e975e9c	0.2956437
21	0xbe107bc6	-0.14109716
22	0xbd2c90cf	-0.042130288
23	0xbeda98e0	-0.4269476
24	0xbe9d06df	-0.30669305
25	0x3e97ecb7	0.29672787
26	0x3ddac036	0.106811926
27	0xbda9f35f	-0.082983725
28	0xbe80b73b	-0.25139794
29	0x3f08627a	0.53275263
30	0xbd124a7c	-0.035715565
31	0xbe94c035	-0.29052892

enc2.layer.1.running_var f4 [32]
0	0x3f150a8a	0.58219206
1	0x3e02f1af	0.12787507
2	0x3ccb7a4f	0.024838595
3	0x3e8f872a	0.2803281
4	0x3cf6a4ec	0.030107938
5	0x3e0c5aea	0.13706556
6	0x3e3ac03a	0.18237391
7	0x3e14445a	0.14479199
8	0x3f00ad3c	0.50264335
9	0x3de11dea	0.10992034
10	0x3b81553e	0.0039469292
11	0x3df8b449	0.12143762
12	0x3eb917e2	0.36151034
13	0x3e5feb08	0.21867001
14	0x3d9cbd30	0.07653272
15	0x3e4e45b2	0.20143774
16	0x3de03947	0.10948425
17	0x3e7a8ce1	0.24467804
18	0x3dabfd84	0.08397964
19	0x3eda7e80	0.42674637
20	0x3e4b1cc6	0.19835195
21	0x3d0132c2	0.031542547
22	0x3cb12285	0.021622906
23	0x3e1fa7d7	0.1559137
24	0x3e29288b	0.16519372
25	0x3e134443	0.14381509
26	0x3df3ee41	0.11910678
27	0x3ce46e9a	0.02788477
28	0x3d6fe621	0.058569077
29	0x3ed34cae	0.4126944
30	0x3d7c343c	0.061573252
31	0x3ded308b	0.115815245

enc2.layer.3.weight f4 [64, 32, 1, 1]
0	0xbd90eeb4	-0.07076779
1	0x3d33c698	0.043890566
2	0x3d9d39ca	0.07677038
3	0x3e58bd93	0.21166067
4	0x3d07fb65	0.033198733
5	0xbd5682a7	-0.052370694
6	0x3e33af7f	0.17547415
7	0x3d9ed772	0.07755937
8	0x3dcdf3c0	0.10056257
9	0x3db71975	0.089404024
10	0x3e1cbba9	0.15305962
11	0x3e130ca3	0.1436029
12	0xbdf2ac5f	-0.118492834
13	0xbdbf3e7e	-0.09338091
14	0x3e1b586f	0.15170453
15	0xbd634b5f	-0.0554918
16	0x3d5e444c	0.05426435
17	0xbd7ed024	-0.062210217
18	0x3dd9682b	0.106155716
19	0xbdc9390e	-0.098253354
20	0x3d2fb536	0.042897426
21	0x3e0500c3	0.12988572
22	0xbd5e311c	-0.054246053
23	0xbdb22fe1	-0.087005384
24	0x3b3f1041	0.0029153975
25	0x3d735ee0	0.05941665
26	0xbd036d54	-0.032086685
27	0x3d97ba0f	0.07408535
28	0xbb909eae	-0.0044134473
29	0x3b8ee855	0.004361192
30	0x3d6435dc	0.055715427
31	0xbe0aae3e	-0.1354303
32	0xbe0c41a2	-0.13696912
33	0xbdae09fb	-0.084979974
34	0xbd07d600	-0.03316307
35	0xbe032ccc	-0.12810057
36	0xbdbe6080	-0.0929575
37	0xbe19d19a	-0.15021363
38	0x3d1264ad	0.035740543
39	0xbdcf60c5	-0.10125879
40	0xbe00b45e	-0.12568805
41	0xbe4c8d7b	-0.19975846
42	0xbd14047f	-0.0361371
43	0x3e0c8b15	0.1372493
44	0x3ddae4b8	0.10688156
45	0xbc800c42	-0.015630845
46	0x3e45da7a	0.19321623
47	0x3d7e1dff	0.062040325
48	0xbd087f0f	-0.033324298
49	0x3e2b518b	0.16730325
50	0xbcb22971	-0.021748276
51	0xbe099909	-0.13437285
52	0xbcefb0ed	-0.02925917
53	0xba4186ec	-0.00073824706
54	0x3d9afa65	0.0756729
55	0x3d44d316	0.04805287
56	0xbe9afab9	-0.3026941
57	0x3e4a5e1a	0.1976246
58	0xbd114de0	-0.035474658
59	0xbd259862	-0.040428527
60	0xbd6a592b	-0.057213943
61	0xbe20c556	-0.15700278
62	0x3dac7599	0.084208675
63	0xbc20cfad	-0.009815139
64	0xb9eaf5fc	-0.0004481523
65	0x3de25dea	0.11053069
66	0x3e2d9b08	0.16953671
67	0x3e21fbcb	0.15818708
68	0x3df80c0d	0.121116735
69	0xbdf0489f	-0.117326014
70	0x3dfa01be	0.122073635
71	0xbd6ffa31	-0.05858821
72	0xbe34e618	-0.17665899
73	0xbcf202c0	-0.029542327
74	0xbdb00ccb	-0.0859619
75	0xbdd2a79a	-0.10285874
76	0xbce91a22	-0.028454844
77	0x3e4451f6	0.1917189
78	0xbd2a02f9	-0.04150674
79	0xbc3a2708	-0.011361845
80	0xbc24972a	-0.010045806
81	0x3df49f33	0.11944427
82	0xbda5d005	-0.08096317
83	0xbce78a93	-0.02826432
84	0x3d3c933b	0.046038847
85	0xbcd7579e	-0.026286896
86	0x3e1e7bcf	0.15476917
87	0x3c28eed0	0.010310844
88	0x3dcecf99	0.1009819
89	0x3dac19a6	0.084033296
90	0xbc405910	-0.011739984
91	0x3d12b5ec	0.035818025
92	0xbd0d676f	-0.03452247
93	0x3e27d97b	0.16391556
94	0x3d990e9d	0.074734904
95	0xbd860a7c	-0.065449685
96	0x3d4f0a60	0.050547004
97	0xbe6be9a2	-0.23038343
98	0x3e936464	0.2878753
99	0xbdb6a516	-0.089182064
100	0xbd479428	-0.048725277
101	0xbdf6157b	-0.12015816
102	0x3dbd7ef2	0.092527285
103	0x3e01ad19	0.12663688
104	0xbe25f574	-0.16206914
105	0xbb4a73ca	-0.003089177
106	0x3e4708d8	0.19436967
107	0x3cc8fbc0	0.024534106
108	0x3d957d11	0.07299245
109	0x3e036750	0.1283238
110	0x3e4ff1d1	0.2030709
111	0x3c5e2cee	0.013560517
112	0xbba9553c	-0.0051676314
113	0xbd0530aa	-0.032517113
114	0xbd9e0c06	-0.07717137
115	0xb9a624bf	-0.00031689365
116	0x3d02e337	0.03195497
117	0x3d5604d7	0.05225071
118	0x3e3d04ec	0.18458909
119	0xbd966a1d	-0.07344458
120	0x3dbd4b7c	0.09242913
121	0x3db0a7c4	0.08625749
122	0xbe0de354	-0.1385625
123	0x3e3262de	0.17420527
124	0x3d1527c3	0.036414873
125	0x3d76b746	0.060233377
126	0x3db2d980	0.08732891
127	0xbdeb20cc	-0.11480865
128	0xbe4cd1b9	-0.20001878
129	0xbdfe63f1	-0.12421406
130	0x3e58596b	0.2112786
131	0x3e07e0be	0.13269326
132	0xbe251360	-0.16120672
133	0xbdcc7158	-0.09982556
134	0x3df57f02	0.119871154
135	0xbc6a8b6d	-0.014315468
136	0xbdd3f455	-0.10349337
137	0xbd9c8d2f	-0.07644116
138	0x3d18cac2	0.03730274
139	0xbd2c5b16	-0.042079054
140	0x3ddd4885	0.10804848
141	0x3e496d64	0.19670635
142	0xbd1be5a6	-0.038060807
143	0x3dd749c3	0.10512116
144	0xbdd4cf44	-0.10391095
145	0x3c663677	0.014051071
146	0xbd6e7f61	-0.058226947
147	0x3ce7fb18	0.028317973
148	0x3e1690bb	0.14703648
149	0xbdcfd36a	-0.10147746
150	0x3dec3d79	0.115351625
151	0xbd3e8890	-0.046516955
152	0x3c1dc1d9	0.009628736
153	0x3dcb7b81	0.09935666
154	0xbe0fe9ac	-0.14053982
155	0x3dbba5b5	0.091624655
156	0x3d1ededb	0.03878675
157	0xbd94af49	-0.072599955
158	0xbc8a6b85	-0.016896972
159	0xbd61aecd	-0.055098344
160	0xbd915237	-0.07095759
161	0x3dffcab0	0.124898314
162	0xbd1a6bc2	-0.037700422
163	0x3bd59094	0.006517479
164	0x3c8f85ec	0.017519914
165	0x3ddfa350	0.10919821
166	0x3d1ad034	0.037796214
167	0x3de07d30	0.109613776
168	0xbb91f0d9	-0.00445376
169	0x3e440b3f	0.19144915
170	0xbe07a443	-0.13246255
171	0xbddedb6d	-0.10881696
172	0x3dc5d8e4	0.09660509
173	0xbe0cfd7e	-0.13768575
174	0xbdf014b7	-0.11722701
175	0xbdac8da8	-0.08425456
176	0x3e4a783b	0.19772427
177	0xbe161c1d	-0.14659162
178	0x3e61394c	0.21994513
179	0xbde3d86c	-0.111252636
180	0x3d21989b	0.039452177
181	0xbdddfb25	-0.10838918
182	0x3d62655d	0.05527245
183	0xbd451166	-0.048112296
184	0xbc5df8fa	-0.01354813
185	0x3d91c1eb	0.07117065
186	0x3e072e54	0.13201267
187	0x3d115c4f	0.035488423
188	0xbdde6dac	-0.10860762
189	0xbd119711	-0.03554446
190	0xbd419948	-0.04726532
191	0xbd6dff30	-0.058104694
192	0x3dcd8d7e	0.10036753
193	0xbe02bed8	-0.12768114
194	0xbdfcc03f	-0.123413555
195	0xbe082085	-0.13293655
196	0xbe01375e	-0.12618777
197	0x397b3319	0.0002395626
198	0xbdbb2b04	-0.09139064
199	0xbd1b931c	-0.03798209
200	0xbe2affde	-0.16699168
201	0x3d1a64f7	0.037693944
202	0xbe0b449d	-0.13600393
203	0x3e146fdd	0.14495797
204	0xbd973466	-0.07383041
205	0x3ceb6182	0.028733019
206	0x3de4f598	0.11179656
207	0xbe550afa	-0.20804968
208	0xbda4b839	-0.0804295
209	0xbe9d7bde	-0.30758566
210	0xbc66a43a	-0.014077241
211	0x3e001644	0.12508494
212	0xbd2f1b45	-0.042750616
213	0xbe08fe98	-0.1337837
214	0x3cfa786f	0.030575005
215	0x3ddc4965	0.107561864
216	0xbe3e883e	-0.1860666
217	0xbe7b6138	-0.24548805
218	0x3bec62a0	0.0072139055
219	0x3dccc6b9	0.09998841
220	0x3dcbab23	0.09944751
221	0x3d5e17ca	0.054221906
222	0x3d3b549f	0.045734998
223	0xbcc108f5	-0.023563841
224	0xbe028d7c	-0.12749285
225	0xbdcfe94d	-0.101519205
226	0x3df629f5	0.120197214
227	0xbd8c402f	-0.068481795
228	0x3e0d4534	0.1379593
229	0x3d915506	0.07096295
230	0xbc816f46	-0.01580013
231	0xbd9a95bc	-0.07548091
232	0xbe406a47	-0.18790542
233	0x3dc3d7c6	0.0956264
234	0x3e7cb6b2	0.24679068
235	0x3d301d22	0.042996533
236	0xbdc0a46a	-0.094063595
237	0x3d4b4202	0.049623497
238	0xbd9669fe	-0.07344435
239	0xbd3b443b	-0.045719367
240	0xbd4f348b	-0.05058722
241	0x3d5e1b34	0.05422516
242	0x3c7244fc	0.014786955
243	0xbde02ec4	-0.1094642
244	0x3d1eba9e	0.03875219
245	0x3d4f4e7e	0.050611965
246	0x3da9b753	0.082869194
247	0xbd12880c	-0.035774276
248	0xbdae921e	-0.085239634
249	0xbe15c7cd	-0.14626999
250	0x3da01d33	0.07818069
251	0x3daed2d9	0.0853631
252	0x3db39ae9	0.08769781
253	0xbe09cf1e	-0.13457915
254	0x3b2b2553	0.0026114776
255	0x3e0530cf	0.130069

enc2.layer.4.weight f4 [64]
0	0x3f6a094d	0.9142044
1	0x3f6e2143	0.93019503
2	0x3f4aea76	0.7926401
3	0x3f6e7350	0.931447
4	0x3f725abb	0.94669694
5	0x3f24e81c	0.6441667
6	0x3f47b92d	0.7801693
7	0x3f68b23b	0.9089696
8	0x3f6be984	0.9215319
9	0x3f6dc82c	0.92883563
10	0x3f6f4cea	0.93476737
11	0x3f1ce8c8	0.61292696
12	0x3f6a949b	0.91633004
13	0x3f84ae4a	1.0365689
14	0x3f5ac5a7	0.85457844
15	0x3f4aa397	0.7915587
16	0x3f445e80	0.76706696
17	0x3f5bef50	0.85912037
18	0x3f88ef4c	1.0698028
19	0x3f72ebf0	0.9489126
20	0x3f538a9f	0.82633394
21	0x3f68f8e0	0.91004753
22	0x3f61ffc4	0.8828089
23	0x3f728521	0.9473439
24	0x3f712b64	0.94206834
25	0x3f60247f	0.8755569
26	0x3f6642f7	0.8994593
27	0x3f5793a4	0.84209657
28	0x3f639cf9	0.88911396
29	0x3f655c90	0.89594364
30	0x3f1cef07	0.61302227
31	0x3f564130	0.8369322
32	0x3f6ec288	0.9326558
33	0x3f701a2f	0.93789953
34	0x3efc86b4	0.4932152
35	0x3f5e5fdb	0.86865014
36	0x3f445410	0.7669077
37	0x3f4ee523	0.80818385
38	0x3f70035e	0.9375514
39	0x3f688473	0.908271
40	0x3f54f985	0.83193237
41	0x3f4f33d4	0.8093846
42	0x3f2dc185	0.6787341
43	0x3f625525	0.8841117
44	0x3f5a2118	0.8520675
45	0x3f34ef95	0.70678073
46	0x3f75f036	0.9606966
47	0x3f807e5c	1.0038562
48	0x3f442f85	0.7663501
49	0x3f5c45ba	0.86043894
50	0x3f59d05a	0.85083544
51	0x3f5c63f9	0.86090046
52	0x3f5e39a2	0.8680669
53	0x3f5dce02	0.8664247
54	0x3f62b86e	0.8856267
55	0x3f35ad59	0.7096763
56	0x3f2fa1ad	0.6860607
57	0x3f4106ba	0.7540089
58	0x3f4cc426	0.799868
59	0x3f6d853a	0.9278141
60	0x3f63429b	0.88773507
61	0x3f66bdeb	0.9013354
62	0x3f64edb1	0.8942519
63	0x3f35a0db	0.7094857

enc2.layer.4.bias f4 [64]
0	0xbd694697	-0.056952085
1	0xbd85a892	-0.06526293
2	0xbc077424	-0.008267436
3	0x3da1add5	0.07894484
4	0xbcc8e659	-0.0245239
5	0xbe03863d	-0.12844177
6	0xbc788262	-0.015167804
7	0x3bda1e2a	0.006656428
8	0xbc157435	-0.009121944
9	0x3d932e4d	0.071865655
10	0xbba409f6	-0.0050060702
11	0xbe9215ec	-0.2853235
12	0x3c2cdbfb	0.010550494
13	0x3d80f369	0.06296427
14	0x3c930d4b	0.017950675
15	0xbd3c93e7	-0.04603949
16	0xbc9b605b	-0.018966844
17	0xbbae038b	-0.005310481
18	0x3cdc1ac9	0.02686824
19	0x3d3b988e	0.045799784
20	0xbe090057	-0.13379036
21	0xbd8ab300	-0.06772423
22	0xbd69aab2	-0.057047553
23	0x3d5c0f54	0.053725556
24	0xbd27dafa	-0.040980317
25	0xbd02db61	-0.031947497
26	0xbcd0a6cb	-0.025470158
27	0xbafab7fb	-0.0019128317
28	0x3d61d581	0.055135254
29	0xbce1624c	-0.027512692
30	0xbeb05e67	-0.34447023
31	0xbd934489	-0.071908064
32	0x3dbf08eb	0.09327873
33	0xbd55a1fa	-0.052156426
34	0xbe96f137	-0.29480907
35	0xbd88b4ce	-0.06675111
36	0xbb5b5fa1	-0.0033473747
37	0xbe14b430	-0.14521861
38	0xbd0e014d	-0.03466921
39	0x3d595058	0.053055137
40	0xbdbbb8ff	-0.091661446
41	0xbe030516	-0.12794909
42	0xbdad45a7	-0.08460551
43	0xbc6f6d33	-0.0146134375
44	0x3c6bf2c0	0.014401138
45	0xbe00e8a3	-0.12588744
46	0x3d8b8c6f	0.06813895
47	0x3ce294d2	0.027658854
48	0xbdb52be3	-0.08846261
49	0x3d7160d9	0.05893025
50	0x3cdc8d4e	0.026922848
51	0x3baa5f43	0.0051993444
52	0xbd5d436d	-0.05401938
53	0x3cfcbd5a	0.030852009
54	0xbd2c3d4c	-0.042050645
55	0xbd030e32	-0.03199596
56	0x3b3467f7	0.0027527788
57	0xbd9bc305	-0.076055564
58	0xbd469120	-0.048478246
59	0xbb45fad4	-0.003020932
60	0x3d12e644	0.03586413
61	0x3d5c4adf	0.05378234
62	0xbe28317d	-0.16425128
63	0xbe4ba842	-0.19888404

enc2.layer.4.running_mean f4 [64]
0	0x3ea3955e	0.31949896
1	0xbeb3c1ae	-0.35108703
2	0x3ea85730	0.3287902
3	0x3e79c086	0.24389848
4	0xbc8c4a02	-0.017125133
5	0x3d483b68	0.04888478
6	0xbf0e6319	-0.5561996
7	0xbdbc9775	-0.09208576
8	0x3a217e36	0.00061604695
9	0xbe9201e3	-0.28517064
10	0x3e3af24c	0.18256491
11	0x3e5ff2e7	0.21870004
12	0xbe503b2f	-0.20335077
13	0x3d3dad0e	0.046307616
14	0xbe5b0233	-0.21387558
15	0xbd15e68c	-0.03659682
16	0xbdeb9ff0	-0.11505115
17	0xbe0e95d9	-0.1392435
18	0xbd5d7ec8	-0.054075986
19	0xbe15090a	-0.1455423
20	0xbe35e8d4	-0.17764598
21	0x3d9a7cc4	0.075433284
22	0x3eb0924e	0.34486622
23	0x3e918e42	0.28428847
24	0x3d1acbcf	0.037792023
25	0x3d71a856	0.05899843
26	0x3e10ea42	0.14151862
27	0xbe98b574	-0.29825938
28	0xbe6ed702	-0.23324206
29	0xbe20be88	-0.15697682
30	0x3a187a25	0.0005816541
31	0x3e779012	0.24176052
32	0xbf462058	-0.773931
33	0x3e85e003	0.2614747
34	0x3e8392c7	0.2569792
35	0x3e165912	0.14682415
36	0xbe8a4635	-0.2700669
37	0x3ee6921b	0.45033345
38	0x3e8000e8	0.2500069
39	0xbe3fb596	-0.18721613
40	0xbe3071c7	-0.17230903
41	0x3d52d482	0.051472194
42	0xbeb61d18	-0.35569072
43	0x3d10cec4	0.035353437
44	0x3e0c3c7c	0.13694948
45	0x3cc0ce60	0.023535907
46	0xbda32e57	-0.07967823
47	0xbe887cc8	-0.266577
48	0xbe161377	-0.14655863
49	0xbef19f71	-0.47191957
50	0xbe937fc9	-0.2880843
51	0xbe3fcee0	-0.1873126
52	0xbe461b3d	-0.19346328
53	0xbdea273e	-0.11433266
54	0x3db2a000	0.08721924
55	0xbe6cfd22	-0.23143438
56	0x3d784803	0.06061555
57	0x3e01a1a8	0.12659323
58	0xbedf62d2	-0.4363008
59	0xbdb54d41	-0.08852626
60	0x3db67aca	0.08910139
61	0xbe91793a	-0.284128
62	0x3ee2c75a	0.44292718
63	0x3e7384bc	0.23781103

enc2.layer.4.running_var f4 [64]
0	0x3e40a18c	0.18811625
1	0x3e71f8e8	0.23630106
2	0x3decd5b8	0.11564201
3	0x3e440ff3	0.19146709
4	0x3e9d99e6	0.30781478
5	0x3dac7288	0.084202826
6	0x3e8508f4	0.25983393
7	0x3e322107	0.17395411
8	0x3e5f0cdc	0.21782249
9	0x3e5b9848	0.2144481
10	0x3ebe039e	0.37112135
11	0x3dff756a	0.12473567
12	0x3e7e4302	0.24830249
13	0x3e95cbe7	0.29257128
14	0x3e39da4c	0.1814968
15	0x3f0832c6	0.53202474
16	0x3eae8762	0.34087664
17	0x3e250d53	0.16118364
18	0x3df3eaf9	0.11910052
19	0x3e7d587a	0.24740782
20	0x3de71ae5	0.112844266
21	0x3e626554	0.22108966
22	0x3e16d670	0.14730239
23	0x3ebd6645	0.36992088
24	0x3e56508a	0.2092916
25	0x3e68175c	0.22665161
26	0x3d9e2228	0.077213585
27	0x3f16a9c9	0.5885282
28	0x3f1e8f25	0.6193717
29	0x3e39f21a	0.1815876
30	0x3e219596	0.15779719
31	0x3e6cd20c	0.23127002
32	0x3ea637ea	0.32464534
33	0x3e776065	0.24157865
34	0x3d8c4fcf	0.0685116
35	0x3eaae900	0.3338089
36	0x3e8eb292	0.27870613
37	0x3d92e844	0.071732074
38	0x3dbb11b6	0.091342375
39	0x3f1d6138	0.6147647
40	0x3e4370a3	0.19085936
41	0x3e3d95d2	0.18514183
42	0x3f168949	0.5880323
43	0x3e505286	0.2034398
44	0x3edee71d	0.435357
45	0x3e733d23	0.2375379
46	0x3edece5f	0.43516824
47	0x3e9a8a38	0.30183578
48	0x3f074507	0.528397
49	0x3ea31b1d	0.31856623
50	0x3e718904	0.23587424
51	0x3eba40c0	0.36377525
52	0x3e8da7f2	0.27667195
53	0x3e837e84	0.2568246
54	0x3e6b139b	0.22956698
55	0x3eeb55e5	0.4596397
56	0x3e50801c	0.2036137
57	0x3e3ade44	0.1824885
58	0x3eca5c3e	0.395235
59	0x3ee85f47	0.4538519
60	0x3ea94792	0.33062416
61	0x3e5d1d0c	0.21593112
62	0x3e8dbea5	0.27684513
63	0x3dce6324	0.10077503

enc3.layer.0.weight f4 [64, 1, 3, 3]
0	0xbd59c1e1	-0.053163413
1	0xbd55a656	-0.052160583
2	0xbe976749	-0.29570988
3	0xbea22835	-0.316713
4	0x3d9dde27	0.07708388
5	0xbda949b3	-0.0826601
6	0xbd914f7e	-0.0709524
7	0xbe85759f	-0.260663
8	0xbe8777bb	-0.26458535
9	0xbeb51535	-0.35367742
10	0xbe4a5840	-0.19760227
11	0xbdd6433e	-0.10462044
12	0xbbc16051	-0.0059013744
13	0x3dc2d66c	0.09513554
14	0xbeabe695	-0.33574358
15	0x3e21c58d	0.15798016
16	0xbea2af09	-0.31774166
17	0x3dcaf1d9	0.0990941
18	0x3d398dfa	0.045301415
19	0x3dd474d4	0.10373846
20	0x3e21170e	0.15731451
21	0x3e2ce3f8	0.16883838
22	0x3dcfc577	0.10145085
23	0x3e84a73c	0.2590884
24	0xbe181ff0	-0.14855933
25	0x3e2bf35b	0.16792051
26	0x3eb061f5	0.34449735
27	0x3dd679e3	0.10472467
28	0x3e4863c6	0.1956931
29	0x3e83c970	0.25739622
30	0xbdb58b9d	-0.0886452
31	0x3e9fd2bb	0.31215462
32	0x3ebad2a5	0.36488834
33	0xbe102c49	-0.14079393
34	0x3c14a32c	0.009072106
35	0xbd8dbc73	-0.069207095
36	0x3e9f4d86	0.31113833
37	0xbd205131	-0.03913993
38	0xbdb5fee4	-0.08886507
39	0x3e8b34d6	0.27188748
40	0xbe3505df	-0.17678021
41	0xbcdf70e8	-0.027275518
42	0x3eb0aaed	0.34505406
43	0xbdf9c2a4	-0.12195328
44	0xbe90f78d	-0.28313866
45	0xbe4e7b20	-0.20164156
46	0xbd50d3f9	-0.050983403
47	0xbd9666de	-0.07343839
48	0xbe71cbf9	-0.23612966
49	0xbeb6c4d0	-0.3569703
50	0xbeb83597	-0.35978386
51	0xbe3c7f53	-0.18407945
52	0xbe396633	-0.18105392
53	0xbe7b7165	-0.24554975
54	0x3e85a64b	0.26103434
55	0x3e5f1cfa	0.21788397
56	0xbe102354	-0.14075977
57	0x3ebb3c77	0.3656957
58	0xbe3743db	-0.17896979
59	0x3cad8e0f	0.021185903
60	0xbe7b30cf	-0.24530338
61	0x3bfe4703	0.00775993
62	0x3e5e1309	0.21686949
63	0xbdcd9203	-0.10037615
64	0x3ea8b53b	0.32950768
65	0x3ddce902	0.1078663
66	0xbcbf2d1f	-0.023336945
67	0xbe1f7d1c	-0.15575069
68	0xbe93b258	-0.28847003
69	0xbec19cde	-0.37814993
70	0x3e6516ae	0.22371933
71	0xbe5f8e6e	-0.21831676
72	0xbe994344	-0.29934132
73	0xbdb551d6	-0.088534996
74	0x3dd0f299	0.10202522
75	0xbe9ebdc9	-0.3100417
76	0xbc82f3af	-0.015985338
77	0x3e299f0b	0.16564576
78	0x3dbfb255	0.09360186
79	0xbea55e01	-0.32298282
80	0xbe0a6a2d	-0.13517065
81	0xbde093e2	-0.109657064
82	0x3c58bbe4	0.01322839
83	0xbe6bd364	-0.23029858
84	0x3e2fb851	0.17160155
85	0xbe83b78e	-0.2572598
86	0xbe042137	-0.12903295
87	0x3d926039	0.07147259
88	0xbe0f8a91	-0.14017703
89	0xbe968cf6	-0.2940442
90	0xbd7d6282	-0.061861522
91	0xbc0fd750	-0.008779362
92	0x3d9ac130	0.07556379
93	0xbda611e0	-0.08108878
94	0x3e5a402b	0.2131354
95	0xbe19a33a	-0.15003672
96	0xbe220c3b	-0.15824978
97	0x3e9dcce9	0.30820397
98	0xbe7860fb	-0.24255745
99	0x3e697343	0.22797875
100	0x3e435148	0.19073975
101	0xbd9a4ec3	-0.07534554
102	0xbe27a4b1	-0.16371419
103	0x3e01f3c4	0.12690645
104	0x3e8e2937	0.2776582
105	0xbd50b483	-0.0509534
106	0x3d5b83e1	0.053592566
107	0x3e90982d	0.282411
108	0xbe0a2fb1	-0.13494755
109	0xbe29498d	-0.16531964
110	0x3da8ef39	0.08248753
111	0x3e03ec26	0.12883052
112	0x3e540271	0.20704056
113	0x3dd13dbc	0.10216853
114	0x3e90dcf8	0.28293586
115	0x3e0360ec	0.12829942
116	0x3ea8ef7f	0.3299522
117	0x3e8f5054	0.27990973
118	0xbcd70000	-0.026245117
119	0xbe4c86fd	-0.19973369
120	0x3e098cc2	0.13432601
121	0xbeb69cec	-0.35666597
122	0xbe8cfd45	-0.2753698
123	0xbe8ff09b	-0.28113255
124	0x3ceda4d2	0.029009257
125	0x3eadf844	0.33978474
126	0xbb636d3c	-0.003470256
127	0xbe5a56a1	-0.21322109
128	0x3e3f5dff	0.186882
129	0x3dcc2624	0.09968212
130	0xbdc67736	-0.096907064
131	0x3e00b947	0.12570678
132	0x3e535ca2	0.20640805
133	0xbe721267	-0.23639832
134	0x3d1c350f	0.038136538
135	0x3e69f428	0.22847044
136	0xbd32245e	-0.043491714
137	0xbe21b752	-0.15792587
138	0xbd04916a	-0.03236524
139	0xbd97cbdf	-0.07411932
140	0xbdb27511	-0.08713735
141	0xbe544c3e	-0.20732209
142	0x3ea693f0	0.32534742
143	0xbebc803b	-0.36816582
144	0xbe9b17e9	-0.3029168
145	0x3db67e44	0.08910802
146	0x3eaf17c0	0.34197807
147	0x3dd4643e	0.10370682
148	0x3e09cc15	0.13456757
149	0x3e312581	0.17299463
150	0xbe1e2a83	-0.15445904
151	0x3dd5ff72	0.10449113
152	0xbe70e87b	-0.23526184
153	0x3e8ab44d	0.27090684
154	0x3e83fa1a	0.2577675
155	0xbe9eec9f	-0.31039903
156	0x3c85dc5b	0.016340425
157	0x3d4ede31	0.050504867
158	0xbdc50e0a	-0.09621818
159	0x3e8f54a6	0.2799427
160	0xbda9320d	-0.082614996
161	0xbe8151c4	-0.25257695
162	0x3cb2308b	0.021751663
163	0x3e2024f5	0.15639098
164	0xbe0eaa99	-0.13932265
165	0xbd54314f	-0.051804837
166	0x3e0541ab	0.13013332
167	0xbeb601e3	-0.35548314
168	0x3e5fffe2	0.21874955
169	0xbea3b46e	-0.31973594
170	0xbe9a25f4	-0.3010708
171	0xbe863280	-0.26210403
172	0x3db67b62	0.08910252
173	0x3e01e961	0.12686683
174	0xbde0e820	-0.10981774
175	0x3c486f3a	0.01223355
176	0xbe393269	-0.18085636
177	0x3e640ebc	0.22271246
178	0xbebcdc1e	-0.36886686
179	0x3dea4d60	0.11440539
180	0x3e5fcc0f	0.21855186
181	0x3ddaa49c	0.10675928
182	0xbe91d235	-0.28480688
183	0x3dceb27a	0.100926355
184	0xbd810ca8	-0.06301242
185	0xbe43459b	-0.19069521
186	0x3de39869	0.11113054
187	0x3e511ada	0.204204
188	0xbe18e413	-0.14930753
189	0x3e22fbd3	0.15916376
190	0x3e4760aa	0.19470468
191	0x3d703b96	0.058650576
192	0x3dc15913	0.09440818
193	0x3e997961	0.29975417
194	0x3e81419a	0.25245363
195	0x3e5391b9	0.20661058
196	0x3e15081d	0.14553876
197	0x3e892888	0.26788735
198	0x3ecb9021	0.397584
199	0xbe26ae74	-0.16277486
200	0xbc8ea101	-0.017410757
201	0xbeab6a08	-0.33479333
202	0x3d449463	0.047993075
203	0x3d1503f8	0.036380738
204	0xbd2fcd1f	-0.042920228
205	0xbc186141	-0.009300531
206	0xbd2d51ea	-0.042314447
207	0x3e0ac199	0.13550414
208	0x3e762fb7	0.2404164
209	0xbe92d413	-0.28677425
210	0x3e73adea	0.23796812
211	0x3d347f05	0.044066448
212	0x3b4c6799	0.0031189679
213	0x3e319ba3	0.17344527
214	0xbe8b79cf	-0.2724137
215	0xbe923552	-0.28556305
216	0x3d65e8db	0.05613027
217	0x3c788cea	0.015170315
218	0x3d091527	0.033467438
219	0xbe9a9386	-0.30190676
220	0xbe73b563	-0.23799662
221	0xbe9307a6	-0.28716773
222	0xbe6fa85e	-0.2340407
223	0xbddacd3e	-0.10683678
224	0xbcb8a37c	-0.022538893
225	0xbe874e7f	-0.26427075
226	0xbe5844f8	-0.2112006
227	0x3dd4533f	0.103674404
228	0x3cca1d18	0.024672076
229	0xbe839095	-0.25696245
230	0xbecdf39c	-0.40224922
231	0xbecaa8d8	-0.39581943
232	0xbd0662d7	-0.032809105
233	0x3e5574ec	0.20845383
234	0x3e29f512	0.16597393
235	0x3e4e2dac	0.2013461
236	0x3ee1f5dd	0.4413289
237	0xbdbac7a8	-0.09120113
238	0xbe9474cb	-0.28995356
239	0xbe505f16	-0.20348772
240	0xbe796872	-0.24356249
241	0xba224843	-0.00061905774
242	0x3e665aa2	0.22495511
243	0x3dfebdd4	0.124385506
244	0x3a0238db	0.00049675786
245	0x3e342839	0.17593469
246	0x3e0b0d2d	0.13579245
247	0x3d044a5d	0.03229748
248	0x3e2ffffb	0.17187493
249	0x3e9bf110	0.30457354
250	0x3dd049e9	0.10170347
251	0x3e699768	0.22811663
252	0xbe79138f	-0.24323867
253	0xbe81068b	-0.25200304
254	0xbe85dfdc	-0.26147354
255	0x3e2e0ed5	0.16997845

enc3.layer.1.weight f4 [64]
0	0x3f83ae6a	1.0287602
1	0x3f6e6fe5	0.9313949
2	0x3f7f512d	0.9973324
3	0x3f6ca503	0.9243929
4	0x3f8cc4dd	1.0997578
5	0x3f8815ae	1.0631616
6	0x3f5fa92b	0.87367505
7	0x3f763c3a	0.9618565
8	0x3f6204b4	0.88288426
9	0x3f83a43d	1.0284497
10	0x3f96c6c6	1.1779411
11	0x3f886d3c	1.0658336
12	0x3f879ed2	1.0595343
13	0x3f5f8a20	0.8732014
14	0x3f689932	0.9085876
15	0x3f792a69	0.9733034
16	0x3f733ad2	0.9501163
17	0x3f7f3e29	0.99704224
18	0x3f634967	0.8878388
19	0x3f603ca6	0.8759254
20	0x3f886e29	1.0658618
21	0x3f8d71b1	1.1050321
22	0x3f676a3f	0.90396494
23	0x3f713351	0.9421893
24	0x3f892d97	1.0717038
25	0x3f65e63b	0.8980443
26	0x3f8cd3f2	1.100218
27	0x3f7e90b9	0.9943958
28	0x3f8774c6	1.0582511
29	0x3f80d54c	1.0065093
30	0x3f8e9879	1.1140281
31	0x3f712cc1	0.94208914
32	0x3f802fcb	1.0014585
33	0x3f82e786	1.0226905
34	0x3f7f05a4	0.9961798
35	0x3f82e656	1.0226543
36	0x3f7c1add	0.9847849
37	0x3f888c0f	1.0667742
38	0x3f7774fa	0.9666287
39	0x3f73ea71	0.95279604
40	0x3f60b016	0.87768686
41	0x3f725885	0.9466632
42	0x3f67f1cc	0.9060333
43	0x3f61d3fb	0.8821408
44	0x3f6c181a	0.92224276
45	0x3f60d654	0.8782704
46	0x3f868ab6	1.0511081
47	0x3f861b57	1.0477093
48	0x3f6ed6e2	0.93296635
49	0x3f7b3349	0.9812513
50	0x3f798365	0.9746612
51	0x3f800016	1.0000026
52	0x3f7c9fea	0.9868151
53	0x3f6e6496	0.9312223
54	0x3f6f0780	0.9337082
55	0x3f65dadd	0.89787084
56	0x3f62bd31	0.88569933
57	0x3f88594b	1.065225
58	0x3f8136a8	1.0094805
59	0x3f6f526c	0.9348514
60	0x3f7dabf9	0.99090534
61	0x3f545a89	0.82950646
62	0x3f851ac6	1.0398796
63	0x3f8dc7ba	1.1076577

enc3.layer.1.bias f4 [64]
0	0x3dbb0b7c	0.0913305
1	0xbcf0f39d	-0.029413039
2	0x3dc3e2f2	0.09564771
3	0x3d31e150	0.043427765
4	0x3e08bd69	0.13353504
5	0x3e2864d6	0.16444716
6	0x3c8e2540	0.017351747
7	0x3d1a0c00	0.0376091
8	0xbd37ffa9	-0.04492155
9	0x3cd0cc47	0.025488032
10	0xbcce4f12	-0.025184188
11	0xbe0b3663	-0.13594966
12	0x3dcacba7	0.09902125
13	0xbd4e61f3	-0.05038638
14	0xbe3540d3	-0.1770051
15	0xbd419f1a	-0.04727087
16	0x3d43778e	0.047721438
17	0xbcb34438	-0.021883115
18	0xbd5b31b5	-0.0535142
19	0xbdf4805d	-0.11938546
20	0xbb06f35e	-0.0020591835
21	0x3de16a54	0.110066086
22	0xbe9c5594	-0.3053404
23	0x3db19dbd	0.08672664
24	0x3d2f5305	0.042803783
25	0xbd40788b	-0.04698996
26	0xbdf6d587	-0.12052446
27	0x3d643607	0.055715587
28	0x3d0e6929	0.034768257
29	0x3d8faf07	0.07015806
30	0xbe70e6fe	-0.23525617
31	0x3953cab2	0.00020198038
32	0x3d039e5a	0.032133438
33	0xbbfc064d	-0.007691181
34	0xbdf8e391	-0.1215278
35	0xbd9cc4cf	-0.07654726
36	0x3d86a0ff	0.06573676
37	0x3d521139	0.051285956
38	0x3ca29af7	0.019849284
39	0xbd190f28	-0.03736797
40	0xbdd8e211	-0.10589994
41	0x3c535173	0.012897837
42	0x3cb69a72	0.022290442
43	0xbd92904f	-0.07156431
44	0xbcd3d121	-0.025856556
45	0xbe270486	-0.1631032
46	0x3dec3e3a	0.11535306
47	0x3d5b2e72	0.05351109
48	0xbb737082	-0.0037145917
49	0xbd2ac808	-0.04169467
50	0x3a3d331a	0.00072173926
51	0x3ca3be27	0.019988133
52	0xbdcbd58b	-0.099528395
53	0xbcb0dc7d	-0.021589512
54	0xbbb46181	-0.0055047874
55	0xbde9f06d	-0.11422811
56	0xbc79032e	-0.015198512
57	0x3d175007	0.036941554
58	0x3d51b3b1	0.051196758
59	0xbcdc4408	-0.026887909
60	0x3bc7b99f	0.006095126
61	0xbdd56238	-0.10419124
62	0xbd6d874c	-0.057990357
63	0xbe151a31	-0.14560772

enc3.layer.1.running_mean f4 [64]
0	0xbec7e049	-0.39038303
1	0xbeb1819c	-0.34669197
2	0x3ebce364	0.36892235
3	0x3eab403e	0.3344745
4	0x3d90570d	0.070478536
5	0xbeb4e57a	-0.35331327
6	0x3e3063f0	0.17225623
7	0xbe16e3b4	-0.147353
8	0xbe80de4f	-0.25169608
9	0xbebfbe20	-0.3744974
10	0xbd1d5e52	-0.03842003
11	0x3db98381	0.090582855
12	0x3ec319cb	0.38105616
13	0xbe30b7c6	-0.17257604
14	0x3d0e9016	0.03480538
15	0xbdf00854	-0.117203385
16	0x3d93d4d7	0.0721833
17	0x3d3f1c62	0.046657927
18	0xbe8949c4	-0.2681409
19	0xbe111698	-0.14168775
20	0x3c7efe94	0.015563626
21	0x3f1b621a	0.60696566
22	0xbd324aea	-0.043528475
23	0xbc0f7868	-0.008756734
24	0xbec1b6a7	-0.37834665
25	0xbee09421	-0.43863013
26	0x3d8725e3	0.06599023
27	0x3ee32b78	0.44369102
28	0xbebb9e54	-0.36644232
29	0x3e212c84	0.15739638
30	0x3d7e1e51	0.06204063
31	0x3e7c7ed2	0.24657753
32	0xbf2c8ae3	-0.67399424
33	0xbd117cb5	-0.03551932
34	0x3cdf9ca6	0.027296375
35	0x3e241226	0.16022548
36	0x3e6bfcb3	0.23045616
37	0x3ec26da2	0.37974268
38	0xbe4fe3a4	-0.20301682
39	0x3eaca125	0.33716694
40	0xbe3796b9	-0.1792859
41	0x3e86b266	0.26307982
42	0x3e377f95	0.17919762
43	0x3e9b0f3c	0.3028506
44	0x3e1e862b	0.15480869
45	0xbce71e80	-0.028212786
46	0x3f020c0e	0.50799644
47	0xbf43b954	-0.76454663
48	0xbd432506	-0.04764273
49	0xbec55a6b	-0.38545546
50	0x3ee83eec	0.45360506
51	0xbed141ff	-0.40870664
52	0xbd37567a	-0.044760205
53	0xbdbaab98	-0.0911476
54	0xbf07990c	-0.52967906
55	0xbde63636	-0.11240809
56	0xbbd6a837	-0.0065508145
57	0x3dd67d13	0.10473075
58	0xbe9b2f91	-0.30309728
59	0xbd91201a	-0.07086201
60	0xbeb79012	-0.35852104
61	0xbdd7619d	-0.10516665
62	0x3db6c2d6	0.08923881
63	0x3d8b5898	0.06804007

enc3.layer.1.running_var f4 [64]
0	0x3e3417d8	0.1758722
1	0x3e3bf4d0	0.18355107
2	0x3e8fad60	0.28061962
3	0x3eab72d6	0.3348605
4	0x3de509f9	0.11183543
5	0x3e445e3f	0.19176577
6	0x3d835142	0.06411983
7	0x3e257fde	0.16162059
8	0x3e36c723	0.17849402
9	0x3df78db6	0.12087576
10	0x3d5b539e	0.05354654
11	0x3cf14f83	0.02945686
12	0x3e741172	0.2383478
13	0x3dc64be4	0.09682444
14	0x3c9cbc7e	0.019132849
15	0x3cfa3471	0.030542584
16	0x3cfded29	0.030996876
17	0x3db67fce	0.089110956
18	0x3e936391	0.287869
19	0x3d301e4e	0.04299765
20	0x3d21a936	0.039468013
21	0x3ee7ce36	0.45274514
22	0x3d10b6e0	0.035330653
23	0x3d930f5e	0.071806654
24	0x3e40859e	0.18800971
25	0x3e4b149b	0.19832079
26	0x3e35292d	0.17691489
27	0x3e27901a	0.16363564
28	0x3e186035	0.1488045
29	0x3d46531c	0.048419103
30	0x3cf20be2	0.029546682
31	0x3dfe80f9	0.12426943
32	0x3ec06cc2	0.37582976
33	0x3d7e2cd2	0.062054463
34	0x3c60d232	0.0137219895
35	0x3d7c19e2	0.06154812
36	0x3da3d384	0.07999328
37	0x3e6fa016	0.23400912
38	0x3dec5536	0.1153969
39	0x3e14c65e	0.14528796
40	0x3d48b3c6	0.04899957
41	0x3dc903a4	0.098151475
42	0x3d0012d4	0.031267956
43	0x3dd6ebe5	0.10494212
44	0x3d0bf19c	0.034165964
45	0x3d039068	0.03212014
46	0x3ef3d28e	0.47621578
47	0x3f42bbd3	0.76067847
48	0x3bea0102	0.0071412334
49	0x3ddac9be	0.106830105
50	0x3e42b884	0.190157
51	0x3e063cf7	0.13109194
52	0x3d08cad7	0.03339657
53	0x3cbb99b1	0.022900434
54	0x3e91293c	0.28351772
55	0x3c5fe17b	0.013664599
56	0x3d1debc0	0.038554907
57	0x3e2204c5	0.15822132
58	0x3dca0ba8	0.098655045
59	0x3d17fdcf	0.037107285
60	0x3df2e854	0.11860719
61	0x3d141434	0.03615208
62	0x3d50b470	0.05095333
63	0x3ce221bb	0.027603975

enc3.layer.3.weight f4 [128, 64, 1, 1]
0	0x3ccafdd9	0.024779247
1	0x3d21f066	0.039535902
2	0x3d15b070	0.036545217
3	0x3d22c13b	0.03973506
4	0x3d5d1e69	0.05398408
5	0xbda8725b	-0.082249366
6	0xbdc792b3	-0.097447775
7	0x3df05d45	0.1173654
8	0xbd83a861	-0.064286
9	0xbd48d11b	-0.049027544
10	0x3c35b2a9	0.011089959
11	0xbd2bf471	-0.041981164
12	0xbe0ebc02	-0.13938907
13	0xbdb9862f	-0.090587966
14	0xbb9ac11b	-0.004722727
15	0xbd07d7ca	-0.033164777
16	0x3cd018f3	0.025402522
17	0x3bfef2e7	0.007780421
18	0x3da3c652	0.07996811
19	0x3ca54314	0.020173587
20	0x3ca19efd	0.019729132
21	0x3e249fc6	0.16076574
22	0xbc789479	-0.015172117
23	0x3bd8c10c	0.00661481
24	0xbd9a2602	-0.07526781
25	0xbcbca04c	-0.023025654
26	0xbe041e06	-0.12902078
27	0xbc39cb20	-0.011339933
28	0x3dfccfe1	0.12344337
29	0xbb896b67	-0.0041937116
30	0x3d5394a7	0.051655438
31	0x3d51ff53	0.051268887
32	0x3e0b3aac	0.135966
33	0x3da715d0	0.08158457
34	0xbda599d7	-0.08085983
35	0x3c9f760b	0.019465467
36	0x3c331cfa	0.0109322015
37	0x3e2c7549	0.16841616
38	0xbdcfe9fa	-0.10152049
39	0xbd3e1bad	-0.046413112
40	0xbc8d41e2	-0.01724333
41	0xbd51c823	-0.051216256
42	0x3dd44572	0.10364808
43	0xbd2cee85	-0.042219657
44	0xbdea57e3	-0.11442544
45	0xbdc476d9	-0.09592981
46	0xbdab1901	-0.083543785
47	0x3de39688	0.11112696
48	0xbc6b1b60	-0.014349788
49	0xbd29be0a	-0.041441
50	0xbe020547	-0.12697326
51	0xbe18e8ba	-0.14932528
52	0x3db8f67c	0.09031388
53	0x3d8c2bd6	0.068442985
54	0x3d7daa21	0.061929826
55	0xbde249b3	-0.11049213
56	0x3cb36879	0.021900402
57	0x3e0d1abb	0.13779728
58	0xbd90d533	-0.070719145
59	0xbc47817e	-0.012176869
60	0x3af8df4b	0.0018987445
61	0xbd6dbd3d	-0.0580418
62	0xbd56ea8d	-0.05246978
63	0x3dfdfae1	0.12401367
64	0x3d26f9de	0.040765636
65	0x3d74e5b4	0.059789374
66	0xbccde7a2	-0.025134865
67	0x3dae14da	0.08500071
68	0xbe2423b2	-0.16029242
69	0xbe09c612	-0.13454464
70	0x3c4c5a03	0.012472632
71	0x3db46fe7	0.08810406
72	0x3b944969	0.0045253527
73	0xbcbf1641	-0.023326041
74	0x3e2df379	0.16987409
75	0x3dc8da6c	0.09807286
76	0xbc942fd1	-0.018089207
77	0x3d20f912	0.039300032
78	0x3d007e73	0.03137059
79	0x3d15525d	0.0364555
80	0x3db840b4	0.08996716
81	0xbd10747e	-0.035267346
82	0xbd987cd9	-0.07445688
83	0xbb8a45ef	-0.0042197625
84	0x3d26f0e4	0.040757075
85	0xbd973117	-0.0738241
86	0xbd082d58	-0.03324637
87	0xbc178515	-0.009248038
88	0xbd80f2ad	-0.06296287
89	0x3d1c41d8	0.03814873
90	0x3d7106aa	0.058844246
91	0xbd49d907	-0.04927924
92	0x3c85d4f4	0.016336896
93	0xbdd40b0d	-0.1035367
94	0x3dc926f7	0.09821885
95	0x3d4afb2c	0.049555942
96	0xbc3d950f	-0.011571183
97	0x3d577674	0.0526032
98	0x3ddadd20	0.106867075
99	0x3dcab90e	0.09898578
100	0x3d4e5f58	0.050383896
101	0xbcd2ce14	-0.025733031
102	0x3e053a3f	0.130105
103	0x3c3ca3ef	0.011513694
104	0xbe03fcc0	-0.12889385
105	0x3da7933b	0.08182379
106	0xbdc354a8	-0.09537631
107	0x3c51228c	0.012764584
108	0xbd44c65b	-0.04804073
109	0x3df73085	0.12069801
110	0x3c18a7cd	0.009317351
111	0x3cbc666e	0.022998061
112	0xbc71a743	-0.014749351
113	0xbcdd156c	-0.026987754
114	0xbd7f3bbe	-0.062312834
115	0xbe1244e7	-0.14284097
116	0xbc9d52a3	-0.019204443
117	0xbdc2b3da	-0.0950696
118	0xbd7eb127	-0.062180664
119	0xbd55132c	-0.052020237
120	0x3c9366c5	0.01799334
121	0xbe079f88	-0.1324445
122	0xbdd0b4b3	-0.10190716
123	0x3d411c78	0.04714629
124	0x3e10dad0	0.1414597
125	0x3d10c75f	0.035346385
126	0x3d51dc70	0.051235616
127	0x3d972df2	0.0738181
128	0xba4c7f63	-0.00078009645
129	0x3cf78968	0.030216888
130	0xbd94f45f	-0.072731726
131	0xbc28e0c6	-0.010307496
132	0x3b47f49b	0.0030510786
133	0x3da5554f	0.08072912
134	0x3cf640b0	0.030060142
135	0xbe119842	-0.14218238
136	0x3b27f178	0.0025626104
137	0xbd93d865	-0.07219008
138	0xbb8cc345	-0.004295739
139	0xbe1a3419	-0.15058936
140	0xbcec2afe	-0.028829094
141	0x3ad395be	0.0016142649
142	0x3c635acd	0.013876629
143	0x3d6e0d73	0.058118295
144	0x3c010a9b	0.007876064
145	0xbd84ee77	-0.06490796
146	0xbcc99732	-0.024608228
147	0x3dc2777c	0.09495446
148	0x3da4273d	0.080152966
149	0x3c08bc87	0.00834573
150	0x3c409fad	0.01175682
151	0xbd40cef1	-0.047072355
152	0xbe17c83b	-0.14822476
153	0x3c6c8e0d	0.014438164
154	0xbd36d30f	-0.044634875
155	0xbdc1d2a9	-0.09464008
156	0xbd73f452	-0.059559174
157	0x3d23d32a	0.039996304
158	0x3d863c30	0.065544486
159	0x3cbde7a0	0.023181736
160	0xbdf0f01d	-0.11764548
161	0xbe49e2d8	-0.1971544
162	0xbdbf017d	-0.09326456
163	0xbd2b9bbb	-0.041896563
164	0x3d27dba8	0.040980965
165	0xbb817b02	-0.0039514313
166	0x3cc7d77d	0.024394745
167	0x3debbcde	0.11510633
168	0xbc19a194	-0.009376902
169	0xbdc771f5	-0.097385325
170	0x3d5d7651	0.054067913
171	0xbc725bc2	-0.014792385
172	0xbd4241a2	-0.047425874
173	0xbdbfd154	-0.09366098
174	0x3c25bc73	0.010115731
175	0xbdb78895	-0.08961598
176	0xbb749d1f	-0.0037325097
177	0x3df288da	0.118425086
178	0xbdbaffae	-0.09130798
179	0x3e066083	0.13122754
180	0xbe1f177b	-0.15536301
181	0xbe0e03cf	-0.1386864
182	0x3e02ce9a	0.12774125
183	0x3d176bd2	0.03696806
184	0xbd9b3665	-0.07578734
185	0xbe1290d4	-0.1431306
186	0x3d17cd9e	0.037061326
187	0x3c95b75c	0.01827591
188	0x3dc0ae3f	0.09408235
189	0xbdb11be6	-0.08647899
190	0xbdd47686	-0.10374169
191	0x3d054998	0.032540888
192	0x3c3d247a	0.011544341
193	0x3e21a38d	0.15785046
194	0x3db972a6	0.090550706
195	0x3ba6c1ae	0.0050890064
196	0xbde105ea	-0.10987456
197	0xbd644eb8	-0.055739135
198	0xbdaa2f15	-0.083097614
199	0xbd677419	-0.056507204
200	0x3c855714	0.016276874
201	0x3adc1536	0.0016790989
202	0x3d853ad8	0.06505364
203	0xbdb22633	-0.08698692
204	0x3d7180cb	0.058960717
205	0xbdea35e5	-0.11436061
206	0x3ce0ba1c	0.027432494
207	0x3d7d184d	0.061790753
208	0xbb79b11e	-0.0038099955
209	0xbd91486f	-0.07093894
210	0x3c07a26f	0.008278473
211	0xbcbc1b6a	-0.02296229
212	0xbe3b275d	-0.18276735
213	0x3d8b31da	0.06796618
214	0xbc0ab48a	-0.008465895
215	0xbdefb0a1	-0.11703611
216	0x3dc36583	0.09540846
217	0xbd03ee77	-0.03220984
218	0xbde00cc5	-0.109399356
219	0x3d704769	0.058661852
220	0x3cae0ed5	0.021247307
221	0xbd87b2cf	-0.06625902
222	0x3d821aa8	0.063527405
223	0x3c73bb6e	0.01487623
224	0x3d60f02e	0.054916553
225	0xbdb2d57b	-0.087321244
226	0xbdfdea8a	-0.123982504
227	0xbc389367	-0.011265612
228	0x3c36ba20	0.011152774
229	0xbdf6aad0	-0.12044299
230	0xbd82c53c	-0.06385276
231	0xbd2465a9	-0.040136013
232	0xbca4ee98	-0.020133302
233	0xbdb85e7f	-0.09002399
234	0x3b9e7ae8	0.004836429
235	0x3e0f9c06	0.14024362
236	0x3d1aeb0f	0.037821826
237	0xbc70094c	-0.014650654
238	0x3ce73a3a	0.028226007
239	0xbe076267	-0.13221131
240	0xbd33778d	-0.043815184
241	0xbc873964	-0.016506858
242	0x3d1eaecc	0.038740918
243	0xbca4fa31	-0.020138832
244	0x3dbd60fc	0.09247014
245	0xbdcb053f	-0.0991311
246	0xbdcd1c01	-0.10015107
247	0xbbd1fff7	-0.006408687
248	0x3d3dc624	0.04633154
249	0xbe39808f	-0.18115447
250	0x3dbfa91f	0.09358429
251	0xbd7e7358	-0.06212172
252	0xbd747229	-0.059679184
253	0xbd6c92f7	-0.057757344
254	0xbc311746	-0.0108087715
255	0x3d956987	0.07295518
