trained_models/portrat_de_metzinger.pth (torch, 210147 bytes, 72 tensors)

enc1.layer.0.weight f4 [3, 1, 3, 3]
0	0x3e8bf81d	0.27337733
1	0x3e03ec93	0.12883215
2	0x3e93f4b3	0.28897628
3	0xbe2de9bb	-0.16983692
4	0x3d87492c	0.06605753
5	0x3e8e709e	0.27820295
6	0x3dc7058b	0.09717854
7	0x3ea5fd2d	0.3241972
8	0x3e013506	0.12617883
9	0x3db2cba6	0.08730249
10	0x3c54a678	0.012979142
11	0xbe297e9c	-0.16552204
12	0xbe966a1b	-0.29377827
13	0xbe4ba2b7	-0.1988629
14	0xbe27f022	-0.16400197
15	0x3de6b841	0.112656124
16	0xbecb04b1	-0.39652017
17	0xbd8d0a39	-0.068867154
18	0xbe856ff8	-0.26061988
19	0xbd16f752	-0.036856957
20	0xbe88cf8a	-0.2672084
21	0xbea836cb	-0.32854304
22	0xbe507a47	-0.20359145
23	0xbd823c22	-0.06359126
24	0x3d3b8822	0.045784123
25	0xbe32fdcd	-0.1747963
26	0x3e0671f1	0.13129403

enc1.layer.1.weight f4 [3]
0	0x3f775e29	0.9662805
1	0x3f84da18	1.0379057
2	0x3f7e9260	0.994421

enc1.layer.1.bias f4 [3]
0	0xbdbc5b3c	-0.09197089
1	0xbd0b36c9	-0.033987794
2	0x3caee148	0.021347657

enc1.layer.1.running_mean f4 [3]
0	0xbe311ae2	-0.17295411
1	0x3e48fcce	0.19627687
2	0x3ea292a0	0.3175249

enc1.layer.1.running_var f4 [3]
0	0x3eeba649	0.46025303
1	0x3e86c8bf	0.26325032
2	0x3ea1ab90	0.31576204

enc1.layer.3.weight f4 [32, 3, 1, 1]
0	0xbf029e73	-0.51023024
1	0xbefdb0e0	-0.49549007
2	0xbeec8155	-0.46192423
3	0xbe8d88dc	-0.27643478
4	0x3d18e02a	0.037323155
5	0xbe1a93cd	-0.15095444
6	0xbe98292f	-0.2971892
7	0xbec6cbfa	-0.38827497
8	0xbdebf910	-0.11522114
9	0xbeb86b16	-0.360192
10	0xbeecff74	-0.46288645
11	0xbe524f48	-0.20538056
12	0x3ee7bb80	0.4526024
13	0x3f1ce201	0.61282355
14	0x3da2ee69	0.079556294
15	0x3e983096	0.29724568
16	0x3de1fe05	0.110347785
17	0x3ebaca1f	0.3648233
18	0xbd5973b0	-0.053088844
19	0x3ea3ce8d	0.31993523
20	0x3e16ef6c	0.1473977
21	0x3de3d937	0.11125415
22	0xbe702390	-0.23451066
23	0x3f1c9e4a	0.6117903
24	0x3e887deb	0.26658568
25	0xbe983118	-0.29724956
26	0xbed43a16	-0.41450566
27	0xbed8016c	-0.42188585
28	0x3eb4b0cc	0.35291135
29	0x3e4be92f	0.19913171
30	0x3cc44c52	0.023962174
31	0xbb9d0a4e	-0.004792488
32	0x3e48d5e8	0.19612849
33	0x3ea81396	0.32827443
34	0xbdcb5698	-0.09928626
35	0xbebfaa29	-0.3743451
36	0xbf260ed6	-0.6486639
37	0xbeeb72bf	-0.45985982
38	0x3e6a1d76	0.22862801
39	0xbd7d57e2	-0.06185139
40	0x3e5b3d2c	0.21410054
41	0x3e19ccc6	0.15019521
42	0x3e54718b	0.20746438
43	0x3ee49b42	0.44649702
44	0x3efdc7f4	0.49566615
45	0x3ef7da02	0.48408514
46	0x3db16ec3	0.08663704
47	0x3e8c0d31	0.27353814
48	0x3de0dd13	0.109796666
49	0x3c790544	0.015199009
50	0xbe81ce01	-0.2535248
51	0xbed5873c	-0.41704738
52	0xbda73e75	-0.081662096
53	0xbf131c87	-0.57465404
54	0x3f029044	0.5100138
55	0x3e6857f1	0.22689797
56	0xbf1785cc	-0.5918853
57	0x3e594db2	0.21221045
58	0xbe900e16	-0.28135747
59	0xbe3c2214	-0.18372375
60	0xbe227043	-0.15863137
61	0x3d9e0c1e	0.07717155
62	0x3eb73b81	0.35787585
63	0x3edc6a32	0.4304977
64	0x3ebb7919	0.36615828
65	0x3ed5c3c0	0.41750908
66	0x3e1a2a49	0.15055193
67	0xbee57086	-0.4481241
68	0x3db8b32a	0.09018548
69	0xbe40fc19	-0.18846168
70	0x3ee32e0d	0.4437107
71	0x3e669059	0.22516002
72	0x3e4b699e	0.19864509
73	0x3e168b55	0.14701588
74	0x3e9d6ac5	0.3074552
75	0xbe99c11a	-0.30030137
76	0x3ebc4a24	0.36775315
77	0x3cb42449	0.021989958
78	0x3e6449f4	0.22293836
79	0x3ed7bf02	0.42137915
80	0xbe65d22e	-0.22443458
81	0x3f035ced	0.5131367
82	0x3ed7df1e	0.42162412
83	0x3eeacc2c	0.45858896
84	0xbee22f45	-0.4417669
85	0xbdcfdb79	-0.10149283
86	0xbd1007fe	-0.035163872
87	0xbda9dde8	-0.082942784
88	0xbeda6c09	-0.4266055
89	0xbd386497	-0.045017805
90	0x3f02d228	0.51101923
91	0xbddd4079	-0.10803313
92	0xbed9ff9c	-0.42577827
93	0xbeba2e48	-0.36363435
94	0xbdc7db1c	-0.09758589
95	0xbe09fc53	-0.1347516

enc1.layer.4.weight f4 [32]
0	0x3f244d03	0.6418001
1	0x3f30e2f6	0.69096315
2	0x3f1ce6f8	0.6128993
3	0x3f075f71	0.5288001
4	0x3f4a6215	0.7905591
5	0x3f23bc4d	0.639592
6	0x3f7cc92d	0.9874447
7	0x3f10dfc0	0.56591415
8	0x3f52cba3	0.82341975
9	0x3f74694e	0.9547318
10	0x3f5a6dde	0.85323894
11	0x3f2b2f2d	0.6686886
12	0x3f09c84e	0.53821266
13	0x3f6aed10	0.9176798
14	0x3f21d1f5	0.63210994
15	0x3f567658	0.8377433
16	0x3f64b32a	0.8933588
17	0x3f47be70	0.7802496
18	0x3f6fcd8f	0.9367303
19	0x3f40ba58	0.7528434
20	0x3f68f18a	0.9099356
21	0x3f607c0d	0.87689286
22	0x3f42b820	0.760622
23	0x3f41bd07	0.7567906
24	0x3f5c3e73	0.8603279
25	0x3f5f233a	0.87163126
26	0x3f4d5eb0	0.80222607
27	0x3f2885f2	0.65829384
28	0x3f50ff8a	0.8163992
29	0x3f203d84	0.62593865
30	0x3f5c14f0	0.8596945
31	0x3f3577c2	0.7088586

enc1.layer.4.bias f4 [32]
0	0xbda2b3ae	-0.079444274
1	0xbe0c16bd	-0.13680549
2	0xbd73aefd	-0.059493054
3	0xbd9e8a2b	-0.07741197
4	0x3dd3131b	0.103063785
5	0xbdbb6c9e	-0.091515765
6	0x3da12f1c	0.078703135
7	0xbbc83da0	-0.006110862
8	0x3d8055d9	0.06266374
9	0x3bcdc2a1	0.006279305
10	0x3d422bd6	0.047405086
11	0xbd60ba6b	-0.054865282
12	0xbe2b8166	-0.1674858
13	0x3cc1ab4e	0.023641255
14	0x3b842a46	0.0040333597
15	0xbd8ff9e2	-0.07030083
16	0x3c33ba0d	0.010969651
17	0xbcdef562	-0.027216617
18	0x3d5b0cc6	0.05347898
19	0xbd907cc6	-0.07055049
20	0xbcc5dc06	-0.024152767
21	0x3d27e663	0.0409912
22	0x3c62e039	0.013847404
23	0xbc451fab	-0.012031476
24	0x3cbc7e4c	0.023009442
25	0xbd17a62f	-0.03702372
26	0xba10602d	-0.00055074954
27	0x3de8200e	0.11334239
28	0x3d43cdb0	0.04780358
29	0x3e089151	0.13336684
30	0xbd037edf	-0.032103416
31	0xbdd00945	-0.10158018

enc1.layer.4.running_mean f4 [32]
0	0xbf149c9b	-0.5805146
1	0xbe16e1e1	-0.14734603
2	0xbea0d4e5	-0.31412426
3	0xbecf8908	-0.40534234
4	0x3ee49fd2	0.44653183
5	0x3e9c5a82	0.30537802
6	0x3e30fa70	0.17283034
7	0x3e4d08b4	0.20022851
8	0xbe4b8631	-0.19875409
9	0x3d9bce4f	0.076077096
10	0x3db652cd	0.08902512
11	0xbda4a350	-0.08038962
12	0xbea678e7	-0.32514116
13	0x3e02b884	0.127657
14	0x3eee228f	0.4651074
15	0x3ea64722	0.32476145
16	0xbd715dd0	-0.058927357
17	0xbeda2810	-0.4260869
18	0x3ce54779	0.027988182
19	0xbdf0c4b2	-0.11756267
20	0x3e0078de	0.12546107
21	0x3ef5e9ec	0.4803003
22	0xbdbceb92	-0.09224619
23	0x3e532d89	0.20622839
24	0x3e84de3d	0.25950804
25	0x3d56b6b8	0.052420348
26	0x3e21da55	0.15805943
27	0x3f0cca4b	0.54996175
28	0xbe5d8014	-0.21630889
29	0xbe64662a	-0.22304597
30	0xbd29d9d2	-0.041467495
31	0xbe6a1463	-0.2285934

enc1.layer.4.running_var f4 [32]
0	0x3e19f2a2	0.15033963
1	0x3ca28a26	0.019841265
2	0x3d3dbf24	0.046324864
3	0x3d9e699f	0.077349894
4	0x3dc31c9a	0.0952694
5	0x3d1b4f0a	0.037917174
6	0x3d6ca67e	0.057775967
7	0x3cec1206	0.028817188
8	0x3e3ca3e2	0.18421891
9	0x3e43d70e	0.19125006
10	0x3bdd54f4	0.006754512
11	0x3e0021c2	0.12512878
12	0x3ded371f	0.11582779
13	0x3d1784c0	0.036991835
14	0x3e1be2c0	0.15223217
15	0x3d659fb4	0.056060508
16	0x3cbe9bf2	0.02326772
17	0x3d975a99	0.07390327
18	0x3e2b30ed	0.16717882
19	0x3db9f823	0.090805314
20	0x3d89d0c0	0.06729269
21	0x3dcd9fd7	0.10040253
22	0x3d756376	0.059909306
23	0x3e17a762	0.14809945
24	0x3d003ef0	0.031310022
25	0x3dcd3e46	0.10021643
26	0x3cae6c5a	0.0212919
27	0x3e045e5d	0.12926622
28	0x3d4f1f60	0.05056703
29	0x3d3c7f8a	0.04602007
30	0x3e617d2a	0.22020403
31	0x3cfd97d0	0.030956179

enc2.layer.0.weight f4 [32, 1, 3, 3]
0	0x3e7efcb7	0.2490109
1	0x3d0c97eb	0.034324568
2	0xbe8b689e	-0.27228254
3	0xbe215df4	-0.15758497
4	0xbe6d7134	-0.23187715
5	0xbd604107	-0.054749515
6	0x3e8f0824	0.27935898
7	0xbc98445a	-0.01858728
8	0xbd0e41e6	-0.034730814
9	0xbe9d3b51	-0.30709317
10	0x3d1a6d11	0.03770167
11	0x3e0a6afc	0.13517374
12	0xbe2a1143	-0.16608147
13	0x3d680563	0.056645762
14	0x3ce45e70	0.027877063
15	0xbda39c6e	-0.07988821
16	0xbe3083b6	-0.17237744
17	0xbdffbf1b	-0.12487622
18	0x3e5f9886	0.21835527
19	0x3e741bf0	0.23838782
20	0x3dcb1f5f	0.09918093
21	0x3d42e436	0.04758092
22	0x3d287b61	0.04113329
23	0xbc94cfe3	-0.018165534
24	0x3ea3c3c6	0.319853
25	0x3e992003	0.29907236
26	0xbdccc251	-0.099980004
27	0xbe855b8e	-0.26046413
28	0xbbb2d267	-0.005457211
29	0x3e2b83ff	0.16749571
30	0xbeae7561	-0.34073928
31	0xbe009dcb	-0.12560193
32	0xbe5863df	-0.21131848
33	0xbe1a6b31	-0.15079953
34	0x3e2b55f3	0.16732006
35	0x3d85e790	0.06538308
36	0xbe609a23	-0.21933798
37	0xbe6f81c2	-0.23389342
38	0x3e1a6056	0.15075812
39	0xbde7a47a	-0.11310668
40	0xbe8c669f	-0.27422044
41	0xbe71ed7a	-0.23625746
42	0xbe14fa13	-0.1454852
43	0xbd2d3c28	-0.042293698
44	0xbcaf1921	-0.021374287
45	0x3dfec35f	0.12439608
46	0x3dec029c	0.11523935
47	0x3eaa698b	0.33283648
48	0x3e8dafb6	0.2767312
49	0x3d526350	0.051364243
50	0xbddd9e84	-0.1082125
51	0xbd837d91	-0.06420434
52	0xbd6f11d8	-0.058366627
53	0xbe103d30	-0.14085841
54	0xbdc9ea39	-0.098591276
55	0x3e497b45	0.1967593
56	0xbe60ddc6	-0.219596
57	0xbe677d97	-0.22606502
58	0x3e24eb17	0.16105305
59	0x3e7a0821	0.24417163
60	0x3e837369	0.25673988
61	0x3e2a9a2f	0.16660379
62	0x3eaa25e1	0.33232024
63	0xbe375790	-0.17904496
64	0x3e3171dc	0.1732859
65	0x3e389dac	0.18028897
66	0xbea24113	-0.31690273
67	0xbd8e3c85	-0.06945137
68	0xbec5d6b3	-0.38640365
69	0xbea8bae9	-0.329551
70	0x3d6178f4	0.05504699
71	0xbec19ef2	-0.37816578
72	0x3e32e834	0.17471391
73	0x3ea1c513	0.31595668
74	0x3ebcf09e	0.36902326
75	0xbe8602e9	-0.26174095
76	0x3e6808aa	0.22659555
77	0x3e307ffa	0.17236319
78	0x3d1d11d3	0.038347077
79	0xbea47a42	-0.32124525
80	0xbe106244	-0.14099985
81	0x3e78f930	0.24313807
82	0x3e9e2632	0.30888516
83	0xbde2190d	-0.11039934
84	0xbe5ea6d4	-0.21743327
85	0x3e9c34dd	0.3050908
86	0xbe93df11	-0.28881124
87	0xbe79e75e	-0.24404666
88	0xbd63bdb9	-0.055600855
89	0xbe480249	-0.19532122
90	0xbe459b56	-0.19297537
91	0x3d5f63e3	0.05453862
92	0xbe763a29	-0.24045624
93	0xbe8993f1	-0.26870683
94	0x3e0cfbba	0.13767901
95	0xbdd2c38c	-0.10291204
96	0xbd4e83cf	-0.05041867
97	0x3d9fd65f	0.0780456
98	0x3b8e55e4	0.004343735
99	0xbe1ffe57	-0.15624367
100	0x3e0ad2d3	0.13556986
101	0xbe447b2d	-0.19187613
102	0x3e12462a	0.14284578
103	0xbe448d7b	-0.19194596
104	0x3e8de33f	0.27712438
105	0x3e27dd92	0.16393116
106	0x3e3702d1	0.17872168
107	0x3ebd91d7	0.3702533
108	0xbdbb6744	-0.09150556
109	0xbe839af9	-0.25704172
110	0xbe0a2ce8	-0.13493693
111	0x3d3f41cb	0.046693604
112	0x3e467e89	0.19384207
113	0xbe0fbb1f	-0.14036225
114	0x3dfe2d5b	0.124109946
115	0xbe5cffc2	-0.21581939
116	0xbd6f2324	-0.058383122
117	0x3d3134ba	0.043263175
118	0x3d16cda0	0.036817193
119	0xbe290153	-0.16504411
120	0x3e5ef103	0.21771626
121	0xbe7d7271	-0.24750687
122	0xbe774708	-0.2414819
123	0xbe7ff337	-0.24995123
124	0xbe807122	-0.25086313
125	0xbe162531	-0.14662625
126	0xbc9ce82d	-0.019153679
127	0xbe87745f	-0.26455972
128	0x3e80dc48	0.2516806
129	0xbe89a368	-0.26882482
130	0x3cb6bc02	0.022306446
131	0x3e0d6db7	0.13811384
132	0x3e5b20e2	0.21399263
133	0x3e7ecb3f	0.2488222
134	0xbe869c41	-0.26291087
135	0x3e4a1070	0.19732833
136	0x3d13f281	0.03611994
137	0x3e2b86fd	0.16750713
138	0x3ea611a3	0.3243533
139	0x3e68b1e0	0.22724104
140	0xbe109bea	-0.14121976
141	0xbcb3d05f	-0.021949945
142	0x3d33eb8c	0.043925807
143	0x3b312f04	0.002703608
144	0x3e345291	0.17609622
145	0xbe1da399	-0.15394439
146	0x3e5469c3	0.2074347
147	0x3d54a597	0.05191573
148	0x3e80d141	0.25159648
149	0xbe99d88e	-0.3004803
150	0x3e3fcef6	0.18731293
151	0xbe397dc3	-0.1811438
152	0x3e94897c	0.29011142
153	0x3d1baa48	0.03800419
154	0xbd4112e6	-0.047137164
155	0xbdf92701	-0.121656425
156	0x3e5f84d8	0.2182802
157	0x3e671e00	0.22570038
158	0x3e301c4a	0.17198291
159	0x3e55589f	0.20834588
160	0x3e548954	0.20755512
161	0x3c5d299b	0.013498689
162	0x3e1a70e5	0.15082128
163	0xbd1aae52	-0.0377639
164	0x3e0808d7	0.13284622
165	0xbed1ce66	-0.40977782
166	0xbd4555f2	-0.048177667
167	0xbe8b86b9	-0.27251223
168	0xbe54c362	-0.20777658
169	0xbe8da9b4	-0.27668536
170	0x3e8f5d4d	0.2800087
171	0x3d092de0	0.033491015
172	0xbdbba57e	-0.091624245
173	0x3e489d7f	0.1959133
174	0x3e364873	0.17801075
175	0x3d81852a	0.06324227
176	0xbe074cbf	-0.1321287
177	0x3e8b18d4	0.2716738
178	0x3dd87cb5	0.10570661
179	0x3e3b9b00	0.18320847
180	0xbd9c3c56	-0.07628696
181	0xbdd66a3a	-0.1046948
182	0xbe4165ee	-0.1888654
183	0xbe6815b2	-0.22664526
184	0x3d06c856	0.0329059
185	0xbe18f119	-0.14935721
186	0x3e003f98	0.12524259
187	0xbd5ab1cd	-0.05339222
188	0x3d8a3df8	0.06750101
189	0xbdfbe6d7	-0.122998886
190	0xbe6ebb80	-0.23313713
191	0x3e071e71	0.13195206
192	0xbdfc4615	-0.123180546
193	0xbe6da185	-0.23206146
194	0xbe565718	-0.20931661
195	0x3e3e8919	0.18606986
196	0xbe3e92dc	-0.1861071
197	0xbe08b3c6	-0.13349828
198	0xbe994a05	-0.29939285
199	0x3de9c36d	0.11414228
200	0xbdb3c816	-0.08778398
201	0xbe81b660	-0.25334454
202	0x3dd9aebe	0.106290326
203	0x3e6e716d	0.23285456
204	0xbe52546b	-0.20540015
205	0xbe9b2d52	-0.30308014
206	0xbd8f2ac9	-0.069905825
207	0xbd229118	-0.039689153
208	0x3e18ce8c	0.14922541
209	0xbe88a7f6	-0.26690644
210	0xbdb0637f	-0.086127274
211	0x3e143040	0.14471531
212	0xbe0a09e5	-0.13480337
213	0xbe31bf61	-0.17358162
214	0xbde20e3c	-0.11037871
215	0x3cf61d10	0.030043155
216	0xbd2c04b9	-0.04199669
217	0xbb4ecb57	-0.0031554305
218	0xbe897d93	-0.26853618
219	0xbe666b81	-0.22501947
220	0xbdedd016	-0.11611955
221	0xbe679cfb	-0.22618477
222	0xbd1bd3f3	-0.038043927
223	0x3e4d62a7	0.20057164
224	0xbd8f450d	-0.06995592
225	0x3e91e2a1	0.28493217
226	0xbea2a71a	-0.31768113
227	0xbe0f277b	-0.13979904
228	0x3e8ce22c	0.27516305
229	0xbe810970	-0.25202513
230	0xbe28cda6	-0.16484699
231	0xbd766526	-0.060155056
232	0xbe5f0d01	-0.21782304
233	0xbe90222a	-0.28151065
234	0xbe7db004	-0.24774176
235	0xbe6472e6	-0.22309455
236	0xbd31c52a	-0.04340092
237	0xbe94cf4d	-0.29064408
238	0xbe66f80c	-0.2255556
239	0xbc94443d	-0.018098945
240	0x3e29878b	0.16555612
241	0xbea09b8a	-0.31368667
242	0xbddfaee8	-0.109220326
243	0xbd54ea89	-0.051981483
244	0x3cfbad32	0.030722234
245	0x3e357fe1	0.17724563
246	0xbe22a658	-0.15883768
247	0xbe5e40d3	-0.21704416
248	0x3e12c8c2	0.14334396
249	0xbd0be73b	-0.034156065
250	0x3e326f61	0.174253
251	0xbe0d3f18	-0.137936
252	0x3e4b6054	0.19860965
253	0xbcffa327	-0.031205727
254	0x3dc638a1	0.0967877
255	0x3e3f698a	0.18692604

enc2.layer.1.weight f4 [32]
0	0x3f6cd180	0.9250717
1	0x3f6ebbc5	0.93255264
2	0x3f6770cb	0.90406483
3	0x3f6af2d6	0.9177679
4	0x3f8a0272	1.0781996
5	0x3f67501c	0.9035661
6	0x3f8e791c	1.113071
7	0x3f6168c8	0.8805051
8	0x3f7d1a62	0.9886838
9	0x3f73d71e	0.9525012
10	0x3f7a266e	0.9771489
11	0x3f87de28	1.0614672
12	0x3f4cbf1a	0.799791
13	0x3f90bbc5	1.1307303
14	0x3f88432c	1.0645499
15	0x3f6e6419	0.93121487
16	0x3f86d454	1.0533547
17	0x3f5878f3	0.84559554
18	0x3f5fab8f	0.8737115
19	0x3f808dff	1.0043334
20	0x3f9157f6	1.1354969
21	0x3f92f182	1.1479952
22	0x3f70fd0d	0.94136125
23	0x3f815d7e	1.0106657
24	0x3f87874d	1.0588166
25	0x3f947808	1.1599131
26	0x3f7748a0	0.9659519
27	0x3f72eb5a	0.9489037
28	0x3f64ff16	0.8945173
29	0x3f98ee9e	1.194782
30	0x3f8c7d85	1.0975806
31	0x3f7483c3	0.9551355

enc2.layer.1.bias f4 [32]
0	0x3bb869d6	0.005627851
1	0xbcba417f	-0.02273631
2	0xbd961c27	-0.073295884
3	0x3d44f2ae	0.048083
4	0x3d915572	0.070963755
5	0xbcebdbe6	-0.02879138
6	0x3e397768	0.18111956
7	0xbdcc6028	-0.09979278
8	0x3db5b2a0	0.08871961
9	0xbd4e95ea	-0.050435938
10	0x3c90a661	0.01765746
11	0x3dae950b	0.085245214
12	0xbdba8796	-0.09107892
13	0x3e36b410	0.17842126
14	0x3e1d36f8	0.15353
15	0xbd01cbdd	-0.03168856
16	0x3d909bb7	0.0706095
17	0xbbff86ae	-0.0077980375
18	0xbdd22407	-0.10260778
19	0x3d563a3c	0.05230163
20	0x3e297d2a	0.16551653
21	0x3e053af5	0.13010772
22	0xbc46d6bd	-0.0121361585
23	0x3d2a87ed	0.041633535
24	0x3db166ff	0.08662223
25	0x3e47d9ac	0.19516629
26	0xbce1dc41	-0.027570846
27	0x3d1ef28a	0.038805522
28	0xbb97de4a	-0.004634653
29	0x3deeed24	0.11666325
30	0x3e118065	0.14209135
31	0x3d304176	0.04303118

enc2.layer.1.running_mean f4 [32]
0	0xbd3b494c	-0.0457242
1	0xbddcca2b	-0.10780748
2	0x3e81fab1	0.25386575
3	0xbdfa2597	-0.12214201
4	0xbed7bb5a	-0.42135125
5	0x3df475d4	0.119365364
6	0x3ec21412	0.37905937
7	0xbe92d3e0	-0.28677273
8	0x3e66b459	0.22529735
9	0xbdc81f4a	-0.09771593
10	0xbe6a906c	-0.22906655
11	0x3e3e7509	0.18599333
12	0xbd78e5b0	-0.060765922
13	0xbed01979	-0.40644434
14	0x3c882910	0.016621143
15	0x3e7ce070	0.24694991
16	0x3e4ebeca	0.20189968
17	0x3e8eb336	0.27871102
18	0xbe8cb876	-0.27484483
19	0x3e6a2ab6	0.22867855
20	0xbe5da671	-0.21645524
21	0xbeb3e726	-0.3513729
22	0xbe80cf93	-0.25158367
23	0xbe1e9eca	-0.1549026
24	0xbe93fc0c	-0.28903234
25	0xbe98bed2	-0.29833084
26	0xbed69ace	-0.41914982
27	0xbca01daa	-0.019545395
28	0x3ee57393	0.4481474
29	0xbee44e43	-0.4459096
30	0x3f04aeb8	0.518291
31	0xbe87d2f8	-0.26528144

enc2.layer.1.running_var f4 [32]
0	0x3c41f976	0.011839261
1	0x3c7a2bf4	0.015269268
2	0x3db4e756	0.08833186
3	0x3cdb8d84	0.026800878
4	0x3ea25b21	0.3171015
5	0x3d2a0ecc	0.041518018
6	0x3e98ad2f	0.2981963
7	0x3e2b96dc	0.16756767
8	0x3db87c2c	0.09008059
9	0x3d152d9a	0.036420442
10	0x3dc9884a	0.09840448
11	0x3da378dc	0.079820365
12	0x3bd57f83	0.0065154447
13	0x3ea4d805	0.3219606
14	0x3be0b8d3	0.0068579703
15	0x3e4b12f7	0.19831453
16	0x3d83589b	0.064133845
17	0x3df01c44	0.11724141
18	0x3e4e5702	0.20150378
19	0x3db70c9d	0.08937953
20	0x3da78ac8	0.08180767
21	0x3e7caae2	0.24674562
22	0x3dae10f1	0.08499325
23	0x3d360121	0.04443467
24	0x3e2c7a90	0.16843629
25	0x3e2febc6	0.17179784
26	0x3ebd1066	0.36926574
27	0x3bde82c6	0.0067904918
28	0x3dfbd95c	0.122973174
29	0x3e07479c	0.1321091
30	0x3f1afec2	0.6054498
31	0x3dbcee78	0.09225172

enc2.layer.3.weight f4 [64, 32, 1, 1]
0	0x3d435170	0.047685087
1	0x3e1c9815	0.1529239
2	0xb99a28e0	-0.00029403623
3	0x3e086350	0.13319135
4	0xbcaacfc4	-0.020851023
5	0xbd324206	-0.043519996
6	0x3d818c7b	0.06325623
7	0xbcb6ee48	-0.022330418
8	0xbd83c2da	-0.06433649
9	0x3e00f085	0.12591751
10	0xbdcff52c	-0.10154185
11	0xbe3c72d4	-0.18403178
12	0x3d7f5d38	0.06234476
13	0x3d9428aa	0.072343186
14	0x3d03e384	0.032199398
15	0x3d9b50d0	0.07583773
16	0xbe8b97bb	-0.272642
17	0xbe0a6e05	-0.13518532
18	0x3e212411	0.15736414
19	0xbe35f4ac	-0.17769116
20	0xbe7361bd	-0.23767753
21	0xbd153fb6	-0.036437713
22	0x3e28c871	0.16482712
23	0xbd999e53	-0.07500901
24	0xbe02f24f	-0.12787746
25	0xbc381f08	-0.011237867
26	0xbc2856ab	-0.0102745695
27	0x3ca843f7	0.02054022
28	0x3c7ab9fc	0.015303131
29	0xbe1ceb0a	-0.15324035
30	0xbdd167bf	-0.10224866
31	0x3d4f92a9	0.050676975
32	0xbd31acae	-0.04337757
33	0xbaf3a7a9	-0.0018589395
34	0x3d91bbf5	0.07115928
35	0x3c7c3ca2	0.015395315
36	0xbcfabf08	-0.030608669
37	0x3d765257	0.06013712
38	0xbd8122d3	-0.0630547
39	0xbd3c1590	-0.045919
40	0xbe657035	-0.22406085
41	0xbd6d639a	-0.057956316
42	0xbd397c79	-0.045284722
43	0x3e16b766	0.14718398
44	0x3e16abe2	0.14714006
45	0xbe2fc070	-0.17163253
46	0x3d7d59de	0.061853282
47	0x3cff7ec3	0.031188374
48	0x3dcd1ae6	0.10014896
49	0xbc80b522	-0.01571137
50	0x3e0cbb46	0.13743314
51	0xbdff0e25	-0.1245387
52	0xbe7ca96a	-0.24674001
53	0xbe2c4ba7	-0.16825734
54	0x3df0a8ac	0.117509216
55	0xbba2eb55	-0.0049719014
56	0xbdc05139	-0.09390492
57	0xbe28e66f	-0.16494153
58	0xbd37b053	-0.04484589
59	0xbd789a72	-0.060694166
60	0x3dcbca56	0.09950702
61	0x3e3292f2	0.17438868
62	0x3d15326a	0.03642503
63	0xba15d778	-0.0005716006
64	0x3cf12861	0.0294382
65	0x3d7493ed	0.059711386
66	0xbdc3cd99	-0.09560699
67	0xbd3db766	-0.04631748
68	0x3e597258	0.21235025
69	0xbe25b122	-0.16180852
70	0xbec79d55	-0.38987222
71	0xbdaa3ff6	-0.08312981
72	0xbdd1c68c	-0.10242948
73	0x3cfa48b5	0.030552248
74	0x3d903150	0.070406556
75	0x3d73bb8b	0.059505027
76	0xbd6b1ce0	-0.057400584
77	0x3e371643	0.17879586
78	0x3d1983da	0.03747926
79	0xbe1e2841	-0.15445043
80	0xbd69404b	-0.05694608
81	0x3dd19cad	0.10234962
82	0x3c5f9392	0.013646023
83	0xbbaaf2ea	-0.005216946
84	0xbdb3d939	-0.08781666
85	0x3e84e09d	0.25952616
86	0xbd96304f	-0.07333433
87	0x3b1902ae	0.0023347544
88	0x3d9bf310	0.0761472
89	0x3b8b8d74	0.004258806
90	0xbde41458	-0.11136693
91	0xbd8e54c2	-0.0694976
92	0xbcc65d53	-0.024214422
93	0x3d87c8cb	0.06630095
94	0xbdbca140	-0.092104435
95	0xbe3f5121	-0.18683292
96	0x3da784fe	0.08179663
97	0xbdb8a2a5	-0.09015397
98	0xbc2ee21e	-0.010674028
99	0x3e029a62	0.12754205
100	0xbb74ff4c	-0.0037383614
101	0xbc149990	-0.009069815
102	0xbde85801	-0.113449104
103	0xbdce755d	-0.10080979
104	0x3de3d340	0.11124277
105	0x3dd3d840	0.10343981
106	0x3db22b93	0.086997174
107	0x3d093e01	0.033506397
108	0x3de482e3	0.11157777
109	0x3ce3fb1b	0.027829697
110	0xbe741266	-0.23835143
111	0xbdc858b6	-0.09782545
112	0xbd2df5df	-0.04247081
113	0xbd621d9b	-0.055204015
114	0x3d20fe36	0.039304934
115	0x3da888f4	0.08229247
116	0x3e1c46f8	0.15261447
117	0x3e2e618b	0.17029397
118	0xbd9dacb2	-0.07698955
119	0xbb9444bf	-0.0045247967
120	0x3d1bb027	0.03800979
121	0x3db75eda	0.089536384
122	0x3d4eeb84	0.050517574
123	0x3d44aed2	0.048018284
124	0xbdf020fa	-0.1172504
125	0xbe452881	-0.19253732
126	0x3de83d4b	0.11339816
127	0x3a22226b	0.0006184938
128	0x3c713d1e	0.014724044
129	0xbd2e7c20	-0.042598844
130	0x3db73ba4	0.089469224
131	0x3e2a46af	0.16628526
132	0xbdb40ce9	-0.08791525
133	0xbd26774d	-0.040641118
134	0x3d7db5f5	0.061941106
135	0xbd6a16cd	-0.05715065
136	0x3b699926	0.0035644262
137	0xbdf0c275	-0.1175584
138	0xbe00d78e	-0.12582228
139	0xbd433beb	-0.047664564
140	0x3d698487	0.057011154
141	0xbe58d0d8	-0.21173418
142	0x3d2691ac	0.040666267
143	0x3ba1a5a9	0.0049330783
144	0xbe5ac06f	-0.2136247
145	0xbdce9602	-0.100872055
146	0x3db02ea5	0.08602647
147	0xbe6e6e8f	-0.23284362
148	0xbe7809b2	-0.24222448
149	0xbe3981c3	-0.18115906
150	0xbb9eedc5	-0.0048501217
151	0xbdb3b3c8	-0.08774525
152	0x3d4eae8b	0.050459426
153	0x3de9a569	0.114085026
154	0xbd1c0873	-0.038093995
155	0x3d95d0f7	0.073152475
156	0xbd77092c	-0.06031148
157	0x3e58547e	0.21125981
158	0xbe62d2fe	-0.221508
159	0xbcbe0338	-0.023194894
160	0xbbcc1486	-0.0062280325
161	0xbdb1a7de	-0.08674596
162	0xbb421fca	-0.0029620999
163	0x3dbd9d9f	0.092585795
164	0x3e14abe5	0.14518698
165	0xbe02d9c3	-0.12778382
166	0xbd05e294	-0.032686785
167	0x3d659ce2	0.05605782
168	0x3e06d091	0.131655
169	0x3dab85bb	0.083751164
170	0xbd1ac8e5	-0.037789244
171	0x3e27b2fa	0.16376868
172	0x3de959b3	0.11394062
173	0x3dbfa1c9	0.0935703
174	0xbbcd465d	-0.0062644915
175	0x3a98671f	0.0011627412
176	0xbe1dd25b	-0.15412275
177	0x3d99d8a2	0.075120226
178	0x3e2519a1	0.16123058
179	0xbe03b4da	-0.12861958
180	0xbcee3993	-0.029080188
181	0x3dde0450	0.10840666
182	0x3dbe6fb4	0.092986494
183	0xbaabb0ff	-0.0013099014
184	0x3cfe7d2b	0.031065544
185	0x3e0d8d1a	0.13823357
186	0x3e278e3c	0.16362852
187	0xbe509485	-0.20369156
188	0xbdb3b4e2	-0.08774735
189	0xbe4f2075	-0.20227225
190	0xbd5eaf1c	-0.054366216
191	0xbddda7b5	-0.10823003
192	0xbcd80a85	-0.026372204
193	0x3de30267	0.110844426
194	0x3d0c4426	0.03424468
195	0xbd143d09	-0.03619102
196	0x3e15e108	0.14636624
197	0xbd2a71ea	-0.041612543
198	0xbdfc0172	-0.12304963
199	0x3c1d489a	0.009599829
200	0x3d189989	0.037255798
201	0x3d9c7ff7	0.07641595
202	0xbe024ade	-0.12723872
203	0x3d5812cf	0.052752312
204	0xbc26c96d	-0.01017986
205	0x3e152eb0	0.14568591
206	0xbe3044d4	-0.17213756
207	0xbc1c2924	-0.009531293
208	0xbcbb6bce	-0.022878554
209	0x3d6a3393	0.05717809
210	0x3de1fd82	0.11034681
211	0xbd02d71b	-0.03194342
212	0x3e149cd8	0.14512956
213	0x3e552916	0.20816454
214	0xbe569e37	-0.20958792
215	0xbdfac81a	-0.122451976
216	0xbc8e455c	-0.017367058
217	0x3dec466d	0.1153687
218	0x3e08126d	0.13288279
219	0xbc162217	-0.009163401
220	0xbd04ba51	-0.032404248
221	0xbdf4836a	-0.11939128
222	0x3dc57c62	0.09642865
223	0xbcacb775	-0.021083573
224	0x3d655dc0	0.05599761
225	0x3dfea346	0.12433486
226	0xbb3e0a59	-0.0028997867
227	0xbb88092a	-0.004151483
228	0x3d8f45a3	0.06995704
229	0x3d99145d	0.07474587
230	0xbbe8a603	-0.0070998683
231	0xbbc88f2c	-0.006120583
232	0x3dd23227	0.10263472
233	0x3e4ac09c	0.19800037
234	0xbdb56a98	-0.08858222
235	0xbc7ed46d	-0.015553576
236	0xbd1ccf13	-0.03828342
237	0xbc8da471	-0.017290326
238	0xbdf93001	-0.12167359
239	0x3e0e3d0d	0.13890477
240	0xbde78f67	-0.11306649
241	0xbd5510ee	-0.0520181
242	0xbd08c5d3	-0.033391785
243	0x3bbbec2b	0.0057349405
244	0xbd8d1982	-0.06889631
245	0x3cd3d4b2	0.025858257
246	0x3d9c37e8	0.07627851
247	0xbdc0c0e3	-0.0941179
248	0x3d03f7b0	0.032218635
249	0x3e004ad9	0.12528552
250	0x3d282f28	0.041060597
251	0x3e0b306e	0.13592693
252	0x3d5e8cb4	0.054333404
253	0xbe15ffa0	-0.14648294
254	0x3df40527	0.11915045
255	0x3cd98064	0.02655048

enc2.layer.4.weight f4 [64]
0	0x3f2eb404	0.6824343
1	0x3f4cc614	0.79989743
2	0x3f4b2d46	0.79365957
3	0x3f664c8d	0.8996056
4	0x3f3a19dd	0.72695714
5	0x3f441a6b	0.7660281
6	0x3f565e05	0.8373721
7	0x3f65b56f	0.8972997
8	0x3f637e24	0.8886435
9	0x3f5de0e9	0.8667131
10	0x3f415b00	0.7552948
11	0x3f60cb87	0.8781056
12	0x3f4c9eb8	0.79929686
13	0x3f54da2b	0.831454
14	0x3f3a230b	0.7270972
15	0x3f2b9d29	0.6703668
16	0x3f4935dc	0.7859781
17	0x3f57a017	0.8422865
18	0x3f4b8a44	0.7950785
19	0x3f6af96c	0.9178684
20	0x3f384581	0.71981055
21	0x3f38455b	0.7198083
22	0x3f41fbfb	0.75775117
23	0x3f43ffc4	0.7656214
24	0x3f45c168	0.7724824
25	0x3f3f3276	0.7468637
26	0x3f874b68	1.0569887
27	0x3f5495c2	0.8304101
28	0x3f5829db	0.84438866
29	0x3f397f37	0.7245974
30	0x3f49522b	0.78641003
31	0x3f4518af	0.7699079
32	0x3f650b2d	0.8947018
33	0x3f31fcf9	0.6952663
34	0x3f33ee31	0.70285326
35	0x3f58bcfa	0.84663355
36	0x3f5e7999	0.86904293
37	0x3f61c587	0.8819203
38	0x3f4bb6ea	0.7957598
39	0x3f3a08b6	0.7266954
40	0x3f56e97d	0.83950025
41	0x3f629885	0.88513976
42	0x3f410c52	0.75409424
43	0x3f362ec8	0.7116513
44	0x3f3ab84f	0.7293748
45	0x3f5d52fe	0.8645476
46	0x3f4588ed	0.7716206
47	0x3f4484f4	0.7676537
48	0x3f3f0b98	0.74627066
49	0x3f6819ae	0.90664184
50	0x3f31763e	0.6932105
51	0x3f68ef19	0.90989834
52	0x3f7837e2	0.9696027
53	0x3f36e07f	0.71436304
54	0x3f3ff2d0	0.7497988
55	0x3f577636	0.8416475
56	0x3f5b04d7	0.8555426
57	0x3f4d6009	0.80224663
58	0x3f4e2b65	0.80534965
59	0x3f5b4c32	0.8566314
60	0x3f55942c	0.8342922
61	0x3f5773f2	0.84161294
62	0x3f4b8aa8	0.7950845
63	0x3f5254cb	0.82160634

enc2.layer.4.bias f4 [64]
0	0xbd855c42	-0.065117374
1	0xbd16541c	-0.036701307
2	0x3d4d310f	0.050095614
3	0x3a8e0fe1	0.0010838473
4	0xbdf7e995	-0.12105099
5	0x3c128efe	0.008945225
6	0x3d986536	0.074411795
7	0xbcdb1919	-0.026745366
8	0x3d2dafda	0.042404033
9	0xbda61d4b	-0.08111056
10	0xbda830a4	-0.082124025
11	0xbb5e72e2	-0.0033942987
12	0xbdd14a89	-0.102192946
13	0x3d4561d4	0.048189
14	0xbdfb8d1f	-0.12282776
15	0xbda21480	-0.07914066
16	0xbd85bf51	-0.06530631
17	0xbd9647d2	-0.073379174
18	0xbd84fac1	-0.0649314
19	0xbd887ef4	-0.066648394
20	0xbcf2169d	-0.029551798
21	0xbe5f99ab	-0.21835963
22	0xbd8df161	-0.06930805
23	0xbd6e6dd5	-0.058210213
24	0xbdbee431	-0.09320868
25	0xbd576c49	-0.052593503
26	0x3d1249cd	0.035714913
27	0xbd1a021b	-0.037599664
28	0xbd32ddc8	-0.04366854
29	0xbd8241a8	-0.06360179
30	0xbe4a2fae	-0.19744751
31	0xb9be49d5	-0.00036294633
32	0xbd1cda3c	-0.038294062
33	0xbd2d40ae	-0.04229801
34	0xbdc0ba81	-0.09410573
35	0xbc295904	-0.010336164
36	0xbc8618d6	-0.016369265
37	0xbd809a12	-0.062793866
38	0xbd7af3da	-0.06126771
39	0xbd16100e	-0.036636405
40	0xbc31ba0a	-0.010847578
41	0xbd023414	-0.031787947
42	0xbd60be1c	-0.054868802
43	0xbd8d899b	-0.06911012
44	0xbd9b9eaa	-0.07598622
45	0xbc8503e8	-0.016237214
46	0xbd13ec6d	-0.036114145
47	0xbd610088	-0.054932147
48	0xbc14a31b	-0.0090720905
49	0xbcfa3c03	-0.030546194
50	0xbcc0face	-0.023557093
51	0x3cb13669	0.02163239
52	0x3a87cd12	0.0010360798
53	0xbd8a20d8	-0.06744546
54	0x3d798cc4	0.06092526
55	0xbe0b7c71	-0.1362169
56	0x3bacaefe	0.005269884
57	0xbdc60ba6	-0.096701905
58	0x3b3bca58	0.0028654542
59	0xbc86e07f	-0.01646447
60	0x3cced24c	0.025246762
61	0x3d1656ab	0.036703747
62	0xbdc55491	-0.096352704
63	0xbcfd41c9	-0.030915158

enc2.layer.4.running_mean f4 [64]
0	0xbecbb1d1	-0.397841
1	0xbea44503	-0.32083902
2	0xbe326dd4	-0.17424709
3	0x3e36beae	0.17846176
4	0xbf0f7f96	-0.56054056
5	0x3e100bf8	0.14067066
6	0x3e49f6aa	0.19723001
7	0x3e5558df	0.20834683
8	0x3d31bea2	0.043394692
9	0xbf016fee	-0.50561416
10	0xbd5e24de	-0.054234378
11	0xbf23bf07	-0.6396336
12	0xbe2240ba	-0.15845004
13	0xbeb819d4	-0.35957205
14	0xbeb0d366	-0.34536284
15	0xbe398958	-0.18118799
16	0x3cd17441	0.02556813
17	0x3dd3392c	0.10313639
18	0xbebecc12	-0.37265068
19	0x3e7e24f0	0.24818778
20	0xbe64c373	-0.22340183
21	0xbe9bf247	-0.3045828
22	0x3e50dbe4	0.20396382
23	0xbb532871	-0.003222015
24	0x3c2a4c06	0.010394102
25	0x3e993223	0.29921064
26	0xbec78f91	-0.3897672
27	0xbf0257fe	-0.50915515
28	0xbebeb256	-0.37245435
29	0x3e3c88bb	0.18411534
30	0x3d1d72ac	0.038439438
31	0x3d6ddfa8	0.058074623
32	0xbf1210a0	-0.5705662
33	0xbeb18e74	-0.34678996
34	0xbe94bb7e	-0.29049295
35	0xbe17d72f	-0.1482818
36	0x3ea3af64	0.3196975
37	0xbf013dc1	-0.50484854
38	0x3d099fe6	0.033599757
39	0x3e072354	0.1319707
40	0x3f2c1f14	0.6723492
41	0xbeee2cee	-0.46518654
42	0xbe83ba56	-0.257281
43	0xbf344a67	-0.7042603
44	0xbee29bee	-0.4425959
45	0xbf06d101	-0.52662665
46	0xbf172d47	-0.5905346
47	0x3db1c30a	0.08679779
48	0x3e1e06c8	0.15432274
49	0xbe004a47	-0.12528335
50	0xbe41cd5d	-0.18925996
51	0x3cec9262	0.028878395
52	0xbe5274ab	-0.20552318
53	0xbd9a340e	-0.0752946
54	0x3ee343b1	0.44387582
55	0xbec17e0f	-0.37791488
56	0xbf688072	-0.9082099
57	0xbe8ff118	-0.28113627
58	0xbea0ea7f	-0.31428906
59	0xbe9dc2c8	-0.3081267
60	0xbc121d1a	-0.008918071
61	0xbde82381	-0.11334897
62	0xbec07a66	-0.37593383
63	0xbd98513a	-0.07437368

enc2.layer.4.running_var f4 [64]
0	0x3eef19a2	0.46699244
1	0x3e9f904f	0.31164786
2	0x3edfe8f3	0.43732414
3	0x3ec9ea50	0.3943658
4	0x3f5e95c1	0.86947256
5	0x3e399e29	0.1812674
6	0x3ecc6db7	0.39927456
7	0x3dc77238	0.097385824
8	0x3ea8c060	0.3295927
9	0x3e82c68e	0.2554211
10	0x3db34ece	0.08755265
11	0x3f169b16	0.5883039
12	0x3e8357cb	0.25652918
13	0x3ef4eaf1	0.47835496
14	0x3db2674f	0.08711111
15	0x3dff2902	0.124589935
16	0x3e23f503	0.16011433
17	0x3e1ab122	0.15106633
18	0x3e262b22	0.16227391
19	0x3ea987f3	0.33111534
20	0x3e54983a	0.20761195
21	0x3dc95a90	0.098317266
22	0x3e884b4d	0.2661995
23	0x3ecb0830	0.39654684
24	0x3ea0adff	0.31382748
25	0x3efe09e0	0.4961691
26	0x3ed77323	0.4208003
27	0x3f62db41	0.88615805
28	0x3ec73708	0.38909173
29	0x3ed09426	0.40738028
30	0x3d493cc6	0.049130224
31	0x3e4d5cd3	0.20054941
32	0x3f10f62b	0.5662562
33	0x3eed2f69	0.46325234
34	0x3d9a5f1f	0.07537674
35	0x3ecc653e	0.39920992
36	0x3f46b74c	0.7762344
37	0x3e3a6630	0.18203044
38	0x3e3a2d10	0.18181252
39	0x3e5e18b9	0.21689118
40	0x3ea4c4ea	0.32181484
41	0x3eddd235	0.43324438
42	0x3e9de912	0.3084188
43	0x3eef0bcc	0.46688688
44	0x3deeafea	0.11654647
45	0x3ef404be	0.47659868
46	0x3f4411de	0.76589763
47	0x3e585313	0.2112544
48	0x3e151ab0	0.14560962
49	0x3f02217d	0.5083235
50	0x3ec72d12	0.38901573
51	0x3e7dde1e	0.24791762
52	0x3f0f9049	0.56079537
53	0x3ddbc7d0	0.107314706
54	0x3f0705a3	0.52742976
55	0x3f09f9d4	0.5389683
56	0x3f713be0	0.94231987
57	0x3e9c071a	0.30474168
58	0x3e23e4df	0.16005276
59	0x3ea0213c	0.31275356
60	0x3f0cd7ca	0.5501677
61	0x3e9abfbe	0.30224413
62	0x3f07776b	0.5291659
63	0x3f0de147	0.5542187

enc3.layer.0.weight f4 [64, 1, 3, 3]
0	0xbd5b58a5	-0.053551335
1	0xbd930a87	-0.07179742
2	0x3e17338e	0.1476576
3	0xbd9954af	-0.07486855
4	0x3e7f749f	0.24946831
5	0x3e4f52cb	0.20246427
6	0x3dd7f759	0.10545225
7	0xbb524a89	-0.0032087883
8	0x3e98cd62	0.29844195
9	0x3e6e4f9f	0.2327256
10	0x3e91032d	0.28322735
11	0x3e5c1f69	0.21496357
12	0xbe646b3f	-0.22306536
13	0x3ea082b6	0.31349725
14	0x3dcbc398	0.09949416
15	0xbe3b7c0e	-0.18309042
16	0x3e3f9fa4	0.18713242
17	0x3da58636	0.08082239
18	0x3e523cdd	0.2053103
19	0xbe66c37e	-0.22535512
20	0x3e4e25b3	0.20131569
21	0xbb7184ba	-0.0036852793
22	0x3e0071da	0.12543431
23	0x3e45f8ca	0.19333187
24	0xbd440ff0	-0.04786676
25	0x3dc7f8a8	0.09764224
26	0x3e942ed9	0.28941992
27	0x3c6e103c	0.014530238
28	0x3d7c1b9c	0.061549768
29	0x3cb2fe70	0.02184984
30	0x3ead96a0	0.3390398
31	0x3c0d877a	0.008638257
32	0x3e4ad1e3	0.19806628
33	0x3d617d32	0.055051036
34	0x3e9135d5	0.28361383
35	0x3e282a63	0.16422419
36	0x3e121f42	0.14269736
37	0x3e0bcbef	0.13652013
38	0xbe87de7d	-0.26536933
39	0x3db833b1	0.08994234
40	0xbe893346	-0.2679693
41	0xbe746eca	-0.23870388
42	0xbe757b89	-0.23972906
43	0x3e05fa3f	0.13083743
44	0xbeb5615e	-0.35425848
45	0xbdca82d5	-0.098882355
46	0x3e6932ce	0.22773287
47	0x3d9ffc50	0.07811797
48	0xbe85bb57	-0.2611949
49	0x3cde553d	0.027140254
50	0x3d7b6033	0.06137104
51	0xbe2fd61b	-0.17171519
52	0x3e31052e	0.17287132
53	0x3d9ee390	0.07758248
54	0x3e2e4371	0.17017914
55	0xbdde74da	-0.108621314
56	0xbe8d20a1	-0.27563956
57	0xbe8f0caf	-0.27939364
58	0xbe0fb6e5	-0.14034612
59	0x3c7a35aa	0.015271584
60	0xbe9ae1b3	-0.3025032
61	0xbea32cfc	-0.31870258
62	0xbe94fc07	-0.29098532
63	0xbda1faf6	-0.07909195
64	0x3e308896	0.17239603
65	0x3e70d3be	0.23518273
66	0x3e8df6d9	0.27727392
67	0x3e38fc68	0.18065035
68	0xbc3f5ed8	-0.011680327
69	0x3e0ba0cc	0.13635558
70	0xbdcccf64	-0.10000494
71	0x3e71ac03	0.23600774
72	0x3cf1aceb	0.029501399
73	0x3e885fc7	0.26635572
74	0x3e0be5a2	0.13661817
75	0x3e474277	0.19458948
76	0x3d23e620	0.040014386
77	0x3e32e213	0.17469053
78	0xbe03aaa5	-0.12858064
79	0x3e8962d9	0.26833227
80	0xbdab0818	-0.08351153
81	0xbe43a8f4	-0.19107419
82	0xbe87d212	-0.26527458
83	0x3e92a61f	0.28642365
84	0xbd9a613d	-0.07538078
85	0xbe8a011b	-0.26953968
86	0xbeb2b4eb	-0.34903654
87	0xbe88a74f	-0.26690146
88	0xbd763f9e	-0.060119264
89	0x3dcb44a0	0.099251986
90	0xbdf2c72c	-0.11854395
91	0x3dca9b9c	0.098929614
92	0xbe14e6f9	-0.14541234
93	0x3e2814b1	0.16414143
94	0xbeb42774	-0.3518635
95	0xbe8bf285	-0.27333465
96	0x3dbba657	0.09162586
97	0xbd38f60a	-0.045156516
98	0x3d2c928f	0.042131957
99	0x3e965376	0.2936055
100	0x3e131995	0.14365228
101	0xbdd53a48	-0.10411507
102	0xbe919763	-0.2843581
103	0x3e2bbecf	0.16772006
104	0xbd27a89a	-0.040932275
105	0xbda31600	-0.079631805
106	0xbe393031	-0.1808479
107	0x3ea19e11	0.31565908
108	0x3dceebe4	0.10103586
109	0x3ce50cb4	0.027960159
110	0x3e88e096	0.26733845
111	0x3e635365	0.22199781
112	0x3d43749b	0.047718626
113	0x3e93d7f9	0.28875712
114	0xbe817781	-0.25286487
115	0xbd2030ec	-0.039109156
116	0xbe750223	-0.23926596
117	0xbe57e183	-0.2108212
118	0xbeb0c5e6	-0.34525985
119	0x3d87cd88	0.06630999
120	0x3e469839	0.19394006
121	0xbe30be82	-0.17260173
122	0xbe921aff	-0.2853622
123	0x3d92e120	0.071718454
124	0x3e97d7c3	0.296568
125	0x3eb09f4a	0.34496528
126	0x3e3ef236	0.18647084
127	0xbe5b9a37	-0.21445547
128	0xbe96a68d	-0.29423943
129	0x3d006dcc	0.03135471
130	0xbc55e152	-0.013054209
131	0x3e0cab39	0.13737191
132	0xbdbb4573	-0.09144106
133	0x3e2812b5	0.16413386
134	0x3e8b4064	0.27197564
135	0xbdded1ae	-0.10879837
136	0xbe3f4c9f	-0.18681572
137	0xbd9d7ac7	-0.076894335
138	0xbeb3274e	-0.34990925
139	0xbe617149	-0.22015871
140	0x3e8a022f	0.2695479
141	0x3db95fd6	0.090514824
142	0x3a4f6b48	0.00079124095
143	0x3e3f7d7f	0.18700217
144	0x3ce8503c	0.028358571
145	0xbe31ffd1	-0.17382742
146	0xbeab09dc	-0.3340596
147	0xbe097a98	-0.13425672
148	0x3e07c325	0.13258035
149	0x3de2f0f4	0.110811144
150	0xbd82b6b0	-0.06382501
151	0x3e5ad0f0	0.21368766
152	0x3c70a593	0.0146879135
153	0xbe2dbc27	-0.16966306
154	0xbd65b665	-0.056082148
155	0xbe1b2dcf	-0.15154193
156	0xbd2d4290	-0.042299807
157	0xbe919222	-0.28431803
158	0xbcfc08c2	-0.030765895
159	0xbe956edc	-0.29186141
160	0xbd1f42c7	-0.038882043
161	0x3c84ba97	0.016202254
162	0xbe2f11f2	-0.1709669
163	0x3e41f582	0.1894131
164	0x3c42e407	0.011895186
165	0x3d636ad5	0.055521805
166	0x3ea9d096	0.3316695
167	0xbda4f826	-0.08055143
168	0x3e67c490	0.22633576
169	0x3ea037a3	0.31292447
170	0xbe6c0f52	-0.23052719
171	0xbe404c49	-0.187791
172	0xbe377034	-0.17913896
173	0x3e8013e5	0.25015178
174	0x3e844611	0.25834706
175	0xbe466a06	-0.19376382
176	0xbeb8fcb8	-0.3613031
177	0x3e1d058a	0.15334144
178	0xbe8c5e03	-0.27415475
179	0xbe434511	-0.19069315
180	0x3dd6ddb5	0.10491506
181	0x3b400f4a	0.0029305988
182	0xbdb6ac43	-0.08919575
183	0x3e84c60d	0.2593235
184	0x3e6be363	0.2303596
185	0xbe1502c0	-0.1455183
186	0xbe3a3001	-0.18182375
187	0xbeaa738d	-0.33291283
188	0xbd6a7ddb	-0.05724893
189	0x3e899a2e	0.26875442
190	0xbdd21c80	-0.10259342
191	0x3d0c7e6d	0.034300257
192	0x3e8279af	0.25483462
193	0x3ce9fd98	0.028563306
194	0xbe8ad668	-0.27116704
195	0x3e3bdd7f	0.18346213
196	0x3db87e0f	0.09008419
197	0x3d87ddc0	0.06634092
198	0xbe96997f	-0.29413983
199	0xbea107dd	-0.31451312
200	0x3db20a36	0.08693354
201	0xbcb2ec61	-0.02184123
202	0xbeb501db	-0.35352978
203	0xbe00d5bb	-0.12581532
204	0xbce9e736	-0.028552633
205	0xbe01f81e	-0.12692305
206	0xbe6a37f5	-0.22872908
207	0x3adae93e	0.0016701592
208	0x3d8ef294	0.06979862
209	0xbd845b37	-0.0646271
210	0x3dcfa3f7	0.10138696
211	0x3e684b27	0.22684918
212	0x3e9d9039	0.30774096
213	0x3eb82337	0.35964367
214	0xbcadc640	-0.021212697
215	0x3b0ef806	0.0021815314
216	0xbe49c9da	-0.19705907
217	0x3e9a4749	0.3013251
218	0x3eb745bb	0.35795388
219	0x3e42f14c	0.1903736
220	0xbda801d0	-0.08203471
221	0xbe62298f	-0.22086166
222	0x3de88a69	0.11354525
223	0x3d842977	0.06453221
224	0xbe977370	-0.2958026
225	0x3ec50eeb	0.38487944
226	0x3df7a9d5	0.1209294
227	0x3bc5eb50	0.0060400143
228	0x3e8ede6d	0.27904072
229	0x3eb227e6	0.34796065
230	0x3e952ada	0.29134256
231	0xbe627ed2	-0.2211869
232	0xbdc14ba1	-0.09438253
233	0xbbe68c93	-0.0070358007
234	0xbe58bc5f	-0.21165608
235	0x3e621ccc	0.22081298
236	0x3d98724f	0.07443678
237	0x3d0d34ef	0.03447431
238	0xbd1073d6	-0.03526672
239	0xbdb02923	-0.08601596
240	0x3d7d4043	0.061828863
241	0x3e713d69	0.23558582
242	0x3e9f096f	0.31061885
243	0x3e22a812	0.15884426
244	0x3ea961af	0.3308234
245	0x3e82180d	0.25408974
246	0xba746a4e	-0.0009323702
247	0xbe24013a	-0.16016093
248	0x3e6fa68f	0.23403381
249	0xbe0bc390	-0.1364882
250	0x3e95e420	0.29275608
251	0x3e7676c5	0.24068744
252	0x3d937501	0.07200051
253	0xbe170d0e	-0.14751074
254	0xbe7e6d35	-0.24846347
255	0xbdde8240	-0.10864687

enc3.layer.1.weight f4 [64]
0	0x3f6fed57	0.93721527
1	0x3f8550e4	1.0415311
2	0x3f640c84	0.890816
3	0x3f8d3547	1.1031884
4	0x3f8a68ef	1.0813273
5	0x3f876338	1.0577154
6	0x3f7e1607	0.9925236
7	0x3f730246	0.94925344
8	0x3f769752	0.96324646
9	0x3f79bb57	0.9755148
10	0x3f60b96c	0.8778293
11	0x3f6ea257	0.9321646
12	0x3f74a7b9	0.95568424
13	0x3f836bd4	1.0267282
14	0x3f923771	1.1423169
15	0x3f736486	0.9507526
16	0x3f75996e	0.9593724
17	0x3f75ab8b	0.9596488
18	0x3f6cc61a	0.9248978
19	0x3f7d274c	0.9888809
20	0x3f61daee	0.88224685
21	0x3f83fd62	1.0311701
22	0x3f876c3a	1.0579903
23	0x3f894c3d	1.0726391
24	0x3f7fe149	0.9995313
25	0x3f7889bd	0.9708517
26	0x3f8ee1d9	1.1162673
27	0x3f8b8ff3	1.0903305
28	0x3fa1b22e	1.2632501
29	0x3f6e3584	0.9305041
30	0x3f87896d	1.0588814
31	0x3f68de69	0.9096437
32	0x3f8f9cc7	1.121972
33	0x3f6c6ac2	0.923504
34	0x3f755abb	0.9584157
35	0x3f7d97f3	0.9905998
36	0x3f7737da	0.965696
37	0x3f73197f	0.9496078
38	0x3f82c2fd	1.0215756
39	0x3f7039b7	0.93838066
40	0x3f615d88	0.8803334
41	0x3f5c016c	0.8593967
42	0x3f7b5cf3	0.98188704
43	0x3f7a4da4	0.9777472
44	0x3f535e97	0.8256621
45	0x3f7fa9b2	0.9986831
46	0x3f8497b2	1.0358794
47	0x3f5fb2e3	0.87382334
48	0x3f6c3df2	0.9228202
49	0x3f8fb99e	1.1228521
50	0x3f8092cd	1.00448
51	0x3f88934a	1.0669949
52	0x3f88097b	1.0627893
53	0x3f594778	0.8487468
54	0x3f807142	1.0034564
55	0x3f7b852a	0.9825007
56	0x3f909c93	1.1297783
57	0x3f658871	0.8966132
58	0x3f60c44f	0.87799543
59	0x3f88c2ef	1.0684489
60	0x3f8ad8f3	1.0847458
61	0x3f6c5fb3	0.92333525
62	0x3f72e500	0.94880676
63	0x3f77d00b	0.96801823

enc3.layer.1.bias f4 [64]
0	0x3c8a46c4	0.016879447
1	0x3d12e88d	0.03586631
2	0x3b1364ed	0.0022490576
3	0x3dcb32c6	0.09921794
4	0x3dc5e05d	0.096619345
5	0xbd0267b5	-0.031837184
6	0xbc26e60b	-0.010186682
7	0xbc80cad0	-0.015721709
8	0xbb774b4f	-0.0037734096
9	0xbb818d22	-0.003953592
10	0xbdde640d	-0.10858927
11	0x3bee6ba6	0.0072760163
12	0xbddf3032	-0.108978644
13	0xbd17826c	-0.036989614
14	0x3e0ce6a1	0.13759853
15	0xbd10f089	-0.035385642
16	0xbad56e68	-0.0016283514
17	0xbcfc0daf	-0.030768244
18	0xbb9533c8	-0.004553292
19	0x3d60b653	0.054861378
20	0xbe094487	-0.13405047
21	0xbe05c709	-0.13064207
22	0x3d0a311b	0.033738237
23	0x3cfd8909	0.030949133
24	0x3dd7bb1d	0.10533736
25	0x3d583fbd	0.05279516
26	0x3da8510c	0.082185835
27	0x3dd006f5	0.10157577
28	0x3e291727	0.16512738
29	0xbd1fed85	-0.039044876
30	0xbd5c0f3b	-0.053725462
31	0x3ccbaed2	0.024863634
32	0x3de85ccf	0.11345827
33	0xbd4e2120	-0.05032456
34	0xbaaffa4f	-0.0013426038
35	0x3c2f95fd	0.010716912
36	0x3ca25132	0.019814108
37	0x3d4eada3	0.05045856
38	0x3d81cd1e	0.06337951
39	0xbc75b80f	-0.014997496
40	0xbc9f101d	-0.019416863
41	0x3cb20d14	0.021734752
42	0x3c0f7e96	0.008758208
43	0xbba5af4c	-0.0050562974
44	0xbcd3b081	-0.025841
45	0x3c75bb80	0.014998317
46	0xbd4a8a1e	-0.049448125
47	0xbd9ea5d6	-0.077464744
48	0xbd39b5de	-0.045339458
49	0x3d68ed1e	0.056866758
50	0x3d37e83d	0.044899214
51	0x3d071bdb	0.03298555
52	0x3d61e52a	0.05515019
53	0xbdbd256e	-0.09235655
54	0xbba99d78	-0.0051762424
55	0xbd072631	-0.032995407
56	0x3d018c4d	0.031627942
57	0xbdb79619	-0.08964176
58	0xbdab318d	-0.083590604
59	0x3d549fd4	0.051910236
60	0x3d067059	0.032821987
61	0xbd905466	-0.07047348
62	0xbc5a4f5a	-0.013324583
63	0x3d6019eb	0.054712217

enc3.layer.1.running_mean f4 [64]
0	0x3e4d87bc	0.2007131
1	0x3ead829b	0.33888707
2	0x3e9e8927	0.30964014
3	0x3edf3902	0.4359818
4	0xbe6179ea	-0.22019163
5	0x3d19c00c	0.037536666
6	0xbf2249a8	-0.6339364
7	0x3eb53ee0	0.35399532
8	0x3eb2a664	0.3489257
9	0xbec30938	-0.3809297
10	0xbe03a0e8	-0.1285435
11	0x3dad25e8	0.08454496
12	0x3df0a132	0.117494956
13	0xbc3e2030	-0.011604354
14	0x3d12da81	0.035852913
15	0xbdc1c599	-0.09461517
16	0xbd7e6a96	-0.062113367
17	0xbea09a0b	-0.31367525
18	0x3e42321b	0.18964426
19	0xbe73be16	-0.23802981
20	0xbd6374b3	-0.055531215
21	0x3dde9e38	0.108700216
22	0xbecd1be3	-0.40060338
23	0x3e956650	0.2917962
24	0x3d8d2b35	0.06893007
25	0x3ea69e2e	0.32542557
26	0x3e913eec	0.28368318
27	0x3ecf3529	0.40470245
28	0x3c6d638c	0.014489066
29	0xbd8e689c	-0.069535464
30	0x3c420c50	0.011843756
31	0x3dcd6024	0.10028103
32	0x3e95b3f2	0.2923885
33	0xbd373980	-0.04473257
34	0xbe469300	-0.19392014
35	0x3eb682b0	0.35646582
36	0x3f07b9f6	0.5301813
37	0x3ec13789	0.37737682
38	0xbe535404	-0.20637518
39	0x3dc821ef	0.09772097
40	0x3cd27fba	0.02569567
41	0x3e8f38c6	0.27973002
42	0xbeb0f527	-0.34562036
43	0xbe2368f4	-0.15958005
44	0x3e138150	0.14404798
45	0xbd5e36a0	-0.054251313
46	0xbdcdaed4	-0.100431114
47	0xbde1edc5	-0.11031679
48	0x3dd2bf77	0.10290425
49	0x3ec7d228	0.39027524
50	0xbee167ce	-0.4402451
51	0xbee19cf0	-0.44065046
52	0x3f3268ae	0.6969098
53	0xbe1902f4	-0.14942533
54	0xbe665ea4	-0.2249704
55	0x3d531770	0.051536024
56	0xbca0cdd0	-0.019629389
57	0xbe3aec37	-0.18254171
58	0x3efd0617	0.4941871
59	0xbeb441b8	-0.3520639
60	0xbea4d13e	-0.3219089
61	0xbe9a0d9c	-0.30088508
62	0x3ea9c7b6	0.3316018
63	0x3e2015c2	0.156333

enc3.layer.1.running_var f4 [64]
0	0x3d4fbc3e	0.05071663
1	0x3e4947c8	0.19656289
2	0x3d963cfa	0.07335849
3	0x3e68d02c	0.22735661
4	0x3da626d1	0.081128724
5	0x3cd4aaae	0.025960293
6	0x3e8ca05c	0.27466094
7	0x3e7ad012	0.24493435
8	0x3e598f3c	0.21246046
9	0x3e650a10	0.2236712
10	0x3d63e0dd	0.05563437
11	0x3c9f0343	0.019410735
12	0x3d596b42	0.053080805
13	0x3d4d3a80	0.050104618
14	0x3c9da4f7	0.0192437
15	0x3cfae67b	0.03062748
16	0x3cc8532d	0.024453724
17	0x3e2e5040	0.170228
18	0x3d314540	0.043278933
19	0x3e59cef2	0.2127035
20	0x3d0c1927	0.034203675
21	0x3d7cb0a1	0.061691884
22	0x3ee48683	0.44633874
23	0x3d9c32ea	0.076268986
24	0x3cb0e848	0.021595135
25	0x3def4c20	0.116844416
26	0x3e2508c0	0.16116619
27	0x3e543d32	0.20726469
28	0x3cd12cad	0.025533998
29	0x3d0ecb1d	0.034861673
30	0x3ccfbf74	0.025359847
31	0x3cfc79c4	0.030819781
32	0x3e175522	0.1477857
33	0x3bb5447b	0.005531845
34	0x3dd90a2f	0.105976455
35	0x3e269ada	0.16270009
36	0x3e851b40	0.25997353
37	0x3e45d4b2	0.19319418
38	0x3d59ee9a	0.053206064
39	0x3d165f72	0.036712117
40	0x3ccef2b8	0.025262222
41	0x3e06bdee	0.1315839
42	0x3eb48348	0.3525641
43	0x3d03f268	0.0322136
44	0x3d6dc61c	0.05805026
45	0x3ca7c095	0.020477572
46	0x3ce55a8f	0.027997283
47	0x3caec678	0.021334872
48	0x3d2f4f89	0.04280046
49	0x3e8c992a	0.27460605
50	0x3e139386	0.14411744
51	0x3ea76631	0.32695153
52	0x3f4aa482	0.7915727
53	0x3cf362d5	0.029710213
54	0x3d43b2cc	0.047777936
55	0x3ca958d4	0.02067224
56	0x3cef45a5	0.029208014
57	0x3d8cd389	0.06876285
58	0x3e78f76d	0.24313135
59	0x3e83a337	0.2571046
60	0x3da63a4e	0.081165895
61	0x3e0bbcdb	0.13646261
62	0x3daac8f8	0.08339113
63	0x3cd2415d	0.025665933

enc3.layer.3.weight f4 [128, 64, 1, 1]
0	0xbd88a27e	-0.06671618
1	0xbdfbb5b7	-0.12290519
2	0x3d93f202	0.07223894
3	0x3deebe03	0.116573356
4	0x3e1d3e50	0.15355802
5	0x3c426651	0.011865214
6	0x3cf45687	0.029826416
7	0x3db04112	0.08606161
8	0x3daf55c0	0.085612774
9	0x3c9062ee	0.017625298
10	0x3d6dd3b1	0.058063213
11	0xbdf75172	-0.12076081
12	0x3cdd2cd8	0.026998922
13	0xbd91c4f5	-0.07117645
14	0xbe455899	-0.19272079
15	0xbd0b7188	-0.03404382
16	0xbd35ce7a	-0.044386365
17	0xbceb535e	-0.028726276
18	0xbdc92599	-0.09821624
19	0xbd730548	-0.05933121
20	0xbd95d901	-0.07316781
21	0x3d84fa09	0.06493003
22	0xbc03fbe1	-0.008055658
23	0xbd71bccd	-0.059017945
24	0xbc825218	-0.015908286
25	0x3d965b3e	0.07341622
26	0xbd036822	-0.03208173
27	0xbcd97ec0	-0.026549697
28	0xbe0ea3de	-0.13929698
29	0x3d173845	0.036918897
30	0x3d92f71c	0.071760386
31	0x3ca80c87	0.020513786
32	0x3c5df3e0	0.013546914
33	0x3d3d5368	0.04622212
34	0x3c835de2	0.016035978
35	0x3d9cfbf5	0.076652445
36	0x3c928e97	0.017890258
37	0xbe345936	-0.17612156
38	0xbb184909	-0.0023236892
39	0xbc5b9374	-0.013401855
40	0x3e2f4a31	0.17118146
41	0xbe4d425f	-0.2004485
42	0xbd50c90c	-0.050972983
43	0x3d28c0f6	0.041199647
44	0xbdfb93f9	-0.12284083
45	0x3decc900	0.11561775
46	0x3d9bfd76	0.07616703
47	0x3c210a76	0.009829154
48	0xbc68073b	-0.01416188
49	0x3d15cbf3	0.036571454
50	0xbd700008	-0.05859378
51	0xbc4b7dbb	-0.012420113
52	0xbd6e3d08	-0.058163673
53	0x3cc2965d	0.02375334
54	0xbd4c329d	-0.049852956
55	0x3dc310f2	0.095247164
56	0xbda94b16	-0.08266275
57	0x3d1039f9	0.035211537
58	0xbc01efd3	-0.007930714
59	0xbc922ac6	-0.017842662
60	0xbe283ce6	-0.16429481
61	0x3d34dfa7	0.044158604
62	0xbd09fe4c	-0.033689782
63	0xbc74d3e5	-0.014943098
64	0x3e141e53	0.14464693
65	0x3d02dcac	0.03194873
66	0x3d514819	0.05109415
67	0xbe6f143a	-0.2334756
68	0xbe30c2ae	-0.17261764
69	0xbd31e4f7	-0.04343125
70	0x3bc849c2	0.0061123082
71	0x3d85896a	0.0652035
72	0xbde7a89a	-0.11311455
73	0xbd772dd0	-0.060346425
74	0xbdf663d8	-0.120307624
75	0x3d637f32	0.055541225
76	0x3d51a230	0.051180065
77	0x3da3b3f5	0.079933085
78	0x3e05415c	0.13013214
79	0xbc8860f2	-0.01664779
80	0x3da3111e	0.07962249
81	0xbd8aa53f	-0.067697994
82	0x3dc99a5c	0.09843895
83	0x3d283bbe	0.0410726
84	0x3ceea406	0.029130947
85	0xbafa55e6	-0.0019099086
86	0x3df9f63e	0.1220517
87	0xbbcd462a	-0.0062644677
88	0x3b3a6b7e	0.0028445418
89	0xbb03e303	-0.0020124323
90	0xbdb279a9	-0.08714611
91	0x3cb8119c	0.022469334
92	0x3e160165	0.1464897
93	0x3d81a3cd	0.06330071
94	0x3d9f1394	0.07767406
95	0x3d129046	0.03578212
96	0x3de36a9e	0.1110432
97	0x3dc762ed	0.097356655
98	0xbdadb1fd	-0.08481214
99	0xbc3e18e0	-0.01160261
100	0xbdaf8835	-0.08570901
101	0x3d7712b1	0.06032056
102	0x3d76f6f6	0.060294114
103	0x3d976483	0.07392218
104	0xbbe24949	-0.006905709
105	0xbd64dc1a	-0.055873968
106	0x3dd7e6d7	0.10542076
107	0xbddd7e23	-0.10815074
108	0x3ca327f6	0.019916516
109	0xbd9c8f81	-0.07644559
110	0xbcb42db5	-0.021994451
111	0xbbe51d12	-0.006991991
112	0x3d157726	0.036490582
113	0x3d149655	0.03627618
114	0x3d821531	0.06351698
115	0xbe1cb9d6	-0.15305266
116	0x3d7a7630	0.06114787
117	0xbd78997a	-0.06069324
118	0xbc7af762	-0.01531777
119	0x3dc82d3a	0.09774251
120	0x3cf47a2e	0.029843416
121	0xbcdc31e6	-0.026879262
122	0x3c22ab62	0.009928556
123	0xbded8f5b	-0.115996085
124	0x3dea0862	0.1142738
125	0xbb947334	-0.004530335
126	0x3e3bcee1	0.18340637
127	0xbca2ab8a	-0.019857187
128	0xbb37ff64	-0.0028075809
129	0xbd074b4b	-0.03303079
130	0x3d74d62f	0.059774574
131	0x3df99227	0.121860795
132	0x3dc1a218	0.09454745
133	0xbda806a2	-0.0820439
134	0x3d99d154	0.07510629
135	0x3dad6272	0.084660426
136	0xbdd578f3	-0.1042346
137	0x3de44905	0.1114674
138	0xbdf6c955	-0.1205012
139	0xbd4f77d7	-0.050651398
140	0x3c374805	0.011186604
141	0xbe0d4b99	-0.1379837
142	0xbe2cf83f	-0.16891573
143	0xbd024f76	-0.03181406
144	0x3d3d98a0	0.046288133
145	0x3db357fd	0.08757017
146	0x3c395340	0.011311352
147	0x3d0c7697	0.034292784
148	0xbd6feef2	-0.058577485
149	0xbe14db69	-0.14536823
150	0xbdc0760a	-0.09397514
151	0x3c7e64e2	0.015526982
152	0x3c75100a	0.014957437
153	0xbba471c4	-0.0050184447
154	0xbe1851c8	-0.14874947
155	0xbe55018e	-0.20801374
156	0xbd39b754	-0.04534085
157	0xbca2419b	-0.019806674
158	0xbce6ae61	-0.028159322
159	0xbd0cf99e	-0.03441774
160	0xbe8a60f5	-0.27027097
161	0xbd19834e	-0.037478738
162	0x3cc7f9fc	0.024411194
163	0x3b89194d	0.0041839243
164	0x3d81dcca	0.0634094
165	0xbdacc10c	-0.08435258
166	0xbd33b2fe	-0.043871872
167	0xbd868489	-0.06568248
168	0xbc51e327	-0.012810505
169	0xbd9eac02	-0.07747652
170	0x3ca3b7e6	0.01998515
171	0x3d35c4b3	0.04437704
172	0x3ca32e3d	0.019919509
173	0x3dcd4aac	0.10024008
174	0xbd43ae27	-0.047773506
175	0xbd331ef4	-0.04373069
176	0x3d107c53	0.035274815
177	0xbe2ded5b	-0.16985075
178	0xbd731962	-0.05935038
179	0x3c04b688	0.0081001595
180	0xbd77bcba	-0.060482718
181	0xbdef5076	-0.116852686
182	0x3de1b0d0	0.110200524
183	0x3d45cad5	0.04828914
184	0xbdaac09b	-0.08337518
185	0x3cb0d02a	0.021583635
186	0x3e01d9e9	0.12680782
187	0x3da80823	0.08204677
188	0xbd0a4721	-0.03375924
189	0x3ce74c55	0.02823464
190	0xbdd59994	-0.10429683
191	0xbd05fc36	-0.03271123
192	0xbd850842	-0.06495716
193	0x3d57d0be	0.052689306
194	0x3d3c0f0a	0.04591278
195	0xbde4df1e	-0.11175369
196	0x3de964fd	0.11396215
197	0xbe2a39c7	-0.16623603
198	0x3d61d852	0.05513794
199	0xbc71307a	-0.01472103
200	0xbe0a2ca7	-0.13493596
201	0xbaa79126	-0.0012784346
202	0x3d894c95	0.0670406
203	0xbbc22fb9	-0.005926099
204	0x3cdf66d4	0.027270712
205	0xbdb4e23e	-0.08832215
206	0xbe2c0ca7	-0.16801701
207	0xbe326dd8	-0.17424715
208	0xbe14a4b9	-0.14515962
209	0xbd6f24d9	-0.05838475
210	0x3dd4f1ac	0.10397658
211	0x3e145362	0.14484933
212	0xbda0a42f	-0.078438155
213	0x3d4d9046	0.050186418
214	0x3d58749d	0.052845586
215	0xbc006752	-0.0078371335
216	0x3e13eb7c	0.14445299
217	0xbe0a6565	-0.13515241
218	0xbda625ad	-0.08112655
219	0x3dda5aad	0.10661826
220	0x3d243580	0.040090084
221	0xbc5b3191	-0.013378517
222	0xbc145a59	-0.009054744
223	0xbe2299a9	-0.15878929
224	0xbd409093	-0.047012877
225	0xbda5e098	-0.080994785
226	0x3dc279b6	0.09495871
227	0x3d296efc	0.04136561
228	0x3d9d95a2	0.07694556
229	0xbd92a55b	-0.07160445
230	0x3d3901ae	0.045167617
231	0xbde4b67a	-0.11167617
232	0xbd19f43a	-0.03758643
233	0x3d0f4729	0.034979973
234	0xbdd5a7c6	-0.10432391
235	0x3c153ddb	0.009108986
236	0x3c736412	0.014855402
237	0xbd825e31	-0.06365622
238	0xbc04a7a9	-0.008096614
239	0xbaf19791	-0.0018432011
240	0xbd6b7311	-0.057482783
241	0xbd26a05f	-0.040680286
242	0x3cef3482	0.029199842
243	0x3e1c486f	0.15262006
244	0xbd94f0f9	-0.072725244
245	0x3dbbc74d	0.09168873
246	0x3c9518e0	0.018200338
247	0xbdb927c7	-0.0904079
248	0xbd16903e	-0.036758654
249	0x3d17dacf	0.037073907
250	0x3bb557a3	0.0055341288
251	0xbce12cd6	-0.0274872
252	0xbdd29f82	-0.1028433
253	0x3cf458d7	0.029827518
254	0xbd3641b5	-0.044496257
255	0x3db23cfe	0.087030396
