trained_models/roman_mosaic.pth (torch, 210147 bytes, 72 tensors)

enc1.layer.0.weight f4 [3, 1, 3, 3]
000000 a4 6b d7 bd 3e 98 fa bd 97 02 82 be 78 c1 84 bd
       -0.10518578 -0.12236069 -0.253926 -0.06482214
000010 5d fa 91 3d 26 c5 37 3e 2d f0 b0 bb eb 39 8f 3e
       0.07127831 0.179463 -0.005399725 0.27973875
000020 88 5b 82 3d 22 38 84 be d7 9c a7 be f3 09 45 bc
       0.063651145 -0.25824076 -0.32736847 -0.012026298
000030 5f 8c 7c be 7a 5a 2f be 80 b0 5e be f5 50 80 be
       -0.24662922 -0.17124358 -0.21747017 -0.25061765
000040 65 c8 6a be 72 8b 5e 3d 37 d7 0d bd 83 f8 99 3d
       -0.22928007 0.054332204 -0.034629073 0.07518103
000050 13 92 4d be 29 4f a8 bd cf 7f 80 be 6f 9e 7e be
       -0.20075254 -0.082182236 -0.2509751 -0.24865125
000060 f2 e3 0d 3e 9a 08 bf be 3e 58 c9 3d
       0.13856485 -0.3731125 0.09831284

enc1.layer.1.weight f4 [3]
000000 b8 2f 8e 3f 22 2a 80 3f 1c 13 63 3f
       1.1108313 1.0012858 0.88701034

enc1.layer.1.bias f4 [3]
000000 af df d3 3d c1 1d bf bc e7 aa dc bd
       0.10345399 -0.023329617 -0.107747845

enc1.layer.1.running_mean f4 [3]
000000 9e cc a4 bb cf 38 9a 3e 20 d8 76 3e
       -0.005029275 0.30121467 0.24105883

enc1.layer.1.running_var f4 [3]
000000 e2 0d db 3b c1 5a 1d 3f 8c e0 3b 3e
       0.0066850046 0.61466604 0.18347377

enc1.layer.3.weight f4 [32, 3, 1, 1]
000000 8d f7 a8 3d 55 0f bf be a3 ae 52 be f4 4b 43 be
       0.082503416 -0.37316385 -0.20574431 -0.19071943
000010 25 27 5b be b5 6e 90 be 0c 0b 9d 3e c6 ea 0a bf
       -0.21401651 -0.28209463 0.3067249 -0.54264486
000020 f4 0c 6d 3e 4e e8 f7 3e e8 47 d4 3e 1f 88 cc be
       0.23149472 0.48419422 0.4146111 -0.39947602
000030 c5 da ee be 45 7f c2 3e f3 f4 3e 3e 40 ca ae be
       -0.46651283 0.37987724 0.18648128 -0.3413868
000040 66 af 58 3e 21 9c 05 bf d3 e5 b9 3e d5 86 2f 3d
       0.21160659 -0.5219136 0.36308154 0.042853195
000050 0a 45 a9 be 83 de bf be 01 64 fc 3e b6 66 ec 3e
       -0.33060485 -0.3747445 0.49295047 0.46172112
000060 cc 05 ba bd 7d c4 87 be eb 6a bd be 62 14 82 3e
       -0.09083137 -0.26517096 -0.36995634 0.25406176
000070 07 f4 2e 3f 5c fe d8 3e 3c 66 cb be 08 36 1b be
       0.68341106 0.4238156 -0.39726436 -0.1515733
000080 7c 3d 3a be 61 ca a8 bc 71 50 de 3e 22 e5 1d 3e
       -0.18187517 -0.020604314 0.43420747 0.15419438
000090 b1 05 b3 be 73 ba 59 3d 5f d1 20 3e e5 cc 0d 3f
       -0.3496528 0.053156327 0.15704869 0.5539077
0000a0 7c f1 03 bf 4d 0e 4a be d6 09 b0 3e ee 3b 70 3e
       -0.5154035 -0.19732018 0.34382504 0.23460361
0000b0 d6 80 4a 3e ac af 82 be 41 47 3d 3f 51 e7 d5 3c
       0.1977571 -0.25524652 0.7393685 0.026111277
0000c0 3a a0 e0 3d ff 1b fd 3e a7 a3 73 3e 02 fe e3 be
       0.10968061 0.49435422 0.23792897 -0.4452973
0000d0 f2 05 72 3d 76 49 a0 3e 3d c1 9b 3d 53 c7 3e bf
       0.0590877 0.31306046 0.07605217 -0.74522895
0000e0 a8 5b ba 3d bd 0a df 3e 86 47 fa 3d a2 55 b1 3e
       0.09099513 0.4356288 0.12220673 0.34635645
0000f0 29 c1 53 3e 5b 9a 9e bd 48 ab 19 bf 43 97 cc be
       0.20679154 -0.07744285 -0.6002698 -0.39959154
000100 5c dd 03 3f f6 83 0a 3f d7 50 9a be 2d f0 aa 3e
       0.5150964 0.54107606 -0.301398 0.33386365
000110 74 f4 c4 be d9 37 57 3e d9 b3 16 3f d5 ba 02 3f
       -0.38467753 0.21017398 0.58868176 0.51066333
000120 85 55 32 3f d0 9e 92 3e 66 28 92 3e 17 24 e8 3e
       0.6966174 0.2863679 0.28546447 0.45340034
000130 94 02 9f 3e d4 fd 9d bd eb 3f ec 3e 8c 33 06 bf
       0.31056654 -0.077144295 0.46142516 -0.52422404
000140 60 55 0f bf 43 ac 00 bf 57 99 a4 3e 77 dc 31 3e
       -0.55989647 -0.5026285 0.3214824 0.17369257
000150 af d0 04 bf 4d 60 02 3d 15 8e 76 bd 4a e3 58 3e
       -0.51880926 0.03183012 -0.060194094 0.21180454
000160 7c 16 ad be c6 4b dc be 7e 8e 16 3e bb 0f ef be
       -0.33806217 -0.4302656 0.14702794 -0.4669169
000170 74 65 dc be 9b 06 ca be c5 61 be bd bb 66 03 bd
       -0.43046153 -0.39458165 -0.09295992 -0.032080393

enc1.layer.4.weight f4 [32]
000000 2d 1b 1a 3f 6c 1d 0d 3f a5 5f 3f 3f cb 17 82 3e
       0.60197717 0.5512302 0.74755317 0.25408778
000010 76 c0 36 3f 4e b7 02 3f ee c1 0a 3f 96 25 3d 3f
       0.7138742 0.5106095 0.54202163 0.73885477
000020 ee a7 16 3f ab 71 49 3f 9e 4c fc 3e 38 a4 45 3f
       0.5884999 0.7868907 0.49277204 0.772037
000030 95 25 2a 3f 61 b7 27 3f c4 38 1a 3f 29 6a 53 3f
       0.66463596 0.6551419 0.6024287 0.8258386
000040 e7 4c 4f 3f af 52 51 3f ba bb ea 3e 69 15 02 3f
       0.8097672 0.8176679 0.4584635 0.5081392
000050 fa e1 0e 3f 49 03 3d 3f 4c 12 11 3f 1f 06 f3 3e
       0.5581356 0.7383314 0.56668544 0.47465608
000060 d3 bb 23 3f 67 e8 f0 3e 26 be 22 3f ea 0e 34 3f
       0.6395847 0.4705231 0.63571393 0.7033526
000070 3b 15 29 3f 79 e5 28 3f 22 d0 39 3f fd 77 2e 3f
       0.6604802 0.6597515 0.7258321 0.6815184

enc1.layer.4.bias f4 [32]
000000 e2 e9 09 be b1 39 75 bd f6 be 09 be 6c 41 83 be
       -0.13468125 -0.059869472 -0.13451752 -0.2563585
000010 66 71 74 bd be d0 bf bd 8d 2e 06 be 97 53 d8 bc
       -0.059678458 -0.09365986 -0.13103695 -0.026407046
000020 40 2c 2b bc e9 6e 00 bb fc a7 72 bd 6a db 9d bd
       -0.010447562 -0.0019597358 -0.059242234 -0.077078655
000030 0c 55 15 be 09 2e 9c be 9c bb ca bd 71 7f 0b bd
       -0.14583224 -0.30503872 -0.09899065 -0.034057084
000040 2f ee 30 3c 21 a5 8a bc 50 a7 7e bd d5 29 13 be
       0.010798975 -0.016924443 -0.06217128 -0.14371426
000050 3b ca a2 bd cf 0b 3d 3c 5b 82 1f bd 6e 02 db bd
       -0.07948729 0.01153846 -0.038942676 -0.10693823
000060 1c ec 76 be 9d 08 73 be 63 f5 c1 bd 83 07 32 be
       -0.24113506 -0.23733754 -0.09470632 -0.17385678
000070 65 a2 92 bd 02 ad 35 be 4f 91 35 3e e3 2c a8 bd
       -0.071598805 -0.17741778 0.17731212 -0.082116865

enc1.layer.4.running_mean f4 [32]
000000 75 a0 36 be c1 08 7b be 0d 60 dd bc 38 82 70 3e
       -0.17834647 -0.24515058 -0.02702334 0.23487175
000010 26 78 b8 3c 0a 71 53 be 63 15 7c 3d f2 d6 3f 3e
       0.022518229 -0.2064859 0.061543833 0.18734339
000020 dd a1 81 be 3f 0a 00 3f 2d 4b 8b be 1a 21 59 3e
       -0.25318804 0.50015634 -0.27205792 0.21204033
000030 54 a1 8c bd e4 7a 37 bd 47 ba 93 3e 22 5b 4f 3e
       -0.068667084 -0.044794932 0.28853056 0.20249608
000040 e5 af 9f 3e 8d 58 6c bd 10 40 74 be 9a 2d a6 3e
       0.31188884 -0.057701636 -0.23852563 0.32456666
000050 52 5c 05 be 6b 13 58 3e 5e 07 d0 bd 9a 5f f1 3e
       -0.13023499 0.21101157 -0.10157655 0.4714325
000060 2a ec f2 3e a1 fc 8e 3e cc 2a 49 be ac 6e 97 bc
       0.47445804 0.27927116 -0.19645232 -0.01848539
000070 96 07 56 be d6 f0 38 be b2 88 83 be 67 73 4e be
       -0.20901331 -0.18060622 -0.25690228 -0.2016121

enc1.layer.4.running_var f4 [32]
000000 4e 15 97 3d 09 42 43 3d 3e 13 de 3d ce 33 08 3e
       0.073771104 0.047670398 0.10843514 0.13301012
000010 8a 3a 60 3e 12 52 87 3d ec d7 c3 3d dc b0 91 3e
       0.21897331 0.066074505 0.09562668 0.28455245
000020 f2 11 80 3d b4 8f 64 3e 5d 36 b2 3d 12 2a 93 3d
       0.06253423 0.22320443 0.08701775 0.07185759
000030 5a 1d aa 3d b2 2b a7 3e 95 aa 9e 3d 06 ca 50 3e
       0.083063796 0.32650524 0.0774738 0.20389566
000040 e7 0e c9 3d 62 25 19 3e ff dc ff 3d f2 a8 e2 3d
       0.098172955 0.14955667 0.124933235 0.1106738
000050 bc 3a d7 3d a8 a0 ab 3e 94 0e 6e 3d bd fe 51 3e
       0.105092496 0.33521008 0.05811937 0.20507331
000060 ca 64 89 3e c0 6b e6 3d d0 26 c5 3e 05 05 62 3e
       0.26834708 0.112510204 0.38506174 0.22072227
000070 e8 2f 17 3e 6c b5 13 3e a5 35 2e 3e 55 e9 a7 3d
       0.14764369 0.14424676 0.17012651 0.081988014

enc2.layer.0.weight f4 [32, 1, 3, 3]
000000 da 23 b1 3c ec 22 9b 3e 36 63 32 3e 76 dc 34 3e
       0.02162354 0.3030008 0.17420658 0.17662224
000010 c4 57 1d be 3f 08 2e 3e 34 67 7e 3e d0 73 a6 3e
       -0.15365511 0.16995333 0.24844056 0.32510233
000020 37 32 ac 3d c4 70 a9 be 05 c4 01 be af bd 33 be
       0.08408015 -0.33093846 -0.12672432 -0.17552827
000030 fe 60 29 3e 76 4e 3b 3a 4b 4b 3f be 00 d9 3a be
       0.16540906 0.00071451755 -0.18681066 -0.18246841
000040 f1 94 fc bc ab bd 8c be 7a fc 03 bd df 87 c6 b9
       -0.03083274 -0.27488455 -0.032223202 -0.00037866735
000050 a9 5f 75 be 0e 3d 05 be aa 7e 9e 3d 20 37 93 3d
       -0.23962273 -0.13011572 0.07739003 0.07188249
000060 05 07 aa 3e 56 b7 01 3e 77 24 9b 3e 02 1a b9 3e
       0.3320848 0.12667593 0.30301258 0.36152655
000070 8e c5 dc 3d 64 77 97 3c 2c 4e 20 be 8c 7d 5a 3e
       0.10779868 0.018489547 -0.1565482 0.21336955
000080 e5 9e 19 3e f4 e8 9a bd 87 bc 2b bd a0 58 59 3e
       0.1500202 -0.075639635 -0.04192784 0.21225214
000090 59 f4 17 bd 56 c1 11 be 83 5b 00 bb 03 82 38 3e
       -0.037098262 -0.14233908 -0.0019585795 0.18018346
0000a0 99 ae 71 bd 8a d4 b3 bc 4a ee 5b 3e 00 83 1b 3e
       -0.0590044 -0.021951932 0.21477619 0.15186691
0000b0 da f9 d1 3e 5a 38 59 be 51 56 81 3c f5 72 87 be
       0.41010934 -0.21212903 0.01578823 -0.26454893
0000c0 0d ad 83 be c6 3a 33 3e a0 1f 29 3e 8a fd e6 3d
       -0.25717965 0.17502889 0.1651597 0.112788275
0000d0 46 d2 87 3d 30 50 43 3e 30 0b 44 be 7a 80 a8 3e
       0.06631903 0.19073558 -0.19144893 0.3291052
0000e0 6f e8 12 bd 1c 07 f1 3d 8b 42 d3 bd 00 6c 97 be
       -0.035866197 0.11768934 -0.103154264 -0.29574585
0000f0 4b b2 89 3d 29 33 9e bd 87 7b ea be 15 24 85 3e
       0.0672346 -0.07724602 -0.4579737 0.2600409
000100 87 fb 7f bc 52 b7 ad bd 2a 52 58 3e 20 b4 13 be
       -0.015623934 -0.08482231 0.21125093 -0.14424181
000110 37 e1 74 3e 23 d3 28 3e d4 b0 09 3d 60 83 b1 3e
       0.23914038 0.16486792 0.033615902 0.34670544
000120 ae 26 9f bd 56 d9 dc 3d 1f c6 d9 be f0 f0 9d 3d
       -0.077710494 0.10783641 -0.42533967 0.07711971
000130 51 65 e3 be c8 8a e9 3c 91 df 1c 3e fe 83 d1 bd
       -0.44413236 0.028508559 0.15319659 -0.10230254
000140 0a 34 a2 be 8e f1 0e 3c 81 87 e2 bc cf aa 4e be
       -0.31680328 0.008724583 -0.027652504 -0.20182346
000150 14 92 23 be 98 de 72 be 06 0f 39 be f5 55 06 be
       -0.15973693 -0.23717725 -0.18072137 -0.13118728
000160 5a 1e aa be 2b dd 53 be 5f ed 23 3e 9f 2d 4b 3e
       -0.3322628 -0.20689838 0.16008519 0.19841622
000170 fa ab 8c 3d 97 08 d0 bd c8 5c 02 be ef 8c 30 3d
       0.068687394 -0.101578884 -0.12730706 0.043103155
000180 51 cb 91 3b 79 ee a3 be a6 79 a3 bc fb 52 aa 3e
       0.004449286 -0.32017878 -0.019955467 0.33266434
000190 51 d4 75 bd c6 0d 68 3c 97 e5 41 be 80 d8 39 3e
       -0.060016934 0.01416344 -0.18935238 0.18148994
0001a0 f3 83 38 3e c4 e1 8d 3d 45 64 d0 3d 3e 55 22 3e
       0.18019085 0.06927827 0.10175375 0.1585283
0001b0 5c 5a b6 3e 63 21 75 bd f9 ae 00 be a2 2a 06 be
       0.35615814 -0.059846293 -0.12566747 -0.131022
0001c0 44 94 08 3d 56 ca 21 3e a4 85 f6 bc 60 4f 5c be
       0.033344522 0.15799841 -0.030093022 -0.21514654
0001d0 c7 8c 99 3e e1 ea 1b 3e a7 82 93 3e 0e 1d 00 3f
       0.29990217 0.15226318 0.28810617 0.50044334
0001e0 1c cb 36 bd f6 64 2b 3e 8c 31 09 3e 8c 56 f9 bd
       -0.044627294 0.16737732 0.13397807 -0.12174711
0001f0 25 e1 4a 3e 87 95 9d be 5a f1 c0 3e 24 17 3b 3e
       0.19812448 -0.30778143 0.37684137 0.18270546
000200 9d 4b e6 bd 71 04 f4 bc 3f 38 92 bd 81 84 db 3d
       -0.11244891 -0.029787274 -0.07139634 0.107186325
000210 2a 5e 99 be 79 c4 3d be f8 9c 97 bd 54 73 98 bd
       -0.29954654 -0.1853198 -0.07402986 -0.07443872
000220 dd e4 91 3b 8e f3 d2 3e e4 1a f1 3d b9 d0 65 be
       0.0044523315 0.41201442 0.11772707 -0.22442903
000230 e1 d6 74 3e 35 62 29 be fc df 80 3e 0e 12 ce bc
       0.23910095 -0.1654137 0.25170887 -0.025155094
000240 4e 06 56 be 5a 53 aa be db c6 cb be 19 b6 5c be
       -0.20900843 -0.33266717 -0.39800152 -0.2155384
000250 5a 50 16 be ad 72 bb bd eb c5 9a be 2f 1c c8 3d
       -0.14679089 -0.09152732 -0.30229124 0.097710006
000260 b2 15 47 3c 4c 4a 63 3e 58 2f b1 3c 1e d6 15 3e
       0.012151169 0.22196311 0.02162902 0.1463246
000270 6e 11 b2 3d a1 03 ec 3d 96 84 f9 3c a7 7f 16 be
       0.08694731 0.1152413 0.03045873 -0.14697133
000280 8a 94 9e 3e c4 e1 a6 3d 50 b5 41 3e e3 e1 4a be
       0.309727 0.0814853 0.18916821 -0.19812731
000290 42 ff b0 3d 5d fe a1 be d8 5b 1e bd 4a 90 81 be
       0.086424366 -0.31639376 -0.038661808 -0.25305396
0002a0 6b 32 4d be 1c e3 4b be d2 20 fc bd bc c6 1a 3e
       -0.20038764 -0.19910854 -0.123109475 0.15114874
0002b0 65 8a 56 3e 5e 8d 26 be d2 a6 55 3e 8a e4 83 bd
       0.20951231 -0.16264865 0.20864418 -0.06440075
0002c0 89 93 48 be 35 e6 8d 3d a0 b2 c6 3e d6 cc 5d 3e
       -0.1958753 0.06928674 0.38808155 0.2166017
0002d0 a7 4d 5f be c9 0d f2 3d bb 26 ec bd 40 c1 8a 3d
       -0.21806966 0.118190356 -0.11530825 0.06775141
0002e0 af 41 a3 3c d7 1d ae 3d 38 df d8 3c d8 89 14 be
       0.019928781 0.08501785 0.026473626 -0.14505708
0002f0 3d 32 1b be 66 5a 54 3e 4d 84 13 be 28 ee a6 3e
       -0.15155883 0.2073761 -0.14405937 0.32603574
000300 5b ab 85 3e 1e 4e d3 bd e5 2f 00 bd 1c 9f a4 3e
       0.26107296 -0.10317634 -0.031295676 0.3215264
000310 cd 09 83 3e d2 4c a3 3e 4e 90 4c be d4 6b 14 be
       0.25593415 0.31894547 -0.19976923 -0.14494258
000320 d1 36 68 3e ba df cc 3d ea a2 78 be 2d b4 78 be
       0.22677161 0.1000361 -0.24280897 -0.24287482
000330 2a 01 c2 3e 72 48 48 3e e6 2b cb bd 2f c0 45 bd
       0.37891513 0.19558886 -0.09920482 -0.048278984
000340 f7 20 b9 3e fc df 29 3d c8 ac 95 3e 4b 2f 79 3e
       0.36157963 0.041473374 0.29233384 0.24334447
000350 a9 1e c5 3d f8 de 2e 3e f7 c4 d9 bc cd a7 4a 3e
       0.096249886 0.17077243 -0.026583178 0.19790573
000360 60 18 52 3d e8 92 13 3e da e8 ca 3e 2a 47 24 3c
       0.051292777 0.14411509 0.39630777 0.010026732
000370 34 fb c7 bd 03 19 ea bd 77 12 80 3e 60 66 38 3e
       -0.0976471 -0.11430552 0.25014088 0.18007803
000380 e3 7d a5 bd 80 cd 14 3e e5 ef f1 bc 95 2a 14 3e
       -0.080806516 0.14531517 -0.029533336 0.14469369
000390 31 60 bd bd 10 3a b3 3d 47 33 84 3c 48 ad aa 3e
       -0.09246863 0.08751309 0.016137732 0.33335328
0003a0 64 94 e5 3d 58 61 2e be c4 6b 57 3c 89 af 42 be
       0.11209944 -0.17029321 0.013148252 -0.19012274
0003b0 b7 64 1f be 87 17 70 3d d2 a4 57 3e a6 a7 98 3d
       -0.15565763 0.058616187 0.21058968 0.074538514
0003c0 e0 9c 3c 3e 5c 11 03 be 83 74 d3 3e 4c 49 9b be
       0.18419218 -0.12799591 0.4129983 -0.3032936
0003d0 35 e6 8b 3e 2b f9 e1 bc d1 40 e3 bd e7 65 b5 3d
       0.27324072 -0.027584633 -0.11096347 0.08857327
0003e0 f7 a9 bb bd e1 b3 78 3e 5c c8 b1 3d 36 76 9f bd
       -0.091632776 0.24287368 0.08680794 -0.07786219
0003f0 bd f8 b7 ba be e4 f3 bd f2 a8 58 be 54 7f e3 bd
       -0.0014035922 -0.119088635 -0.21158198 -0.1110827

enc2.layer.1.weight f4 [32]
000000 5e 2f 85 3f 61 88 93 3f 81 35 8d 3f b5 b7 81 3f
       1.040508 1.1525995 1.1031953 1.0134188
000010 d7 c6 7d 3f 07 af 5b 3f b7 51 4e 3f 82 a9 9e 3f
       0.9913153 0.85813946 0.80593437 1.239548
000020 de 33 64 3f c5 ab 88 3f 10 25 53 3f d8 97 87 3f
       0.89141643 1.067742 0.8247843 1.0593214
000030 2e d4 52 3f 13 f6 8e 3f 1e 9d 75 3f a5 fa 80 3f
       0.8235501 1.1168846 0.95942867 1.0076491
000040 d5 cd 90 3f 65 12 70 3f 4a 42 5f 3f c7 1d 6f 3f
       1.1312815 0.9377807 0.87210524 0.9340481
000050 8b c2 66 3f 4d 71 9e 3f de 50 7c 3f 83 9a 80 3f
       0.901406 1.2378327 0.98560894 1.0047153
000060 76 58 87 3f 03 2b 64 3f d6 bd 60 3f 85 ee 7d 3f
       1.0573871 0.8912813 0.87789667 0.99192077
000070 b1 54 51 3f ad 6e 8c 3f 8e 6d 90 3f 27 3a 7a 3f
       0.81769854 1.0971276 1.1283433 0.97744983

enc2.layer.1.bias f4 [32]
000000 72 2a c1 3d 72 d0 96 3d 8f 0e d8 3c b5 83 de 3c
       0.09431924 0.073639765 0.02637413 0.027162412
000010 5c 61 94 3d ed 34 45 3d 36 37 15 bd 61 35 90 3e
       0.07245132 0.048146177 -0.036429606 0.28165725
000020 79 3d 4b bc 48 fd a5 3d c7 b9 65 bd c6 e0 db 3d
       -0.012404793 0.0810495 -0.056085374 0.107362315
000030 da 88 42 bd 4b 74 00 be 59 ad f9 bd ef 64 13 3d
       -0.047493793 -0.12544362 -0.121912666 0.03598493
000040 13 ca 0a 3e 3b 77 0d 3e a9 d1 a9 bd dd ae 0b bc
       0.13553648 0.13815014 -0.082919426 -0.008525577
000050 5d ba 0c bd e1 d1 43 3e 9c 03 0b 3e f8 d0 26 3e
       -0.034357417 0.19123031 0.13575596 0.16290653
000060 41 e1 fb bd fa 23 32 be 77 87 6c bd 54 ee 81 3b
       -0.12298823 -0.17396536 -0.057746377 0.0039651785
000070 81 a1 91 3b cc f9 4d bd c0 6a a3 3b dc 81 ce 3d
       0.0044443016 -0.050287053 0.004987091 0.100833625

enc2.layer.1.running_mean f4 [32]
000000 ef af 76 3e ea a6 59 be f9 80 d2 3d a9 de d5 3c
       0.24090551 -0.21255079 0.10278506 0.02610715
000010 21 46 1d 3e 25 db 8d b9 b6 3a b0 bd 9e ef 8f 3e
       0.15358783 -0.0002705689 -0.08604948 0.281125
000020 5a b6 7c be 3b 11 fa be e1 04 35 bc 8c a1 73 3e
       -0.24678937 -0.4884127 -0.0110485265 0.23792094
000030 86 6b 1a 3d 56 dd ec 3d d0 88 99 bc 41 00 32 3e
       0.0377002 0.11565654 -0.018741995 0.1738291
000040 be 71 0d bf 19 16 67 3e d9 2a 2d be ec e0 c6 3d
       -0.5525168 0.22567023 -0.16910876 0.09710869
000050 e2 bc 5f bd 86 c0 d4 3e 06 1a 9b bb ce 49 59 3e
       -0.054623492 0.41553134 -0.004733327 0.2121956
000060 50 a9 c8 3d 9f 97 40 3d f4 c5 bb 3d 90 18 4b 3c
       0.09797919 0.047019597 0.09168616 0.012395993
000070 95 b0 e0 3b d0 f0 85 3d 4d 6e 0a bf 8b 70 ca 3c
       0.0068569877 0.06540072 -0.54074556 0.024711868

enc2.layer.1.running_var f4 [32]
000000 e2 56 7b 3d 5e 31 25 3d dc d8 c5 3d a0 72 08 3c
       0.061362155 0.040330283 0.09660503 0.00832811
000010 d3 2d 4f 3d 43 4a 73 3b 2a c7 91 3d 00 40 1f 3e
       0.05058081 0.003712312 0.07118066 0.15551758
000020 ce 3c 66 3d 41 9f f2 3e 4d e0 53 3b b4 59 04 3e
       0.05621033 0.47387126 0.0032329739 0.12924844
000030 2e 00 8c 3b d5 a7 f5 3d ac f7 9f 3d f5 17 9c 3d
       0.0042724824 0.11994902 0.078109115 0.07621757
000040 a4 f4 20 3f ff 71 77 3d b7 91 dc 3c 82 5b 8a 3d
       0.6287329 0.06041145 0.026924951 0.06755735
000050 fe 95 12 3c 5e 28 a3 3e 96 78 ca 3b 46 25 df 3d
       0.008946894 0.31866735 0.0061789257 0.10895781
000060 9b 64 bd 3d 6c 26 c3 3c 87 c8 2c 3d 21 6e 62 3b
       0.092477046 0.023822032 0.042183425 0.0034550505
000070 0e 57 2a 3b e5 d1 fc 3c 9e d0 5a 3e 2c 70 ec 3b
       0.002599183 0.030861804 0.21368644 0.0072155204

enc2.layer.3.weight f4 [64, 32, 1, 1]
000000 c1 95 0a 3e ca 93 08 3d 8d 48 a1 be 06 04 d3 bd
       0.13533689 0.033344068 -0.31500664 -0.10303502
000010 65 63 23 3e ba 9e 2b 3d e0 00 41 bd 8c e8 13 3e
       0.15955885 0.04189942 -0.047119975 0.14444178
000020 f4 1c 99 bc 15 cf f2 bd fc 1b a5 3b 72 5b 80 bd
       -0.018690564 -0.11855904 0.0050387364 -0.06267442
000030 ab e7 c7 3d a3 9b 13 bd f7 04 bf 3d a6 50 87 3c
       0.09760984 -0.0360371 0.09327119 0.016517948
000040 47 ab 06 3e 8b 51 01 be f2 26 d3 3d 0b a7 25 be
       0.13151275 -0.12628762 0.103101626 -0.16177003
000050 1e 77 a8 bd 10 15 23 bd 16 cf f1 3d 2d 3c af bd
       -0.08225845 -0.03981501 0.11807077 -0.085563995
000060 98 58 d4 bc f3 37 7f be 39 a9 30 be 0a cc bf 3d
       -0.025921151 -0.24923687 -0.17252053 0.09365089
000070 6b 81 9a bc 27 10 14 be 6e d6 ae bc 1c af d2 3d
       -0.01886054 -0.14459287 -0.021342482 0.10287306
000080 38 f9 90 bd 5a 47 47 bd 86 ee bd be cf de fb 3c
       -0.07078785 -0.04865203 -0.3709604 0.030745892
000090 49 2b 4e bd f7 2f 8c bc 65 15 b4 bd c2 88 2e 3d
       -0.05033425 -0.017112715 -0.08793143 0.04261089
0000a0 8f aa fa 3b a9 50 1a 3b 5a ec 2f bc 9c 27 84 bc
       0.0076497267 0.0023546612 -0.010737503 -0.016132168
0000b0 48 ed a4 bd 64 9d 12 3d 79 5e 2f 3e ac e1 6e bd
       -0.0805307 0.03579463 0.17125882 -0.058320686
0000c0 25 6a 03 3e 87 f7 f8 bc d7 a6 b3 3d c3 f5 b1 bd
       0.1283346 -0.030391468 0.087720565 -0.086894535
0000d0 cd 5b 5b 3d ea bb a2 3d de 69 08 3d 8c f9 d7 3d
       0.053554345 0.07945998 0.033304088 0.10545644
0000e0 ba 15 41 3d 4f 6c ac bd 08 38 08 be 98 3a 83 3c
       0.04713986 -0.08419096 -0.13302624 0.01601915
0000f0 09 69 d8 3c af 3e 61 3e 11 5d ea bd 4e 7c 08 3d
       0.026417272 0.21996568 -0.11443532 0.03332167
000100 41 97 40 3d 08 5f 07 be 46 37 63 bd dc 7b ea 3d
       0.047019247 -0.13219845 -0.055472635 0.114494056
000110 ad 95 1c be 22 49 a5 3c 10 f4 06 be 30 ae 93 be
       -0.15291472 0.020176474 -0.1317904 -0.28843832
000120 ab 5e 49 3d 90 98 99 3c cb fc 00 be a1 c3 56 be
       0.049162548 0.018749505 -0.12596433 -0.20973064
000130 6c b3 17 bd 09 ec b1 3d 8f 5d 32 bc fa 15 20 bd
       -0.037036344 0.08687598 -0.010886564 -0.03908346
000140 c0 f2 0e 3b b2 44 1e be 15 75 9b bd d7 0b 1d 3e
       0.002181217 -0.15455893 -0.07590691 0.15336548
000150 6e 5d 8c bd 53 88 b9 be 5b 9e 23 bc 07 fa 15 be
       -0.06853758 -0.3623682 -0.009986485 -0.14646159
000160 42 1d ae 3d 6b 35 89 3d ea 61 58 bc aa 6e e2 bc
       0.08501674 0.06699642 -0.013206938 -0.02764066
000170 45 35 e8 bc 35 d4 9a bc b7 df 3a bd ca 18 39 3d
       -0.028345713 -0.018900016 -0.045623507 0.045189656
000180 fc c4 8e 3d 08 4e 98 bb 6d 92 69 bc 9b aa bb bd
       0.069711655 -0.004647974 -0.014256102 -0.091634
000190 2c 32 63 bd 15 48 b8 bd e1 f1 89 bd ce ed 32 be
       -0.05546777 -0.089981236 -0.06735588 -0.17473528
0001a0 69 29 31 be 76 83 83 3d 33 93 9f 3d 74 f7 39 be
       -0.17300953 0.064215586 0.07791748 -0.18160802
0001b0 f3 70 88 bc 5f b0 52 be 0f 17 04 3e 63 5f 1e be
       -0.01665542 -0.20575093 0.12899421 -0.15466075
0001c0 1d aa ce 3d ac 8a 1f bd 8b df 06 be c8 3b 8a 3d
       0.1009104 -0.038950607 -0.13171212 0.067496836
0001d0 a8 5c a4 bd 81 6b 9f be 76 93 48 3d c9 cf 91 be
       -0.08025485 -0.31136706 0.048968755 -0.2847884
0001e0 23 7f 9f be e1 93 95 bb c9 1a fc bd eb 91 62 bd
       -0.31151685 -0.0045647477 -0.12309796 -0.05531494
0001f0 5d 22 5c 3d e6 06 55 bd 21 4a b1 3d 0c ce 4b bd
       0.05374371 -0.052008532 0.08656717 -0.04975705
000200 e2 45 30 bd 4a d9 69 bd 6c 0d fb 3d 8e ce 56 bd
       -0.043035395 -0.05709199 0.122584194 -0.05244308
000210 f9 3f 4e bc 2c c1 a0 3d 3d a8 a5 3d cd 9b 70 be
       -0.012588494 0.078493446 0.080887295 -0.23496933
000220 fb 03 5c bc 5e b6 e2 3d 9d 6d 91 3d 08 17 bf 3c
       -0.013428683 0.1106994 0.07100985 0.023326412
000230 cd 42 56 be 49 de 40 bd c5 22 96 bb 53 09 5c be
       -0.2092392 -0.047086988 -0.0045817816 -0.21487932
000240 ae 73 08 be 73 0a ac bd 53 e4 ad bd 12 29 e0 bb
       -0.13325378 -0.084004305 -0.08490815 -0.0068408335
000250 b2 07 08 3e 22 18 5d be 2a 35 89 bc 0d 59 a8 bc
       0.13284186 -0.21591237 -0.016748983 -0.020550275
000260 f3 94 3b 3e 7e cb 8e 3d e5 6a 12 3e d4 e4 22 bd
       0.18318538 0.06972407 0.1429859 -0.03976901
000270 bb 2b d9 bd 7a 1a 38 3d ba e1 d9 bd 00 ca 8a bc
       -0.10604044 0.044947125 -0.10638757 -0.016942024
000280 9c c3 68 bd 6f 34 0f be 24 3e 01 be 1c 51 85 3d
       -0.056827173 -0.13984846 -0.12621361 0.06509611
000290 27 86 60 be d6 18 b1 bc 26 16 f3 bd b2 b7 75 be
       -0.21926175 -0.021618288 -0.11869459 -0.23995855
0002a0 46 ae d5 bd 48 1e d6 bd 05 84 6f 3d 41 54 12 be
       -0.10433631 -0.104549944 0.058475513 -0.14289953
0002b0 c5 e8 37 3d 41 f3 d2 bc 58 fb 3d 3e 26 fc e6 bd
       0.04489972 -0.025750758 0.18552911 -0.11278562
0002c0 5c 79 63 3e 19 ef 23 be 6b da 11 3d 16 d9 20 3e
       0.22214264 -0.16009177 0.03560869 0.15707812
0002d0 54 84 fc 3c 20 56 01 be bf 52 ab 3d fd da 13 be
       0.030824818 -0.1263051 0.08365392 -0.14439006
0002e0 55 78 bf bd c1 a4 3d bc c0 87 90 bd ff 77 80 3d
       -0.093491234 -0.011574925 -0.07057142 0.062728874
0002f0 05 90 e3 3c fb 95 72 bd 6f 89 88 3d 10 15 3b 3e
       0.027778635 -0.059225064 0.066668384 0.18269753
000300 02 18 81 be 7e 7a 5a 3e 9c 78 fe bd 16 0b 47 3d
       -0.2521363 0.2133579 -0.12425348 0.048594557
000310 b5 01 c7 3d 2f bc 11 3d 42 73 44 be 2f c7 4a 3e
       0.097171225 0.035579856 -0.19184592 0.19802545
000320 c8 5c c8 3d 06 1a e2 bd d2 7b b5 bd ca ef bf bd
       0.097833216 -0.1104012 -0.088615075 -0.09371908
000330 8a 47 50 3d b1 44 02 be f4 49 af 3c 5e 74 27 bd
       0.050849475 -0.12721516 0.021397568 -0.04088246
000340 1a 18 75 bd e8 f1 41 bd 43 da cf 3d c4 ac be bd
       -0.05983744 -0.04734984 0.10149052 -0.09310296
000350 61 b7 ca 3c dd 10 e9 3d a7 ce 02 be 39 03 75 3c
       0.024745645 0.113801695 -0.12774144 0.014954382
000360 b7 bc 10 bd 7d 3f 14 be 16 40 0e 3d 77 69 04 bd
       -0.035336222 -0.14477344 0.034729086 -0.03232714
000370 fb 34 bf bd fe f1 98 3d 3f 9d 87 3e 02 3b 78 bd
       -0.09336277 0.07468031 0.26487157 -0.06060315
000380 c8 af c4 3d 11 53 49 be 9c 4b 0c bb 41 9c 16 3d
       0.0960384 -0.19660594 -0.0021407371 0.03677011
000390 ad c2 70 bc 3d c2 b1 bd 42 8a 57 3d 27 f3 9c bc
       -0.014694852 -0.08679626 0.052622087 -0.019158913
0003a0 dd 02 78 be 49 0e 02 bd f9 fb 4f 3d 3b 31 7d 3d
       -0.24219842 -0.031751905 0.05077741 0.061814528
0003b0 70 cf bb bd ca 15 e5 3d 0d c9 e3 3d fc 8a b6 3c
       -0.09170425 0.111857966 0.11122332 0.02228307
0003c0 06 27 13 be 12 43 07 3e 45 bf 8c bb 21 23 06 bc
       -0.14370355 0.13209179 -0.004295262 -0.008187086
0003d0 3d 35 c6 bd d3 b5 87 bd 63 ef 57 bd af b2 8f bc
       -0.09678123 -0.06626477 -0.05271853 -0.017541258
0003e0 e1 1a da 3d 74 07 a9 3d e1 98 56 bd fd ee b5 39
       0.10649658 0.08253375 -0.05239189 0.0003470107
0003f0 d9 a0 88 3d 47 92 45 3e 07 3b 6f be ca 45 d9 bd
       0.06671304 0.19294082 -0.23362361 -0.10609014

enc2.layer.4.weight f4 [64]
000000 ea b8 fd 3e 69 5b 1b 3f 6d d3 40 3f 32 2b 07 3f
       0.4955514 0.60686356 0.7532261 0.52800286
000010 b2 10 3f 3f 12 20 24 3f 69 7b 1e 3f ae 7e 09 3f
       0.7463485 0.64111435 0.6190706 0.5370892
000020 3e fd 19 3f 77 4f 06 3f 26 f6 41 3f 38 ff 7c 3f
       0.6015204 0.52465004 0.7576622 0.9882693
000030 a7 67 42 3f 99 07 48 3f 60 03 2a 3f 84 c1 40 3f
       0.7593941 0.78136593 0.664114 0.7529528
000040 68 96 19 3f 05 c0 33 3f ba a3 24 3f 4f 85 2e 3f
       0.59995127 0.70214874 0.64312327 0.6817216
000050 68 7b 13 3f 0f 55 e4 3e e9 3f 0a 3f 1f 31 fb 3e
       0.5761018 0.44596145 0.5400377 0.49060914
000060 8b a6 44 3f 9b ae 04 3f 3c 19 3a 3f a6 1e 38 3f
       0.76816624 0.51828927 0.72694755 0.71921766
000070 39 ce 1c 3f 18 f6 13 3f ab d8 fe 3e ff 95 36 3f
       0.6125217 0.57797384 0.4977468 0.71322626
000080 a2 85 39 3f 27 a6 fc 3e 5b a1 36 3f 85 0d 08 3f
       0.7246953 0.49345514 0.7133996 0.5314563
000090 ef af 1f 3f 85 e7 1e 3f 42 bc 26 3f 32 73 3a 3f
       0.6237783 0.6207202 0.6513101 0.72832024
0000a0 c1 68 12 3f 87 dc 22 3f b9 a5 04 3f 9f 46 6b 3f
       0.5719109 0.6361775 0.5181537 0.91904634
0000b0 62 e9 04 3f df 5c 4a 3f 38 7f 68 3f 65 93 2c 3f
       0.51918614 0.7904796 0.9081912 0.67412406
0000c0 88 1b 22 3f b9 44 4a 3f 30 7f 14 3f 87 03 22 3f
       0.6332326 0.7901111 0.5800657 0.6328663
0000d0 56 ab 2e 3f 3a 91 40 3f 53 10 04 3f 45 10 e7 3e
       0.6823019 0.752216 0.5158741 0.451296
0000e0 18 08 32 3f 44 7f 59 3f 6a a5 20 3f ec c7 ee 3e
       0.695436 0.84959817 0.627524 0.46636903
0000f0 3f 4c 00 3f 11 dd 1a 3f df af 18 3f 96 68 44 3f
       0.5011634 0.6049357 0.5964336 0.76722085

enc2.layer.4.bias f4 [64]
000000 89 56 25 bd 98 f4 63 bd 04 09 10 3d 82 a2 12 be
       -0.04036573 -0.055653185 0.035164848 -0.14319804
000010 d5 33 a7 bd 3d e4 d0 bd 92 9a fb bd 94 45 fa be
       -0.08164183 -0.10199783 -0.12285341 -0.4888121
000020 90 18 f9 bd be a3 0c be e3 1b 85 bd 9e b3 7b 3d
       -0.12162888 -0.13734338 -0.064994596 0.061450593
000030 e8 78 a6 bd 5b 37 98 3c e2 55 86 be 51 0f 73 3d
       -0.0812853 0.018581083 -0.26237398 0.05934078
000040 10 c3 9b 3c a4 f6 4a bd 57 fe 6c be fc b8 85 bd
       0.019013911 -0.04955162 -0.23143898 -0.065294236
000050 a3 c4 66 bd 34 e4 8a be 55 26 63 be 66 dd 2a be
       -0.05633987 -0.2712723 -0.22182591 -0.1668602
000060 2b 5b f8 bd 74 dc 16 be 12 ec 9c bc 1e b9 0f 3d
       -0.12126764 -0.14732534 -0.019155536 0.03508865
000070 53 dd 27 be b2 13 5c be 02 f8 25 be 89 61 b9 bc
       -0.16393022 -0.21491888 -0.16207889 -0.022629516
000080 6c 29 ef bd 34 b6 2f be a6 7a cd bd de 4c f9 bd
       -0.116778225 -0.17159349 -0.10033159 -0.121728644
000090 83 ba 0e be 44 2d bc bc 93 e8 c3 3c 97 de c8 bd
       -0.13938336 -0.022970803 0.023914611 -0.09808081
0000a0 87 8a 16 be 8b 54 d1 bd 0c e0 61 be 50 b6 f0 3c
       -0.14701281 -0.102212034 -0.22058123 0.029383808
0000b0 2f 0f a5 bd cf ec f7 bd 8c 27 0f 3c 2a af 05 be
       -0.08059537 -0.121057145 0.008737456 -0.13055101
0000c0 6d f1 a4 bd ab e4 12 be 6d 8f d0 bc 78 bc 8d bd
       -0.08053861 -0.14345042 -0.025459016 -0.06920713
0000d0 8c a9 62 be 84 0b 0b bd 89 e2 6e bd 7c fe 59 bd
       -0.2213499 -0.03394653 -0.05832151 -0.05322121
0000e0 4f c7 2e be ee ab 04 bd 02 d3 90 bd 49 b6 41 bd
       -0.17068218 -0.032390527 -0.070714965 -0.04729298
0000f0 c5 0e 9d be 87 59 d9 bd c5 99 a3 3c df df 78 ba
       -0.3067533 -0.10612779 0.019970784 -0.00094938086

enc2.layer.4.running_mean f4 [64]
000000 6c f7 33 bd 05 41 02 bd 28 12 43 bf 00 07 4a bf
       -0.04393713 -0.03180029 -0.7619958 -0.7891693
000010 5a c3 ef be f8 de f1 be ec f0 29 3d 52 dc 94 be
       -0.4682873 -0.47240424 0.041489527 -0.2907434
000020 34 26 db bd c3 2b 1b bf 28 e2 a5 3e ea 32 97 3e
       -0.10700646 -0.6061365 0.32399106 0.29531032
000030 34 f2 d0 3e bd 5e 6d 3e 64 97 a6 3d 76 c6 f7 be
       0.40809786 0.23180671 0.08134344 -0.483936
000040 bb 15 8f be a1 8c 31 bd 90 58 1c be 04 03 ad bc
       -0.27946267 -0.043347005 -0.15268159 -0.021119602
000050 c9 62 c8 bd 2c 4e 46 3e c1 dd 1a bf 28 c4 d8 3e
       -0.09784467 0.19365758 -0.6049462 0.42337155
000060 3e 0c ff be 43 c9 fd be 9c 96 eb be 56 2a 3b 3d
       -0.49814028 -0.49567613 -0.46013343 0.04569467
000070 2c 5d ff be 5f 6d fd be 6f 22 fe be 36 ad 0a bf
       -0.49875772 -0.49497506 -0.49635646 -0.5417055
000080 00 a9 12 be 84 bf 4f 3f 6c 17 c6 be 00 96 ab be
       -0.14322281 0.81151605 -0.38689744 -0.33512878
000090 6b 4d 3a bd 1c 1a 14 bf 18 5b 08 3f 11 66 af 3d
       -0.045483988 -0.5785234 0.53264 0.085643895
0000a0 1d 04 93 be 38 04 fb be 04 d1 2a be d8 e5 e5 bd
       -0.28714076 -0.49026656 -0.16681296 -0.1122548
0000b0 98 dc 2f be b9 3f 51 be ea e9 86 3c df 8c 2d bf
       -0.17173994 -0.20434465 0.01646896 -0.6779308
0000c0 58 40 27 3e 7a fc 8c bb ac 06 69 be 38 35 45 bf
       0.16333139 -0.0043025585 -0.22756451 -0.7703433
0000d0 c8 2b a0 bd 34 6d 97 3d 5a 4b 18 3e 08 b4 4e 3e
       -0.078208506 0.07393876 0.14872494 0.20185864
0000e0 0a d4 42 bd 9d 12 21 3f 08 5d 42 bf 03 ed a9 bd
       -0.047565497 0.62919027 -0.75923204 -0.082971595
0000f0 66 d7 02 3f 24 8d d6 3e 93 3f 98 be c3 93 b9 3d
       0.5110992 0.41904557 -0.29736003 0.090613864

enc2.layer.4.running_var f4 [64]
000000 55 bf 04 3f 27 2b b3 3e e4 49 e6 3f c8 7a ba 3f
       0.5185445 0.3499386 1.79913 1.456872
000010 28 2b 50 3f 48 84 78 3f 50 7e 3f 3f a1 a1 b0 3e
       0.8131585 0.97076845 0.7480211 0.34498313
000020 76 88 83 3f 3e 0d a8 3f 8b a2 31 3f e6 19 9f 3f
       1.027602 1.3129041 0.69388646 1.2429779
000030 81 38 9c 3e 19 18 98 3f 59 89 42 3f 51 e4 e7 3f
       0.3051186 1.1882354 0.75990826 1.8116552
000040 9c 4f 48 3f 7e d1 44 3f 92 92 4f 3f bd 20 d5 3e
       0.78246474 0.7688216 0.81083024 0.4162654
000050 52 f0 5a 3f a6 cd 90 3e 25 44 f5 3f 6c c0 11 3f
       0.8552295 0.28281897 1.9161421 0.5693424
000060 4b 6f 65 3f 80 6e 80 3f 4d 83 85 3f d2 9f 5b 3f
       0.89622945 1.0033722 1.0430695 0.8579074
000070 16 e4 c3 3e 2f 6b 04 40 d0 86 43 3f 1b 53 d3 3f
       0.38259953 2.069042 0.7637758 1.6509737
000080 2a e6 e6 3e 0a fb 0e 3f b0 99 c8 3e bc 28 62 3e
       0.45097476 0.55851805 0.39179754 0.22085851
000090 72 ef dd 3e 02 b5 68 3f 40 48 40 3f cf 8a 0c 3f
       0.43346745 0.90901196 0.75110245 0.54899305
0000a0 7c 29 2a 3f 89 34 9f 3f e3 dd 2c 3e 8b c1 71 3f
       0.6646955 1.2437907 0.16881518 0.9443595
0000b0 54 72 ae 3e da 1b 13 3f 56 d8 0b 3f fe 9d d6 3f
       0.340716 0.57464373 0.5462698 1.6766965
0000c0 4e 78 52 3f 89 36 46 3f c7 40 7e 3f d5 1f 8d 3f
       0.8221482 0.77426964 0.9931759 1.1025339
0000d0 a2 5b 7f 3f ee 0a 80 3f 32 cb 8f 3f 2b 49 42 3f
       0.99749196 1.0003335 1.1233885 0.75892895
0000e0 ee 36 7d 3e a8 7e 42 3f a2 81 f8 3f 5c 70 3e 3f
       0.24727985 0.7597451 1.9414561 0.74390197
0000f0 03 55 45 3f a9 e1 34 3f 3b 23 24 3f ac 47 a3 3f
       0.7708284 0.7065683 0.6411626 1.2756248

enc3.layer.0.weight f4 [64, 1, 3, 3]
000000 1b 43 8c bd de 23 3f 3c c8 3a 73 be 89 a0 1a bd
       -0.06848737 0.011666266 -0.23752892 -0.037750755
000010 d3 75 98 bd df 4a 1e bd 32 0e c0 3e 14 57 94 be
       -0.07444348 -0.03864562 0.3751083 -0.28972685
000020 1d 41 a7 be f5 77 0d 3e f1 14 90 3e dd d9 24 3d
       -0.32666865 0.13815291 0.28140977 0.040246833
000030 46 f0 0c 3d 7c 95 04 bc 13 47 26 bd 90 a8 1c be
       0.03440883 -0.0080922805 -0.040595125 -0.15298676
000040 bd ed 90 be 4d ef 08 bd 37 a3 87 bd 2e 77 06 3b
       -0.2830638 -0.03343134 -0.06622928 0.0020517814
000050 4a 9e 3a bd b3 26 0b 3c 0e 7d a6 3b e6 a3 3a bd
       -0.045561112 0.008493113 0.0050808256 -0.045566462
000060 d7 e4 85 be 3e 32 1e be 4a d8 af be 15 b6 1e 39
       -0.26151153 -0.15448853 -0.34344703 0.00015135885
000070 26 ea 93 bd 8c 9e 5f 3e 63 70 58 3e 18 d0 ba 3e
       -0.07222395 0.21837825 0.21136622 0.36486888
000080 44 35 40 bd b7 d5 26 bd 48 2e 94 be 3e 32 22 3e
       -0.046925798 -0.040731158 -0.2894156 0.15839478
000090 ae 3b 8d 3e 5c f6 9f be 66 a3 1f 3e f5 e0 bd 3e
       0.27584594 -0.31242645 0.15589675 0.3708569
0000a0 cb e4 8d 3e 55 64 d8 bd 24 73 1d 3e af c3 89 be
       0.27713618 -0.10566012 0.15375954 -0.26907107
0000b0 b1 65 1b 3e 83 a0 4c 3c bb f8 0b 3d 6b a4 a5 be
       0.15175511 0.012489441 0.034172755 -0.32352003
0000c0 ed 44 50 3e 20 13 1e be f0 67 db bd d8 d9 2f bd
       0.20338793 -0.15436983 -0.10713184 -0.04293236
0000d0 11 17 56 3e 55 49 f3 3e fd 55 d4 be cd 78 9a 3d
       0.20907237 0.47516885 -0.41471854 0.07542572
0000e0 0f 9a 31 3e ec 02 86 bd 81 9e 0c be b2 94 1b be
       0.17343925 -0.06543526 -0.1373234 -0.15193442
0000f0 50 08 aa be 2e 42 d0 bd 26 bd bd be 02 14 f0 bc
       -0.33209467 -0.10168873 -0.3705837 -0.029306415
000100 eb 02 a9 3d 96 e1 95 bc 97 b9 68 be bd 4b 2a 3d
       0.0825251 -0.018296044 -0.22727047 0.041576136
000110 be 73 a8 3c 45 c0 6a 3e ff 86 cf 3e 83 c5 e3 3b
       0.020563003 0.22924908 0.4053268 0.0069510355
000120 26 28 24 be 45 9b 0c be c5 95 ed bd 26 b3 90 3d
       -0.1603094 -0.13731106 -0.11600832 0.0706542
000130 18 ee f0 3c a6 89 52 3e e8 64 7a 3e 30 6e 4f 3e
       0.029410407 0.20560321 0.24452555 0.20256877
000140 7e 7c 77 3e 6b 5e 30 be 90 32 64 bd 7c e6 f9 3d
       0.24168584 -0.17223518 -0.055712283 0.122021645
000150 0d bd ac be a1 90 3d 3e 3c 11 aa bd 15 a1 90 be
       -0.33737984 0.18512203 -0.083040684 -0.28247896
000160 f5 12 96 3d a1 ff 1a 3e 06 ea 00 3e 9e cc d3 be
       0.073278345 0.15136577 0.12589273 -0.41367048
000170 7e 6b d2 bc ea b3 1c bd 6f 9e be bc b7 75 58 3d
       -0.025686022 -0.038257517 -0.023268906 0.052846637
000180 65 49 82 3e 14 64 6f be 04 9d 8a bd 6e d4 86 3e
       0.2544662 -0.2337802 -0.067682296 0.26333946
000190 b2 73 5b 3e 13 5c 91 3e 90 3d fc 3d 9e 7a db 3d
       0.21430853 0.2839056 0.123164296 0.10716747
0001a0 fe d6 31 be 33 9b 96 3e 28 e7 55 3e db 26 6e 3b
       -0.1736717 0.29415283 0.2088896 0.0036339078
0001b0 96 65 b4 bd 88 76 d8 3d ba cb fb 3d f1 91 97 be
       -0.088084385 0.10569483 0.12294717 -0.29603532
0001c0 55 a7 16 be 05 d9 9a be 17 d5 97 bd 3f 74 4e 3e
       -0.1471227 -0.30243698 -0.074136905 0.20161532
0001d0 15 c5 0f 3e bf 29 87 bd e3 c6 51 3e 41 81 a8 3e
       0.14040025 -0.06599759 0.20486026 0.32911113
0001e0 22 cb 53 3e 8d fd 21 3e ba ea 01 3d e5 69 cd 3e
       0.20682958 0.15819378 0.031717993 0.40119854
0001f0 74 ec 78 3e 0c 7c 6b be 34 87 64 3e a9 53 16 3e
       0.2430895 -0.22996539 0.22317201 0.14680351
000200 d4 8f 67 3e c4 c3 05 be 46 88 b9 3d 4a e8 93 3d
       0.2261346 -0.1306296 0.09059195 0.0722204
000210 01 c3 1a 3e fb c1 55 3e ce ca c7 bd 11 7e 2d be
       0.1511345 0.20874779 -0.09755479 -0.16942622
000220 67 e2 13 be 9e ba dd bd 31 d4 92 bd 80 bc d9 3d
       -0.14441834 -0.1082661 -0.071693785 0.10631657
000230 7b de b7 bd c2 61 31 be 17 13 3d be cb c5 f9 bd
       -0.08977982 -0.17322448 -0.18464313 -0.12195929
000240 d1 7e a5 3e 19 2e 97 be f3 c0 4f 3e 42 69 c4 3e
       0.32323316 -0.29527357 0.20288448 0.38361555
000250 7a d3 52 be f9 41 a8 be 8d 63 18 3e 86 5f 54 be
       -0.20588484 -0.32862833 0.14881726 -0.20739564
000260 74 0f f1 3d c1 17 24 bd c1 95 e5 3d 2b 66 5f bd
       0.117705256 -0.040061716 0.11210204 -0.054540794
000270 d2 05 d6 3d 09 92 3e bd 1f 92 88 3d 5c 2c c0 3e
       0.10450329 -0.04652599 0.066684954 0.37533844
000280 66 73 9c 3e f0 02 f7 bd 6a c2 ec 3d 54 c5 d2 3d
       0.30556792 -0.12061107 0.11560519 0.102915436
000290 a6 42 82 3e 9b 19 ed bb a6 8b 7a 3e 4f 5d 4b 3e
       0.25441474 -0.0072357184 0.24467334 0.19859813
0002a0 e8 b4 6b bd f0 92 b2 bd 8f 2b 4f 3e de 3a 6e bd
       -0.057545573 -0.08719432 0.2023146 -0.05816161
0002b0 23 17 8a 3e 8e 48 43 3c b0 00 60 3d fd d0 93 be
       0.26970777 0.011919154 0.054688156 -0.28870383
0002c0 2c 47 7e be 8c 5d 8a 3e c9 fc 51 3d ef c2 67 bd
       -0.24831837 0.27024496 0.051266465 -0.056582388
0002d0 65 7b 98 3e 1d 65 ee bb 20 6f 36 bc 7c c2 85 3e
       0.29781643 -0.0072752372 -0.011134893 0.26124942
0002e0 ad 43 40 3c 95 46 34 3e 09 a1 07 be 92 90 af be
       0.011734885 0.1760505 -0.13245024 -0.34289986
0002f0 b9 8e d9 be 2e cc a3 bd cb de 13 3d 7b a8 b9 bd
       -0.424917 -0.079979286 0.036101144 -0.09065338
000300 1a e8 3a 3e 75 6b e3 3c 8d 99 4e 3e 54 dd 01 3e
       0.18252602 0.0277612 0.20175762 0.12682086
000310 1b ee 00 bd b7 42 1d 3e c6 65 41 bd 57 ef a4 bd
       -0.031477075 0.15357481 -0.0472162 -0.08053463
000320 f4 b0 30 3e 5d 91 93 3e f4 b8 10 3d cf dd 66 be
       0.17255002 0.2882184 0.035332635 -0.22545551
000330 11 11 b9 be 22 b2 3b be 59 2d b7 bc 48 b4 fd bd
       -0.36145833 -0.18329671 -0.02236049 -0.123879015
000340 8e 34 ef bc 5d 5d 62 be 76 df d8 bd 84 1b e7 bd
       -0.029199865 -0.22105928 -0.10589497 -0.11284545
000350 11 ef a0 3d cc 1e 93 3d aa 86 b0 3e 8e d2 5e 3c
       0.07858098 0.071836084 0.3447774 0.013600005
000360 74 e8 8a 3e 13 ab d7 3d c0 8b 2d 3e 95 e1 2c 3e
       0.27130473 0.10530677 0.16947842 0.16882928
000370 47 e5 ee 3d 8d 40 27 be eb 88 aa 3d a6 1b cc 3d
       0.11664825 -0.16333218 0.08326896 0.09966211
000380 45 f1 8f 3e 5e ac 73 be a2 1e 2b 3e 25 84 23 3e
       0.28113762 -0.23796222 0.16710904 0.15968378
000390 de f4 bd 3d 7c 2a 22 3d 18 00 e1 bc 06 d7 76 be
       0.0927522 0.039591298 -0.027465865 -0.24105462
0003a0 4c c7 31 be 5b 8f 27 3e d2 a8 eb be 2d ef 97 be
       -0.17361182 0.1636328 -0.46027237 -0.29674664
0003b0 10 a5 49 be d2 f7 05 be 92 ff b4 bd 11 71 20 be
       -0.19691873 -0.13082817 -0.08837809 -0.15668131
0003c0 9b 54 32 be 9b 47 15 be 15 a5 9b be 52 1c a9 3e
       -0.17415087 -0.14578097 -0.30399385 0.3302942
0003d0 23 0b 6b 3e ed fc a8 3d 82 12 d0 bd 03 42 6b 3d
       0.22953467 0.08251367 -0.1015978 0.057436
0003e0 ee d2 eb 3c 13 60 c8 3d 43 69 45 3e 6d 42 b2 3e
       0.028787103 0.0978395 0.19278435 0.34816304
0003f0 3a 9a 36 3e 2a 9c 1b 3e 10 db 80 3e 29 8f 32 bd
       0.1783227 0.1519629 0.2516713 -0.04359356

enc3.layer.1.weight f4 [64]
000000 8c 51 6f 3f 09 d8 75 3f 01 a9 7e 3f e2 8d 51 3f
       0.93483806 0.9603277 0.9947663 0.8185712
000010 07 f0 46 3f 77 ed 83 3f ed 11 80 3f b9 49 8e 3f
       0.7771 1.0306844 1.000547 1.1116248
000020 c4 7b 96 3f c9 f3 3e 3f 4e 1b 51 3f 65 fe 6b 3f
       1.175652 0.74590737 0.8168229 0.9218505
000030 33 90 67 3f a3 73 80 3f 34 ca 82 3f ce bf 93 3f
       0.90454406 1.003529 1.0217957 1.1542909
000040 2c 74 2b 3f d7 98 7d 3f 0e 68 85 3f a9 b4 62 3f
       0.6697414 0.9906134 1.042238 0.88556916
000050 84 f3 7a 3f c5 d3 78 3f d1 41 56 3f 06 ee 8d 3f
       0.98027825 0.97198135 0.8369418 1.1088264
000060 0f 98 69 3f cb 7c 49 3f e6 f9 90 3f 7b 4f 91 3f
       0.9124765 0.78706044 1.1326263 1.135238
000070 8f 28 95 3f aa ec 40 3f 2a 5a 77 3f a7 6d 7d 3f
       1.1653003 0.7536112 0.96621954 0.9899544
000080 7e 5b 93 3f e3 eb 77 3f ec d8 83 3f 49 a0 91 3f
       1.1512296 0.9684431 1.0300574 1.137704
000090 fc 1c 70 3f f3 b5 75 3f d2 12 6a 3f 72 26 50 3f
       0.93794227 0.9598076 0.9143497 0.8130866
0000a0 d6 cf 37 3f 1b 29 5c 3f 5a c5 c1 3f d1 b3 92 3f
       0.7180151 0.8600022 1.5138352 1.1461126
0000b0 61 6e 2d 3f f6 78 83 3f fd ec 77 3f 03 c4 75 3f
       0.6774655 1.0271289 0.9684599 0.96002215
0000c0 c4 ae 7b 3f 13 ed 60 3f 0a 78 7b 3f 92 e1 73 3f
       0.98313546 0.87861747 0.9823004 0.9526607
0000d0 b3 23 87 3f 13 c2 7e 3f b6 e5 63 3f 95 a9 8d 3f
       1.055777 0.99514884 0.89022386 1.1067377
0000e0 81 f3 43 3f cb 10 5f 3f 46 4d 51 3f 91 46 4b 3f
       0.7654343 0.87135 0.81758535 0.7940455
0000f0 f1 f4 5c 3f 5b ae 5b 3f b1 de 8b 3f 81 37 42 3f
       0.8631125 0.8581292 1.0927335 0.7586594

enc3.layer.1.bias f4 [64]
000000 2f f8 e5 3c 5b b9 cc 3b 4d 4a 16 bd 57 49 86 bd
       0.028072445 0.006247682 -0.036691952 -0.06556957
000010 34 bf 32 be 7a b3 c0 3c 13 80 36 3c 10 0b 5c be
       -0.1745575 0.023523081 0.011138934 -0.21488595
000020 24 ff d1 3c ff 59 1c be 15 31 ff bd 43 13 16 bd
       0.025634356 -0.15268706 -0.124605335 -0.036639463
000030 d9 3f b1 bd 5c be 19 3d 69 d5 95 bd 38 5b bd 3d
       -0.08654756 0.037535056 -0.073160954 0.09245914
000040 e7 99 3a be e0 90 32 3e a9 6d 1c 3c 0c f6 f6 b7
       -0.18222772 0.17438078 0.009547629 -2.944006e-05
000050 01 16 58 bc bc 20 1f be c8 11 09 3e 71 ec 0f be
       -0.01318884 -0.15539831 0.1338569 -0.14055039
000060 07 ba 0a be aa 1f 00 be 16 0f 70 3c b5 5a 03 3e
       -0.13547526 -0.12512079 0.014652034 0.1282757
000070 ef 92 8c 3e b7 3f e0 bd 1b e7 cd 3c 46 96 61 3d
       0.2745585 -0.10949653 0.025134614 0.055074953
000080 6e f9 44 3e c0 04 33 bd 9f ee 17 3e d9 8a 9b 3d
       0.19235775 -0.0437057 0.1483712 0.075948425
000090 98 1f b1 bd 72 79 5a 3d 4c e1 6f bd d8 a8 a5 bd
       -0.08648604 0.053338476 -0.05856447 -0.08088845
0000a0 ae b3 2a be 21 ba 77 bc c1 6c 17 3c 26 88 50 3e
       -0.16670105 -0.01512006 0.009242238 0.20364437
0000b0 7a 56 ad bd ce af 4a 3e 94 90 40 3d a1 20 78 bd
       -0.0846376 0.19793627 0.04701288 -0.060577992
0000c0 75 2f 1e 3c ee 70 0e be fc 78 9b bd 8d 1b b8 3c
       0.009654869 -0.13910267 -0.07591435 0.022474075
0000d0 ab bf 34 be 11 0f 6e 3d 20 24 0c 3c f0 04 f1 3d
       -0.1765124 0.058119837 0.008553535 0.1176852
0000e0 43 aa 59 be 7b 11 b0 bd f2 38 c0 bd ed 25 63 bc
       -0.21256356 -0.08597084 -0.093858615 -0.013864023
0000f0 ca 6e a4 bd b7 34 ac bd 0d 84 3c 3d 61 8c 39 bd
       -0.08028944 -0.08408492 0.04602437 -0.04529989

enc3.layer.1.running_mean f4 [64]
000000 16 5d 9d bd 89 96 5b bb 1d 0c 94 be 2e 23 80 3d
       -0.0768377 -0.0033506474 -0.28915492 0.0625671
000010 28 9e 26 3e 1d 31 69 3d 28 f0 8c be 71 46 f1 3c
       0.1627127 0.056931604 -0.27526975 0.029452534
000020 fb 36 c0 3d 30 91 47 bd 21 82 e2 bd 65 f0 15 3f
       0.09385487 -0.048722446 -0.11059976 0.5856994
000030 d7 29 c1 bd fa 4e dd 3e 40 4a f3 3d 16 ee aa be
       -0.094318084 0.43224317 0.118793964 -0.3338477
000040 f4 90 be 3c aa e5 2c 3e 10 79 d6 3d 54 1a c9 3a
       0.023262478 0.16884485 0.104723096 0.0015342929
000050 8b da 16 bd 5d 06 20 3d 9b 3b 11 bd 45 8d 3f bc
       -0.036829513 0.03906857 -0.035457235 -0.011691396
000060 fe ee 6a 3e a8 21 eb bb 83 04 0b bf 8a 8a db 3e
       0.22942731 -0.007175643 -0.5430376 0.42879134
000070 09 2f b7 3c 09 bd 76 bd 46 78 41 3d aa ad 76 be
       0.022361295 -0.06023887 0.047233842 -0.24089685
000080 ae 25 a0 3d 24 cd 3e be 46 75 5a be 46 8a a6 3b
       0.07819687 -0.18632942 -0.21333799 0.0050824014
000090 b1 44 05 3e 8c 19 6d be 94 53 57 be fc 06 fa bd
       0.13014485 -0.23154277 -0.21027976 -0.122083634
0000a0 c6 a9 21 bd 12 7a c6 bb fc fc e9 3b 4f cd fe 3e
       -0.03946855 -0.0060570324 0.007140754 0.49766013
0000b0 95 34 e7 bc 36 62 b3 bd 59 b7 bd 3b f2 ec c7 3b
       -0.028223315 -0.087589666 0.005789679 0.006101244
0000c0 fc 49 aa be c7 19 e2 3d 90 45 24 3e 34 a8 2a be
       -0.3325957 0.11040073 0.16042161 -0.16665727
0000d0 e1 cc 85 3d 51 40 c5 3e ea 3d a5 bd be 6b 6c be
       0.06533218 0.38525632 -0.0806845 -0.23087975
0000e0 d2 18 ba 3c b9 5a 8b be 13 c9 7a 3e 96 1e 27 3c
       0.022716913 -0.27217653 0.24490766 0.010200163
0000f0 3b e3 da 3d 77 2b 25 be 40 46 90 be b6 e0 0e bc
       0.10687872 -0.16129862 -0.28178596 -0.008720567

enc3.layer.1.running_var f4 [64]
000000 a5 8c c1 3b 75 61 b8 3c 2a 41 46 3d 93 af 87 3b
       0.0059066587 0.022507409 0.04840199 0.004140803
000010 f2 75 14 3d 8a 3f 54 3c 3b c6 1f 3e a4 de 17 3d
       0.036245294 0.012954602 0.15602963 0.03707756
000020 0c a0 2a 3d 4d 36 57 3b fa 0e 19 3d b4 9b 33 3f
       0.04165654 0.0032838762 0.0373678 0.7015946
000030 80 d0 43 3d 0e a3 c0 3e f8 5b 6d 3d 8a e1 72 3d
       0.047806263 0.376244 0.057949036 0.059297122
000040 f2 53 ee 3b be f0 66 3d 60 22 8d 3d 6f 59 98 3b
       0.0072731907 0.056381933 0.06891322 0.004649333
000050 3d 21 a9 3c 69 bf 94 3c 60 ab 89 3b 51 69 41 3c
       0.020645732 0.018157678 0.0042013377 0.011804895
000060 f9 97 69 3d 12 dc 7a 3b c2 81 30 3e 56 ea 8b 3e
       0.057029698 0.0038278145 0.17236999 0.27327222
000070 8e 65 90 3b 50 af af 3b 8a 69 7a 3b 41 48 13 3d
       0.0044066375 0.005361475 0.003820988 0.03595758
000080 ce b0 76 3d d2 69 b9 3d f8 45 96 3d c6 a6 62 3b
       0.060227208 0.09053387 0.07337564 0.0034584268
000090 a3 33 bc 3d ba ca 28 3d 56 5c bb 3d b8 fd 1b 3d
       0.091895364 0.04120896 0.09148471 0.038083762
0000a0 8b fa 1e 3b b6 cb e6 3b b9 17 ea 3b be 2f c6 3e
       0.0024258222 0.007043327 0.0071439412 0.387083
0000b0 8a b0 a3 3b 3e 41 98 3c b9 f4 06 3d a2 89 28 3c
       0.0049954103 0.018585797 0.03294823 0.0102867205
0000c0 9b 67 56 3e 5b d2 2d 3e b0 13 b5 3c 6d ff cf 3c
       0.2093796 0.16974775 0.022104114 0.025390351
0000d0 33 9f eb 3c e9 a2 86 3e 0f c8 c0 3c 70 9f b2 3d
       0.028762436 0.26296166 0.023532895 0.087218165
0000e0 23 80 88 3d 5c 3f 4f 3e 65 c5 32 3d f6 1f b9 3b
       0.06665065 0.20239013 0.04364528 0.005649562
0000f0 fc d8 1a 3d d8 56 aa 3d 7e ea 39 3d fc a9 b6 3c
       0.03780459 0.083173454 0.045389645 0.022297852
