trained_models/rough_sea.pth (torch, 210147 bytes, 72 tensors)

enc1.layer.0.weight f4 [3, 1, 3, 3]
0	0xbcaf5f72	-0.021407817
1	0x3e39a184	0.1812802
2	0x3e8acef5	0.2711102
3	0xbe02bffb	-0.12768547
4	0x3e0cada1	0.13738109
5	0xbdcbb34b	-0.09946307
6	0x3dbd47cb	0.09242209
7	0xbe340f48	-0.17583954
8	0xbeb20283	-0.3476754
9	0x3d5b12c3	0.05348469
10	0xbe50793d	-0.20358749
11	0x3e91e2d5	0.28493372
12	0xbd63c089	-0.055603538
13	0xbd9d6e80	-0.07687092
14	0xbf01c9bf	-0.50698465
15	0xbe472eb1	-0.19451405
16	0x3e2dd4cf	0.16975711
17	0xbd986f9e	-0.07443164
18	0xbe388dc7	-0.18022834
19	0xbe1da528	-0.15395033
20	0x3d604dc2	0.054761656
21	0xbe8f2f7b	-0.27965912
22	0x3dad2186	0.0845366
23	0x3e878ae0	0.2647314
24	0xbd864034	-0.065552145
25	0x3d4212cc	0.047381207
26	0x3e7e4830	0.24832225

enc1.layer.1.weight f4 [3]
0	0x3f81db0c	1.0144973
1	0x3f7ef740	0.99596024
2	0x3f71ca22	0.94449055

enc1.layer.1.bias f4 [3]
0	0x3cb6cc42	0.022314195
1	0x3e3a190a	0.18173614
2	0xbd25422b	-0.040346306

enc1.layer.1.running_mean f4 [3]
0	0x3bdf17a8	0.00680824
1	0x3da64909	0.08119399
2	0xbbd6af63	-0.0065516694

enc1.layer.1.running_var f4 [3]
0	0x3c0662af	0.008202239
1	0x3dac669c	0.08418009
2	0x3c2c032a	0.010498801

enc1.layer.3.weight f4 [32, 3, 1, 1]
0	0xbedea3c5	-0.4348432
1	0xbefcbd71	-0.49363282
2	0x3ec592d3	0.3858858
3	0xbefae997	-0.4900634
4	0x3ec3d22b	0.38246283
5	0xbe0ccd37	-0.13750158
6	0x3eef3a4a	0.4672416
7	0xbdbe69c5	-0.09297518
8	0xbe87a154	-0.2649027
9	0x3ebe177f	0.371273
10	0x3e19f84b	0.15036123
11	0xbe824882	-0.25445944
12	0x3ebd3484	0.3695413
13	0x3eff77f4	0.49896204
14	0x3e46f52e	0.19429466
15	0xbef32b50	-0.47493982
16	0x3ef3fc00	0.47653198
17	0xbddacd71	-0.10683716
18	0x3ee51dc6	0.44749278
19	0x3d980c71	0.07424248
20	0xbecfaf25	-0.40563312
21	0x3e1b2515	0.15150864
22	0x3f0df32a	0.55449164
23	0xbea43a8e	-0.32075924
24	0xbe87f7d8	-0.26556277
25	0xbec9f0ca	-0.3944152
26	0x3ef937f2	0.48675495
27	0xbd7a6647	-0.061132696
28	0x3e8b09b4	0.2715584
29	0xbe86a0f5	-0.26294675
30	0x3f1337ba	0.57506907
31	0xbe8bc3b5	-0.2729775
32	0x3d9678f2	0.07347287
33	0xbed5674e	-0.41680378
34	0x3eba4f3d	0.3638858
35	0x3f00622c	0.501498
36	0x3e8c300e	0.27380413
37	0x3cdb5347	0.026773108
38	0xbeee0fff	-0.4649658
39	0x3ed386fc	0.41313922
40	0xbee34ccb	-0.44394526
41	0x3e975b35	0.29561773
42	0x3e06036b	0.13087241
43	0xbd8d8ad1	-0.06911243
44	0x3e8fcb11	0.28084615
45	0x3ef3f46a	0.4764741
46	0xbb668bd3	-0.0035178557
47	0xbec10ef5	-0.37706724
48	0xbee0498c	-0.43806112
49	0xbf0d4db0	-0.55196667
50	0x3dce7ce3	0.10082414
51	0x3ef2ee48	0.4744742
52	0x3e85b374	0.26113474
53	0xbc6bbb0a	-0.014387855
54	0x3ec1a6fe	0.37822717
55	0xbe858a86	-0.26082247
56	0x3d9503a9	0.07276089
57	0x3cfb4564	0.030672736
58	0xbc33d3ca	-0.010975787
59	0xbe01ea11	-0.12686945
60	0x3e91d3a1	0.28481773
61	0x3e7444c1	0.23854353
62	0xbda062b1	-0.07831324
63	0xbec2ac69	-0.38022164
64	0xbf036ebe	-0.51340854
65	0xbbf6e650	-0.0075347796
66	0xbed1a87d	-0.4094886
67	0x3d18cc3e	0.037304156
68	0x3ea643a9	0.32473496
69	0x3ed7bd19	0.42136458
70	0xbda96f39	-0.08273167
71	0x3ee465cb	0.44608912
72	0x3e9e8a75	0.3096501
73	0xbf1c0d61	-0.60957915
74	0x3ec9d929	0.39423493
75	0xbc51af2f	-0.012798115
76	0xbe0dfdee	-0.13866398
77	0xbe6568a8	-0.22403204
78	0xbeb5ce20	-0.35508823
79	0xbf3a84cc	-0.7285888
80	0xbe28d698	-0.16488111
81	0x3f00db59	0.503347
82	0x3e8dcb12	0.27693993
83	0x3e05dcb0	0.13072467
84	0xbe1732b6	-0.14765438
85	0xbef710ef	-0.48255107
86	0x3ef94597	0.48685905
87	0xbe93cdb9	-0.2886789
88	0xbee5df6b	-0.44897017
89	0x3dfce0ca	0.123475626
90	0x3e2782ff	0.16358565
91	0x3ddd2c8a	0.10799511
92	0xbeda55a8	-0.42643476
93	0x3db39e8d	0.087704755
94	0x3ee816b9	0.45329836
95	0xbf21107d	-0.62915784

enc1.layer.4.weight f4 [32]
0	0x3f49380f	0.78601164
1	0x3f8d6233	1.1045593
2	0x3f35277c	0.70763373
3	0x3f8012bf	1.0005721
4	0x3f2c28cf	0.6724977
5	0x3f68dff7	0.90966743
6	0x3f761f88	0.9614186
7	0x3f6d82dd	0.92777807
8	0x3f7bed2f	0.9840879
9	0x3f58d6f1	0.84702975
10	0x3f48eedc	0.7848947
11	0x3f3e8ef3	0.74436873
12	0x3f78ad76	0.9713968
13	0x3f393d00	0.72358704
14	0x3f022da3	0.50850886
15	0x3f64fc48	0.8944745
16	0x3f0906fa	0.5352627
17	0x3f673cfc	0.9032743
18	0x3f7a9ac6	0.97892416
19	0x3f3814ba	0.71906626
20	0x3f5a36e4	0.85240006
21	0x3f601e55	0.87546283
22	0x3f455e04	0.7709658
23	0x3f232205	0.63723785
24	0x3f1bd0ad	0.6086529
25	0x3f1982a5	0.5996497
26	0x3f741ef8	0.95359755
27	0x3f539bcc	0.826596
28	0x3f598bdd	0.8497904
29	0x3f66a169	0.9009004
30	0x3f31195b	0.69179314
31	0x3f672ad8	0.9029975

enc1.layer.4.bias f4 [32]
0	0xbd93557f	-0.071940415
1	0x3da37d3a	0.079828694
2	0xbe0c79e5	-0.13718374
3	0x3da65482	0.08121587
4	0xbd974606	-0.07386403
5	0x3999f4af	0.00029364738
6	0x3d9c57c0	0.076339245
7	0xbd01a327	-0.031649735
8	0xbd800760	-0.06251407
9	0xbde59457	-0.11209934
10	0xbe82c47c	-0.2554053
11	0x3a257d77	0.0006312946
12	0x3d0b17d7	0.033958282
13	0xbe8c3808	-0.27386498
14	0xbdf5958d	-0.11991415
15	0xbcaff1ce	-0.021477606
16	0x3daa25c8	0.083079875
17	0xbc27c70d	-0.0102403285
18	0xbde4a680	-0.1116457
19	0xbdfb949b	-0.122842036
20	0x3d2914b9	0.04127953
21	0xbc6d1758	-0.014470898
22	0x3e17f5bb	0.14839832
23	0xbdefcfce	-0.117095575
24	0xbdc445ef	-0.09583651
25	0xbdf040d8	-0.11731118
26	0x3d60cc1c	0.054882154
27	0xbdabe9c0	-0.08394194
28	0x3d6d28b7	0.057900157
29	0xbd6d4f0d	-0.057936717
30	0xbe0b1825	-0.13583429
31	0xbd0d6f36	-0.034529887

enc1.layer.4.running_mean f4 [32]
0	0xbe9f848e	-0.3115582
1	0xbc869097	-0.016426368
2	0x3d5d4f6e	0.05403083
3	0x3e16ccc9	0.14726557
4	0x3ee05a3d	0.43818846
5	0x3d3bafcb	0.045821946
6	0x3dc8776a	0.097884014
7	0x3e842719	0.2581108
8	0xbe34fdc4	-0.17674929
9	0x3d4d1b6b	0.050074976
10	0x3db027c2	0.08601333
11	0x3e26d5c8	0.16292489
12	0xbb13e06f	-0.0022564193
13	0xbb9e549e	-0.0048318645
14	0x3da7f121	0.082002886
15	0x3d99934b	0.07498797
16	0xbed4b314	-0.41542876
17	0x3e9a8893	0.30182323
18	0x3cb32e2f	0.021872608
19	0xbcdb6eed	-0.026786292
20	0x3e5298cc	0.205661
21	0xbece3aca	-0.40279227
22	0xbd42db51	-0.047572438
23	0x3e625ad8	0.22104967
24	0xbdd1238e	-0.1021186
25	0xbe076aee	-0.13224384
26	0xbf0b40e7	-0.5439591
27	0x3eb6caa2	0.35701472
28	0xbe381fb8	-0.1798085
29	0xbe9b9535	-0.30387273
30	0x3bf7a705	0.007557752
31	0x3ddafdd7	0.10692947

enc1.layer.4.running_var f4 [32]
0	0x3ea23d6d	0.3168749
1	0x3dc79a25	0.097461976
2	0x3de1d8f1	0.110277064
3	0x3dee16f3	0.11625471
4	0x3e3e83f8	0.1860503
5	0x3ddc8201	0.10766984
6	0x3e309406	0.17243966
7	0x3e540d06	0.20708093
8	0x3e7302a6	0.23731479
9	0x3d626700	0.05527401
10	0x3de006d9	0.10938806
11	0x3e22e865	0.15908964
12	0x3dffc731	0.124891646
13	0x3df35879	0.11882109
14	0x3d07cd72	0.033154912
15	0x3e21e75a	0.1581091
16	0x3e888dcd	0.26670685
17	0x3e183bb4	0.14866525
18	0x3d57569a	0.052572824
19	0x3bd110fb	0.006380198
20	0x3da051be	0.07828091
21	0x3e5140f4	0.20434934
22	0x3de5a372	0.11212815
23	0x3df3115e	0.11868547
24	0x3e4182f2	0.18897608
25	0x3cacde96	0.021102231
26	0x3e9895fd	0.29801932
27	0x3e24623a	0.16053095
28	0x3e71585f	0.23568867
29	0x3e20de74	0.15709859
30	0x3dcabd9a	0.09899445
31	0x3e8c5c93	0.2741438

enc2.layer.0.weight f4 [32, 1, 3, 3]
0	0x3e10579f	0.14095925
1	0x3e312557	0.172994
2	0xbeb4b88e	-0.35297054
3	0xbe58b67a	-0.2116336
4	0xbdf0a6e6	-0.11750583
5	0x3b93d382	0.0045112977
6	0xbe8b1d8a	-0.27170974
7	0x3e57e9b8	0.2108525
8	0xbe5a7aee	-0.21335956
9	0xbe44e2a3	-0.1922708
10	0x3d01f346	0.031726144
11	0x3dae620c	0.08514795
12	0x3e6641f7	0.22486101
13	0x3e7662b6	0.24061093
14	0xbe257cf5	-0.16160949
15	0x3e6f9a3a	0.23398677
16	0x3db6f9a4	0.08934334
17	0xbec1f305	-0.37880722
18	0xbdc53c87	-0.09630685
19	0xbcba7dd1	-0.022765072
20	0x3e80e17e	0.25172037
21	0x3d9bb693	0.07603183
22	0xbe86b0b8	-0.263067
23	0xbe445ac4	-0.1917525
24	0x3e13b6cd	0.14425202
25	0xbdf6d64d	-0.120525934
26	0xbe39eb14	-0.18156081
27	0xbe874cb2	-0.264257
28	0xbda925d3	-0.082591675
29	0xbe5ff3cd	-0.21870346
30	0xbdaf7d82	-0.085688606
31	0xbdbd6c52	-0.09249176
32	0xbe39cbb0	-0.18144107
33	0xbe6cbc81	-0.23118784
34	0xbed3d4e8	-0.41373372
35	0xbe399e8e	-0.1812689
36	0xbeb1b01c	-0.34704673
37	0x3e0c3f6f	0.13696073
38	0xbe3733eb	-0.17890899
39	0x3e0187ea	0.12649503
40	0x3e79e292	0.24402836
41	0x3e4d4b1a	0.2004818
42	0x3ced10c4	0.028938659
43	0x3e43aecd	0.1910965
44	0xbe47e660	-0.19521475
45	0xbe7395ea	-0.23787656
46	0xbe70807f	-0.23486517
47	0xbd11a7d8	-0.03556046
48	0x3e7a3d6a	0.2443749
49	0x3e278e2f	0.16362832
50	0x3e225cf7	0.15855776
51	0xbe517e57	-0.20458351
52	0xbca8fdc9	-0.020628827
53	0x3e7fa455	0.24965031
54	0x3dcd015d	0.10010026
55	0x3e4146f7	0.18874727
56	0x3e2866db	0.16445486
57	0x3dac13f9	0.08402247
58	0xbd1e70ea	-0.038681902
59	0x3e558aad	0.20853682
60	0xbe4899d1	-0.19589926
61	0xbe764ea9	-0.24053444
62	0xbe8e0940	-0.27741432
63	0x3dc30f83	0.09524443
64	0x3ea5e0cb	0.32398066
65	0x3e3f1fab	0.18664424
66	0x3e92113b	0.2852877
67	0x3e39bfb8	0.18139541
68	0xbdfe4639	-0.12415738
69	0x3e940947	0.28913328
70	0xbdd7a411	-0.1052934
71	0xbe55ed34	-0.20891267
72	0x3ea1ab74	0.3157612
73	0x3e748c10	0.23881555
74	0xbe934fef	-0.28771922
75	0xbd1f4710	-0.03888613
76	0xbd605859	-0.054771755
77	0xbe05a701	-0.13051988
78	0x3cbd5fb9	0.023116933
79	0xbe4f3283	-0.20234112
80	0xbd7576e4	-0.059927836
81	0x3db57b8e	0.08861457
82	0xbdbe08d5	-0.09279028
83	0x3e277ece	0.16356966
84	0x3e957c35	0.29196325
85	0xbc812ce4	-0.015768476
86	0xbd95a3e6	-0.07306652
87	0x3eb562b5	0.3542687
88	0x3e273dd0	0.16332173
89	0xbdbbdb00	-0.0917263
90	0xbd297fea	-0.041381754
91	0x3ec3b6f9	0.38225535
92	0x3e28ffbb	0.16503803
93	0xbe0b5ea2	-0.13610318
94	0xbd86a08c	-0.06573591
95	0x3e7148f5	0.23562987
96	0x3e3567c3	0.17715363
97	0x3c8f963e	0.017527696
98	0xbe691285	-0.22760971
99	0xbe6781ed	-0.22608157
100	0x3e8aa3fa	0.2707823
101	0x3dc1a967	0.09456139
102	0x3cab79c3	0.020932084
103	0xbd042946	-0.032265924
104	0x3ebfc716	0.37456578
105	0xbd0f0868	-0.034920126
106	0x3e395b77	0.18101297
107	0x3cdbe3d8	0.026842043
108	0xbda93130	-0.08261335
109	0xbe23d672	-0.15999773
110	0xbe063a91	-0.13108279
111	0xbe181f17	-0.1485561
112	0xbdf59cbd	-0.11992786
113	0x3e73a288	0.2379247
114	0x3e357084	0.17718703
115	0x3e5bef95	0.21478112
116	0x3e4d96d5	0.20077069
117	0x3e86f43f	0.2635822
118	0x3e447164	0.1918388
119	0xbd3eb00b	-0.046554606
120	0x3e86b61b	0.2631081
121	0xbc5ae0ec	-0.01335929
122	0xbe612691	-0.21987368
123	0x3e35cd2f	0.17754053
124	0x3ea4a2ca	0.32155448
125	0xbe0d0f16	-0.13775286
126	0x3c3f48bb	0.011675055
127	0xbdf71b14	-0.120657116
128	0x3d93ddf9	0.07220072
129	0x3ecd9779	0.40154627
130	0x3e8455f4	0.25846827
131	0x3e82df8f	0.25561187
132	0x3de220a4	0.11041382
133	0xbd945efc	-0.07244679
134	0x3dded3c2	0.10880233
135	0x3df14303	0.117803596
136	0x3eb2c181	0.34913257
137	0x3e1d1ee7	0.1534382
138	0x3d27980a	0.04091648
139	0xbe062d5e	-0.13103244
140	0xbce7faa2	-0.028317753
141	0x3d21f49a	0.03953991
142	0xbe3f3a94	-0.1867469
143	0xbe989bec	-0.2980646
144	0x3e110043	0.14160256
145	0x3d68ede9	0.056867514
146	0x3d936e01	0.07198716
147	0x3e51b151	0.20477797
148	0xbec86c76	-0.3914525
149	0xbd3c6967	-0.045998957
150	0xbeabf02f	-0.33581683
151	0xbe967070	-0.29382658
152	0xbd44d26f	-0.048052248
153	0xbd00cac4	-0.031443372
154	0xbdb5ab78	-0.08870596
155	0x3dfa2e9e	0.12215923
156	0xbd80952e	-0.06278454
157	0x3ea384ff	0.31937405
158	0x3d9f7962	0.07786824
159	0x3e402a1a	0.1876606
160	0x3da7b9ab	0.0818971
161	0x3d9b6136	0.07586901
162	0x3d88da70	0.06682289
163	0xbdd59e8d	-0.10430632
164	0x3e40fea6	0.1884714
165	0x3e811695	0.2521254
166	0x3e5cd8c9	0.21567072
167	0x3e99c643	0.30034074
168	0x3df9844e	0.12183438
169	0xbca9187d	-0.02064156
170	0xbe4140e6	-0.18872413
171	0xbe3926d5	-0.1808122
172	0xbea51f27	-0.3225033
173	0x3d8e9d23	0.06963565
174	0xbeb1f4a3	-0.34756956
175	0xbd253d13	-0.040341448
176	0xbebb455c	-0.36576355
177	0xbdef5fef	-0.1168822
178	0xbe61f551	-0.22066237
179	0x3d516f9e	0.051131837
180	0xbe1a2508	-0.15053189
181	0x3d7e048b	0.06201605
182	0x3d85b7ee	0.065292224
183	0xbd2bc682	-0.04193736
184	0xbd4090fe	-0.047013275
185	0xbeb8dab8	-0.3610437
186	0x3c950f28	0.018195704
187	0x3e56df3b	0.20983593
188	0xbe5dfbaa	-0.21678033
189	0x3e0115d3	0.12605982
190	0xbe184c16	-0.14872774
191	0xbe9cfc10	-0.30661058
192	0x3cdd453c	0.027010553
193	0x3e58b68a	0.21163383
194	0xbd3c485f	-0.045967456
195	0xbe7f58d8	-0.24936235
196	0xbe932c30	-0.2874465
197	0xbe477d79	-0.19481458
198	0x3cee71a6	0.029106926
199	0xbe6ff064	-0.23431545
200	0xbe78bc7b	-0.2429065
201	0xbe881c0c	-0.26583898
202	0xbe589b18	-0.21152914
203	0x3cdf8f73	0.027290082
204	0xbe858828	-0.2608044
205	0xbdb55785	-0.08854584
206	0x3dca52d2	0.09879078
207	0x3d7da060	0.061920524
208	0xbd84d2ad	-0.06485496
209	0xbe32c815	-0.17459138
210	0x3c504454	0.012711603
211	0x3bb23cdf	0.0054393853
212	0xbe072c44	-0.1320048
213	0x3ebcef1e	0.36901182
214	0x3e276099	0.16345443
215	0x3cfc62f9	0.030808913
216	0x3ea5d21e	0.3238687
217	0x3ea91ec1	0.33031276
218	0x3e71eedb	0.23626272
219	0x3d464653	0.04840691
220	0x3d8e4af2	0.069478884
221	0x3e5ae906	0.21377954
222	0x3e7052fa	0.23469153
223	0xbe349192	-0.17633656
224	0xbc8d04aa	-0.017214138
225	0xbe7b37c3	-0.2453299
226	0xbe2beda9	-0.16789879
227	0x3d701c27	0.0586206
228	0x3e266e85	0.16253097
229	0x3db59987	0.08867174
230	0xbdb53f4d	-0.08849964
231	0xbc7076b1	-0.014676736
232	0x3e80ac61	0.25131515
233	0x3a87f0b6	0.001037142
234	0x3d2c4b1b	0.042063814
235	0x3d3e2f6a	0.046431936
236	0x3e9e6b81	0.30941394
237	0xbde6b43a	-0.11264844
238	0xbdd3c4db	-0.103402816
239	0x3e58e3e8	0.2118069
240	0xbe66e250	-0.22547269
241	0x3e1e8178	0.15479076
242	0x3dc47dc7	0.095943026
243	0x3d077bea	0.033077158
244	0xbe021f58	-0.12707269
245	0x3e02300c	0.12713641
246	0x3dff1d4e	0.12456761
247	0x3de04c10	0.10952008
248	0xbcfc5348	-0.03080143
249	0x3dd943f5	0.10608665
250	0x3e250c33	0.16117935
251	0x3ec173c0	0.37783623
252	0xbd61ac18	-0.055095762
253	0x3d0daab1	0.034586612
254	0xbdc32eb8	-0.09530395
255	0xbbe97127	-0.0071240845

enc2.layer.1.weight f4 [32]
0	0x3f74ebe8	0.95672464
1	0x3f7f6e48	0.9977765
2	0x3f72512c	0.9465511
3	0x3f8370de	1.0268819
4	0x3f769105	0.9631503
5	0x3f7c9b02	0.98674023
6	0x3f8f0d7c	1.117599
7	0x3f8123bc	1.008903
8	0x3f78bd4f	0.9716386
9	0x3f7b207d	0.9809645
10	0x3f82a3f9	1.020629
11	0x3f752c3c	0.9577062
12	0x3f8d53c5	1.104119
13	0x3f83cec1	1.0297471
14	0x3f839da5	1.0282484
15	0x3f838899	1.0276061
16	0x3f80aaf4	1.0052171
17	0x3f7d6865	0.9898742
18	0x3f81fc28	1.0155077
19	0x3f776f49	0.9665418
20	0x3f735fbf	0.9506797
21	0x3f835f69	1.0263492
22	0x3f59a0db	0.8501107
23	0x3f811686	1.0084999
24	0x3f7b90be	0.98267734
25	0x3f727c16	0.9472059
26	0x3f6dda37	0.92911094
27	0x3f80ffa1	1.0078012
28	0x3f7b031e	0.9805163
29	0x3f858028	1.0429735
30	0x3f80cd71	1.0062696
31	0x3f79f6ed	0.97642404

enc2.layer.1.bias f4 [32]
0	0xbd80ea5b	-0.062947
1	0x3d37a55d	0.044835437
2	0xbd82a372	-0.06378831
3	0x3cbee957	0.023304624
4	0x3ca07895	0.019588748
5	0x3d0a0190	0.033692896
6	0x3e608d21	0.21928836
7	0x3bda395e	0.0066596707
8	0xbd802bd5	-0.0625836
9	0xbd8d10bb	-0.06887957
10	0xbc0d01c5	-0.008606379
11	0x3cea3a74	0.028592326
12	0x3d323076	0.043503247
13	0x3d845c16	0.064628765
14	0x3e07113b	0.13190167
15	0x3da72505	0.08161358
16	0x3d4ccff9	0.050003026
17	0x3c9b8240	0.018983006
18	0x3d51ec60	0.051250815
19	0xbb852639	-0.0040633944
20	0x3d352d13	0.04423244
21	0x3d84bfb6	0.064818785
22	0xbde88d11	-0.11355031
23	0x3babf714	0.00524796
24	0x3bc77202	0.006086589
25	0x3d9f12e6	0.077672765
26	0x3cafeee5	0.021476218
27	0x3d1b4148	0.037904054
28	0xbd1ecd9f	-0.038770314
29	0xbc56e0ea	-0.013115147
30	0x3da9e9de	0.0829656
31	0x3bf7c280	0.007561028

enc2.layer.1.running_mean f4 [32]
0	0xbe2f324e	-0.17109033
1	0x3d84414c	0.06457767
2	0xbd8fc084	-0.07019141
3	0xbf31d145	-0.69459945
4	0x3d4ac09a	0.049500085
5	0x3cc6cb8e	0.024266984
6	0xbbb6e8ca	-0.00558195
7	0x3ea9c64a	0.33159095
8	0xbd849237	-0.06473201
9	0x3e4ce812	0.20010403
10	0x3dabdcdb	0.08391734
11	0x3e15e79e	0.14639136
12	0x3d748fab	0.059707325
13	0x3df01b96	0.117240116
14	0x3dfe3f96	0.12414472
15	0x3c924ee3	0.017859882
16	0xbe2cec07	-0.16886912
17	0x3e70a1b8	0.23499191
18	0x3e4caf6c	0.19988793
19	0xbe2bcf28	-0.16778243
20	0xbe25cc8d	-0.16191311
21	0xbe9cb802	-0.30609137
22	0xbec2a6f8	-0.38018012
23	0x3d3da427	0.046299126
24	0x3e6298c0	0.22128582
25	0x3b870fb4	0.004121745
26	0x3e3bbf0c	0.18334597
27	0x3e7fbede	0.24975154
28	0x3e83d371	0.25747254
29	0xbea6d3be	-0.3258342
30	0xbdd85e59	-0.105648704
31	0xbea954bb	-0.33072457

enc2.layer.1.running_var f4 [32]
0	0x3d7dc77c	0.06195782
1	0x3d3d76a2	0.046255715
2	0x3d60cca0	0.054882646
3	0x3f3b05ba	0.73055613
4	0x3d0fe822	0.03513349
5	0x3d036006	0.032073997
6	0x3e24186a	0.16024938
7	0x3e6dee10	0.23235345
8	0x3def5432	0.11685981
9	0x3db12842	0.08650257
10	0x3e0310b3	0.12799339
11	0x3de67de6	0.11254482
12	0x3d9d55a6	0.07682352
13	0x3de7ecd6	0.1132447
14	0x3db20e9d	0.086941935
15	0x3e0f2682	0.13979533
16	0x3cfbc599	0.03073387
17	0x3e0c87fe	0.13723752
18	0x3e8e2066	0.27759093
19	0x3ccc32f6	0.024926644
20	0x3da1e9c8	0.07905918
21	0x3dad9b90	0.08476937
22	0x3e2c7eee	0.16845295
23	0x3d820e48	0.0635038
24	0x3ddb2cf8	0.107019365
25	0x3b0758d8	0.002065232
26	0x3d2dcf4a	0.042434014
27	0x3e2d21e7	0.16907464
28	0x3e0b670a	0.13613525
29	0x3dcb26aa	0.09919484
30	0x3ccc6098	0.024948403
31	0x3e3d9848	0.18515122

enc2.layer.3.weight f4 [64, 32, 1, 1]
0	0x3d26c55b	0.040715557
1	0x3e2690a5	0.16266115
2	0xbdf149b8	-0.11781639
3	0x3e0ce11a	0.13757744
4	0x3d6a389c	0.057182893
5	0x3ded8617	0.11597841
6	0x3e1c2259	0.15247478
7	0x3e00f846	0.12594709
8	0xbe1288c8	-0.1430999
9	0x3e40fccc	0.18846434
10	0xbe094aa1	-0.13407375
11	0x3d346aee	0.04404729
12	0xbdda61b6	-0.10663168
13	0xbdb3248d	-0.08747206
14	0x3dbed9ce	0.09318887
15	0xbcb9d205	-0.022683153
16	0x3d92e020	0.07171655
17	0x3dd4aa7a	0.10384078
18	0xbdaa7d3d	-0.083246686
19	0x3d69efaf	0.057113346
20	0xbc522785	-0.012826805
21	0x3d2bab28	0.041911274
22	0xbdb5413a	-0.088503316
23	0xbe1264d9	-0.14296283
24	0xbe66c82c	-0.22537297
25	0x3cb58b36	0.022161108
26	0xbe425348	-0.18977082
27	0xbb28581d	-0.0025687285
28	0xbb0c6413	-0.0021421954
29	0xbd2de86d	-0.042457987
30	0xbe1ddff5	-0.15417464
31	0xbe1d2ab7	-0.15348326
32	0x3b558b86	0.0032584383
33	0xbda8432e	-0.082159385
34	0x3e224864	0.15847927
35	0xbd8d6910	-0.06904805
36	0xbcc7e31a	-0.024400283
37	0xbd0799e3	-0.033105742
38	0xbe210d28	-0.15727675
39	0xbd8fbb14	-0.07018104
40	0xbad070c7	-0.0015902751
41	0x3cf94843	0.030429965
42	0x3d6a460b	0.057195704
43	0x3a04f9a7	0.00050726015
44	0x3aca6af2	0.0015443249
45	0x3c63065c	0.013856497
46	0x3d79b6f9	0.060965512
47	0xbd3ba748	-0.04581383
48	0xbe05074a	-0.12991062
49	0xbdda3576	-0.10654728
50	0x3db1c216	0.08679597
51	0x3e297c10	0.16551232
52	0x3e0cdfda	0.13757268
53	0xbe3c5253	-0.18390779
54	0xbcc0e911	-0.023548635
55	0x3d506c4e	0.050884537
56	0x3dbcc0e0	0.092164755
57	0x3d96f9b7	0.07371848
58	0x3ddd9c5c	0.10820839
59	0x3dc7e8c3	0.09761193
60	0x3d3cf811	0.046135012
61	0xbdb83195	-0.08993832
62	0x3d4c5fb1	0.049895946
63	0x3de47bd6	0.11156432
64	0x3e655c79	0.22398557
65	0x3ca45d06	0.020063888
66	0x3bbc1a55	0.0057404437
67	0xbdb7cc40	-0.089745045
68	0x3c9a7680	0.018855333
69	0xbbe5a5cf	-0.0070082913
70	0xbe344f11	-0.17608286
71	0xbd6fd079	-0.058548424
72	0x3da6f1a9	0.08151562
73	0x3ddb03c5	0.10694078
74	0x3d019576	0.031636678
75	0xbe44794c	-0.19186896
76	0x3d211749	0.039328847
77	0x3c61687f	0.013757824
78	0xbc6d947e	-0.014500735
79	0xbd4d1dd5	-0.05007728
80	0x3e4a49b3	0.19754677
81	0x3c33647e	0.010949252
82	0x3df90ee3	0.121610425
83	0xbe4705b6	-0.19435772
84	0xbe156e6b	-0.14592902
85	0x3cb5c6e6	0.022189569
86	0xbd4f2274	-0.050569966
87	0x3bac9135	0.0052663335
88	0xbd6cc3a8	-0.05780378
89	0xbd8232be	-0.063573346
90	0xbe21673f	-0.15762042
91	0x3c98ef5a	0.01866882
92	0xbd904804	-0.07044986
93	0x3d81a510	0.06330311
94	0xbdc51633	-0.09623375
95	0x3d3d0c19	0.046154115
96	0x3d381bb1	0.044948284
97	0xb8bc9479	-8.992194e-05
98	0xbd94ece7	-0.07271748
99	0xbe2c141a	-0.16804543
100	0x3dc45893	0.09587207
101	0x3da1fafd	0.079092
102	0x3ca45416	0.020059627
103	0x3d7b24e1	0.061314467
104	0x3e56bc43	0.20970254
105	0x3e55e8f1	0.20889641
106	0xbe2c1437	-0.16804586
107	0x3e0b7876	0.13620171
108	0x3dc18fb9	0.09451241
109	0x3c5fa9ac	0.013651293
110	0xbbccb5cd	-0.0062472583
111	0x3d3c4719	0.04596624
112	0x3c1c75ae	0.009549541
113	0xbe177208	-0.14789593
114	0xbda9ef72	-0.08297624
115	0xbe25fa64	-0.16208798
116	0x3e02be95	0.12768014
117	0x3dd8cef9	0.10586352
118	0x3bf68a99	0.0075238463
119	0xbe0d3117	-0.13788258
120	0xbe1f76c3	-0.15572648
121	0xbe1d6a4c	-0.1537258
122	0xbe5cf5d4	-0.21578151
123	0xbdaeccbf	-0.08535146
124	0xbb96da10	-0.004603632
125	0x3e3eb881	0.1862507
126	0xbc806cc9	-0.015676873
127	0x3e3dc3ad	0.18531676
128	0xbe291844	-0.16513163
129	0x3d472740	0.048621416
130	0xbdfce258	-0.12347859
131	0x3e1ef212	0.1552203
132	0x3d95c0ae	0.07312141
133	0xbd9d783d	-0.07688949
134	0xbe04af12	-0.12957409
135	0x3e2127dc	0.15737861
136	0xbbc30e98	-0.0059526674
137	0xbe20b772	-0.15694979
138	0xbe43829e	-0.19092795
139	0x3d9bb2da	0.076024726
140	0xbd334e9d	-0.043776143
141	0x3d2a6f23	0.041609894
142	0xbdad09d0	-0.08449137
143	0xbdc907c6	-0.09815936
144	0x3e053c68	0.13011324
145	0xbe8333d2	-0.25625473
146	0xbde9b2dc	-0.11411068
147	0x3d7446b4	0.05963774
148	0x3d8d79f4	0.06908026
149	0x3d1eaecf	0.03874093
150	0x3c80e290	0.015733033
151	0x3d60e558	0.05490622
152	0x3e43a3d4	0.19105464
153	0xbd92c0ca	-0.07165678
154	0x3d03a419	0.032138918
155	0x3d3423a1	0.04397929
156	0x3d49d1cd	0.049272347
157	0xbe1a3fc8	-0.15063393
158	0x3e0417ba	0.12899676
159	0xbc6ff6d4	-0.014646251
160	0xbddc8f78	-0.10769552
161	0xbd87066f	-0.06593024
162	0xbe3f608a	-0.1868917
163	0x3e1a5006	0.15069589
164	0x3cf6057a	0.030031908
165	0xbe853af3	-0.26021537
166	0xbe02a5f3	-0.12758617
167	0xbd082a85	-0.033243675
168	0xbdfb294b	-0.122637354
169	0x3e25ccdc	0.16191429
170	0x3d387523	0.045033585
171	0x3d9ed703	0.07755854
172	0xbda757d1	-0.081710465
173	0x3bed94f2	0.0072504217
174	0xbbc1ea24	-0.0059178043
175	0xbd95e62d	-0.07319293
176	0xbd830fc3	-0.06399491
177	0xbd53d90c	-0.051720664
178	0xbc70a8c7	-0.014688677
179	0xbdf073c7	-0.11740833
180	0xbd81ba6f	-0.063343875
181	0x3de53c66	0.11193161
182	0xbcfe5359	-0.031045603
183	0xbd9f9a47	-0.07793098
184	0x3d446e9e	0.047957055
185	0xbd75b900	-0.059990883
186	0x3dc6fd6b	0.097163044
187	0xbd00f1f6	-0.031480752
188	0xbdea5ef3	-0.114438914
189	0x3e4da79b	0.20083468
190	0xbbab034d	-0.0052188993
191	0xbe039d43	-0.1285296
192	0xbe44583b	-0.19174282
193	0xbe2051fc	-0.15656275
194	0xbc096bca	-0.008387515
195	0x3e37beb5	0.17943843
196	0x3cf303ed	0.029664958
197	0xbe432540	-0.19057178
198	0xbd8e7051	-0.069550164
199	0xbdc8ca12	-0.09804167
200	0x3ccfb4e1	0.025354804
201	0xbd0b92f2	-0.034075685
202	0xbe4e1b31	-0.2012756
203	0xbd582d65	-0.052777667
204	0x3da5249c	0.08063623
205	0xbd8f793f	-0.07005548
206	0xbe165c42	-0.14683631
207	0x3d76e5a8	0.06027761
208	0x3e3b4475	0.18287833
209	0xbe3be713	-0.18349867
210	0x3d49a2c9	0.04922751
211	0x3d6cc019	0.057800386
212	0x3d52f313	0.051501345
213	0x3e29bb74	0.16575414
214	0xbe34ca40	-0.17655277
215	0xbe0cf694	-0.13765937
216	0x3e11d166	0.14240035
217	0x3c8b2426	0.01698501
218	0x3ddcd898	0.107834995
219	0xbe1a2d03	-0.15056233
220	0x3b8f4a64	0.0043728817
221	0xbd30f8f7	-0.04320618
222	0x3e250ac9	0.16117395
223	0x3d2a9b25	0.041651864
224	0x3d0eb8c5	0.03484418
225	0xbdf878ef	-0.12132441
226	0xbd71cdf4	-0.059034303
227	0x3ddef8b6	0.108872816
228	0x3d8c981e	0.068649516
229	0xbe158b0e	-0.14603826
230	0xbe1f3990	-0.15549302
231	0xbe4294b5	-0.1900204
232	0x3dfd1dfa	0.12359233
233	0xbd8ed4a4	-0.06974152
234	0x3bf74222	0.0075457254
235	0xbe10ed55	-0.14153035
236	0x3df0d1a9	0.117587395
237	0x3e3d2638	0.1847161
238	0x3e236df0	0.15959907
239	0xbe6b4921	-0.22977115
240	0xbe1df804	-0.15426642
241	0xbe3ea680	-0.18618202
242	0x3dd6bc5c	0.104851454
243	0x3df300ff	0.11865424
244	0xbdbfa2ef	-0.09357249
245	0xbd81838b	-0.06323918
246	0xbdc97886	-0.09837441
247	0x3e1e0bb9	0.1543416
248	0x3d60efbe	0.054916136
249	0x3c0a616d	0.00844608
250	0x3de78d17	0.113062076
251	0xbd914395	-0.070929684
252	0x3dc24d4e	0.09487401
253	0xbc235654	-0.009969313
254	0xbd99c503	-0.0750828
255	0x3d469d2f	0.048489746

enc2.layer.4.weight f4 [64]
0	0x3f7e169e	0.9925326
1	0x3f55e371	0.83550173
2	0x3f5436cd	0.8289612
3	0x3f5623eb	0.83648556
4	0x3f4d29a9	0.80141693
5	0x3f61b2f0	0.8816366
6	0x3f4b7762	0.7947904
7	0x3f61a7e1	0.8814679
8	0x3f3c3be1	0.7352887
9	0x3f4b836b	0.794974
10	0x3f7ac85a	0.9796196
11	0x3f58f7cb	0.847531
12	0x3f6d824a	0.9277693
13	0x3f76d681	0.96421057
14	0x3f701dd5	0.9379552
15	0x3f67cb76	0.9054483
16	0x3f5ea366	0.86968076
17	0x3f6ca54f	0.9243974
18	0x3f5d6564	0.86482835
19	0x3f4b7c2f	0.79486364
20	0x3f3ae13f	0.7299995
21	0x3f708a2c	0.93960834
22	0x3f656851	0.896123
23	0x3f5f7c4e	0.8729905
24	0x3f3ebbe2	0.74505436
25	0x3f4e93e5	0.8069442
26	0x3f80e29c	1.0069156
27	0x3f586826	0.8453392
28	0x3f0cfe0c	0.55075145
29	0x3f6be369	0.92143875
30	0x3f71566e	0.94272506
31	0x3f4e38b8	0.80555296
32	0x3f6e8cb1	0.9318343
33	0x3f4d4553	0.80183905
34	0x3f5d18e7	0.8636612
35	0x3f573642	0.84067166
36	0x3f24e603	0.6441347
37	0x3f4b25c5	0.79354507
38	0x3f77c98e	0.96791923
39	0x3f6cccce	0.9250001
40	0x3f5c90bb	0.8615834
41	0x3f722538	0.9458804
42	0x3f78595d	0.9701136
43	0x3f576295	0.841348
44	0x3f543f20	0.8290882
45	0x3f71e529	0.94490296
46	0x3f846227	1.0342454
47	0x3f578a11	0.8419505
48	0x3f63d5f1	0.88998324
49	0x3f66e25e	0.9018916
50	0x3f4f8fcd	0.810788
51	0x3f5089d1	0.8146029
52	0x3f64d5d4	0.89388776
53	0x3f765a3b	0.9623143
54	0x3f82b615	1.0211817
55	0x3f374ddc	0.7160318
56	0x3f5e90d2	0.8693973
57	0x3f4ec54b	0.80769795
58	0x3f711923	0.9417898
59	0x3f745de7	0.95455784
60	0x3f4174aa	0.7556864
61	0x3f5196c9	0.81870705
62	0x3f79a733	0.9752075
63	0x3f61fd9a	0.8827759

enc2.layer.4.bias f4 [64]
0	0x3d2adf3b	0.041716795
1	0xbd38b907	-0.04509833
2	0x3d9388cf	0.072038285
3	0xbba2583f	-0.0049543674
4	0x3a2c76f2	0.00065790035
5	0xbe16751a	-0.14693108
6	0xbd38d3de	-0.045123927
7	0xbc3b47ea	-0.01143072
8	0xbd20eecc	-0.039290234
9	0xbccad4d0	-0.02475968
10	0x3def040a	0.11670692
11	0x3d55d33f	0.052203413
12	0xbb82bd85	-0.0039898776
13	0x3d4eb4db	0.050465446
14	0x3e309528	0.17244399
15	0xbd7949e4	-0.060861483
16	0x3d8b5650	0.06803572
17	0x3dab02b2	0.083501235
18	0xbd3db3aa	-0.04631392
19	0xbafaca3a	-0.0019133755
20	0xbe38cfad	-0.18047972
21	0x3d7b9e1f	0.061430093
22	0xbc8122d9	-0.015763687
23	0x3d3aede4	0.045637026
24	0xbe21870f	-0.15774177
25	0xba76d4a6	-0.00094158424
26	0xbd695247	-0.05696323
27	0x3bb01a8b	0.005374258
28	0xbe354bd9	-0.17704715
29	0xbd910729	-0.07081444
30	0xbc0d2da3	-0.008616838
31	0xbe1d46a8	-0.15358984
32	0x3dc8e3d6	0.09809081
33	0xbcd5392b	-0.026028236
34	0xbd7ac93d	-0.061227072
35	0xbd88f336	-0.06687014
36	0xbe0e06e8	-0.13869822
37	0xbdd8051d	-0.1054785
38	0xbd01ee6e	-0.031721525
39	0x3d035775	0.032065827
40	0x3d4b63d8	0.049655765
41	0x3cb5b40e	0.022180583
42	0x3d882296	0.06647222
43	0x3d3b0dd1	0.045667473
44	0x3d465bce	0.048427396
45	0x3d20c720	0.0392524
46	0x3e065125	0.13116892
47	0xbd466827	-0.04843917
48	0x3daf26c6	0.08552317
49	0x3d195667	0.037435915
50	0xbd8431d2	-0.06454815
51	0x3c016cdb	0.007899488
52	0xbc8bbd98	-0.017058179
53	0x3e1068f5	0.14102538
54	0x3da9b807	0.082870536
55	0xbd805940	-0.06267023
56	0x3da8e67a	0.08247085
57	0x3e5a06cc	0.21291655
58	0xbcbb5fc2	-0.02287281
59	0x3d097001	0.03355408
60	0x3bdda197	0.006763648
61	0x3d016583	0.03159095
62	0x3e0f3c01	0.13987733
63	0x3d05e56e	0.032689504

enc2.layer.4.running_mean f4 [64]
0	0xbcd806db	-0.026370456
1	0x3cf26dcf	0.029593376
2	0xbe23634d	-0.15955849
3	0x3d48fa02	0.04906655
4	0xbd5b6fb3	-0.05357332
5	0xbe5a989a	-0.21347275
6	0xbd916b68	-0.07100564
7	0xbe432c12	-0.1905978
8	0x3ec5f870	0.38666105
9	0xbe930114	-0.2871176
10	0xbe72f9c0	-0.23728085
11	0xbe2680f2	-0.16260126
12	0x3e1f550c	0.15559787
13	0x3e0d9c13	0.13829069
14	0xbe9a8417	-0.30178902
15	0x3dc4d256	0.09610431
16	0xbe887d43	-0.26658067
17	0xbe2ad861	-0.16684105
18	0xbe63da44	-0.2225123
19	0xbe54c02c	-0.20776433
20	0x3e375a5f	0.17905568
21	0xbed73c6b	-0.42038283
22	0x3bc5c254	0.0060351286
23	0xbe68a564	-0.22719342
24	0xbe2e54a3	-0.17024474
25	0xbf1261f5	-0.5718072
26	0x3db8a218	0.09015292
27	0x3d7a1ac6	0.06106069
28	0xbed945ac	-0.42435968
29	0x3e89b8e4	0.26898873
30	0x3e903dc1	0.28172114
31	0x3d8a9201	0.06766129
32	0x3dd445c0	0.10364866
33	0x3cfadb46	0.030622136
34	0xbe608504	-0.21925741
35	0x3e297590	0.16548753
36	0xbde9367e	-0.11387347
37	0xbbb6ae09	-0.005574946
38	0x3ed91aca	0.4240325
39	0x3e103262	0.1408172
40	0xbe19f2f2	-0.15034083
41	0x3ddac604	0.106823
42	0x3d2e67ab	0.042579334
43	0x3ea8a1d2	0.3293596
44	0xbd941e93	-0.07232394
45	0x3df5c2da	0.120000556
46	0xbd9d9406	-0.07694249
47	0x3e3c5655	0.18392308
48	0xbec235f2	-0.37931782
49	0xbe9c36be	-0.30510515
50	0x3e85a35e	0.26101202
51	0x3e42b8ed	0.19015856
52	0xbe4bdc94	-0.19908363
53	0xbe00ecf2	-0.12590387
54	0xbd7ecfa8	-0.062209755
55	0xbe99a8f4	-0.30011714
56	0xbea48356	-0.3213145
57	0xbe16cc08	-0.14726269
58	0x3c9f9e2a	0.019484598
59	0xbdc863eb	-0.09784683
60	0xbeac5c2c	-0.33664072
61	0xbeba5d46	-0.36399287
62	0x3d5b6ee7	0.05357256
63	0x3c74dfbd	0.0149459215

enc2.layer.4.running_var f4 [64]
0	0x3ee551dd	0.4478902
1	0x3e90f3e4	0.28311074
2	0x3e8ba8c6	0.272772
3	0x3e962b02	0.29329687
4	0x3e86b6b8	0.26311278
5	0x3ddee621	0.10883737
6	0x3eb0b5c8	0.34513688
7	0x3f306a22	0.68911946
8	0x3e80c6c4	0.25151646
9	0x3e2a354a	0.1662189
10	0x3ee3f87e	0.44525522
11	0x3e93d856	0.2887599
12	0x3e34decb	0.17663114
13	0x3eacfe35	0.33787695
14	0x3eaa6c29	0.33285645
15	0x3e2ac320	0.16675997
16	0x3e37ca71	0.17948319
17	0x3ee76d20	0.45200443
18	0x3e31c974	0.17362005
19	0x3e2f3438	0.17109764
20	0x3ebf3420	0.37344456
21	0x3f1eddd8	0.62057257
22	0x3ddc6eeb	0.107633434
23	0x3ed46a3b	0.41487297
24	0x3e38db34	0.1805237
25	0x3eb81cd5	0.35959497
26	0x3ec057bc	0.37566936
27	0x3ea53597	0.32267448
28	0x3e7eff3c	0.24902052
29	0x3ed6fa10	0.41987658
30	0x3e8489c3	0.25886354
31	0x3e4ad7ee	0.19808933
32	0x3e523eb0	0.20531726
33	0x3e2b47ea	0.16726652
34	0x3e896188	0.26832223
35	0x3e8ba5ad	0.27274838
36	0x3ea60356	0.3242442
37	0x3e5aaa63	0.2135406
38	0x3ee4641f	0.44607636
39	0x3ea4cb28	0.32186246
40	0x3e871266	0.26381224
41	0x3e946e71	0.2899051
42	0x3dfe380c	0.12413034
43	0x3e4a38d8	0.19748247
44	0x3e8c467c	0.27397525
45	0x3e32effc	0.1747436
46	0x3dabd729	0.08390648
47	0x3e0b864f	0.13625453
48	0x3ebdd4eb	0.37076506
49	0x3e6b4769	0.2297646
50	0x3ea99829	0.331239
51	0x3ec669b2	0.38752514
52	0x3f02a411	0.51031595
53	0x3e9b9eee	0.3039469
54	0x3eb0f1be	0.34559435
55	0x3eaf82e2	0.34279543
56	0x3eafb192	0.34315163
57	0x3ea45822	0.3209849
58	0x3ed386aa	0.41313678
59	0x3ea40b70	0.32039976
60	0x3ea79c32	0.32736355
61	0x3e8c8ec4	0.27452672
62	0x3e865cbc	0.26242626
63	0x3ebe16fe	0.37126917

enc3.layer.0.weight f4 [64, 1, 3, 3]
0	0x3e30d88a	0.17270103
1	0xbdb787eb	-0.08961471
2	0xbe40c7eb	-0.18826263
3	0x3dd8024e	0.105473146
4	0xbe46c352	-0.19410446
5	0x3b9ce146	0.004787597
6	0x3eb36825	0.35040393
7	0x3ebb0e6d	0.36534443
8	0x3e978447	0.29593107
9	0x3d79cf20	0.060988545
10	0x3e128037	0.14306723
11	0x3e7f4f87	0.24932681
12	0x3e2f2ec6	0.17107686
13	0x3d996748	0.074904025
14	0x3e14a7fc	0.14517206
15	0x3df1d513	0.11808219
16	0x3de18442	0.11011554
17	0x3d6da99d	0.058023084
18	0x3e005422	0.12532094
19	0xbd6d593f	-0.05794644
20	0x3e8b44c6	0.27200907
21	0x3eb66e7a	0.35631162
22	0x3d093f8c	0.03350787
23	0xbdd2a78f	-0.102858655
24	0xbd21f9f4	-0.039545015
25	0xbe4905e1	-0.19631149
26	0xbe0df9bb	-0.13864796
27	0x3e8dd913	0.27704677
28	0xbe9fc253	-0.31202945
29	0xbdea919b	-0.11453553
30	0xbdc6d32e	-0.09708248
31	0xbeac6ab1	-0.3367515
32	0x3e7c43a9	0.24635185
33	0xbd848faf	-0.06472718
34	0xbe06f426	-0.13179073
35	0x3e6459e6	0.22299919
36	0x3e66b7a0	0.22530985
37	0xbd763fe7	-0.060119536
38	0x3dd74fd9	0.105132766
39	0x3b98520a	0.0046484517
40	0x3e3415b7	0.17586409
41	0x3e8b9352	0.27260834
42	0xbe800cec	-0.2500986
43	0xbdfc7936	-0.12327807
44	0xbe875eea	-0.264396
45	0x3e156ff6	0.14593491
46	0x3c229c5c	0.009924974
47	0x3cb30af3	0.021855807
48	0x3e3d58e4	0.1849094
49	0x3d6d2584	0.057897106
50	0x3e5ea8e0	0.21744108
51	0x3ea11d59	0.31467703
52	0x3c1b0547	0.009461707
53	0xbea5d89f	-0.3239183
54	0x3e8e12e1	0.27748778
55	0x3e6a3dc2	0.22875121
56	0xbddf5338	-0.109045446
57	0xbeb1a805	-0.346985
58	0xbd8d5827	-0.06901579
59	0xbe01b8bd	-0.12668128
60	0x3dc85b16	0.09782998
61	0xbd45cb51	-0.0482896
62	0x3dab29bf	0.08357572
63	0x3e47fcce	0.19530031
64	0x3e8a5cb0	0.2702384
65	0xbdd0f404	-0.10202792
66	0x3e96be71	0.2944217
67	0xbe2095cb	-0.15682141
68	0xbe5d3a9a	-0.21604386
69	0x3e6be4cb	0.23036496
70	0xbe9af3b3	-0.30264053
71	0xbdd7fc20	-0.10546136
72	0xbd4aa8e6	-0.04947748
73	0xbe104201	-0.14087678
74	0xbe69ab54	-0.22819263
75	0xbda55f31	-0.08074797
76	0xbe5e0804	-0.21682745
77	0xbe905282	-0.28187948
78	0xbd091aa5	-0.033472676
79	0xbd206ea6	-0.039168023
80	0x3dac9ce9	0.08428366
81	0x3dc86b81	0.0978613
82	0x3d046261	0.032320384
83	0xbe6d87e2	-0.23196366
84	0xbe60ab8e	-0.21940443
85	0x3e9007b4	0.28130877
86	0x3e5d0edc	0.215877
87	0x3d728f64	0.05921878
88	0x3dfca0c1	0.12335349
89	0xbe855038	-0.26037765
90	0x3e393b39	0.18088998
91	0x3de841bd	0.113406636
92	0xbe4a933f	-0.19782732
93	0x3e0d3230	0.13788676
94	0xbe770088	-0.24121296
95	0xbe9b1f03	-0.30297098
96	0xbe29b9dc	-0.16574806
97	0xbea0dc6e	-0.31418175
98	0x3bef4f09	0.007303123
99	0x3d7cd36f	0.061725076
100	0x3e14c161	0.14526893
101	0x3d92e52b	0.071726166
102	0x3e455942	0.1927233
103	0x3e18d95e	0.14926669
104	0x3e4c8d49	0.19975771
105	0xbdb8c4f0	-0.09021938
106	0xbe97e898	-0.29669642
107	0x3d402430	0.04690951
108	0x3e10f77d	0.1415691
109	0xbe629832	-0.2212837
110	0xbea563be	-0.3230266
111	0x3c639508	0.013890512
112	0xbdfcfed2	-0.123532906
113	0xbec4574b	-0.3834785
114	0x3dd54dc6	0.10415225
115	0xbe3f9317	-0.18708454
116	0xbea34b37	-0.31893322
117	0x3e2b25a9	0.16713585
118	0xbd967063	-0.07345655
119	0x3e8d816f	0.27637812
120	0x3eb8eccf	0.3611817
121	0x3e06bf72	0.13158968
122	0xbd777142	-0.060410745
123	0x3e93b407	0.28848287
124	0xbcdad687	-0.026713623
125	0xbe4e52ba	-0.20148745
126	0x3e2b4053	0.16723756
127	0xbe314720	-0.17312288
128	0x3e8d1b4b	0.27559885
129	0x3ea00599	0.3125427
130	0xbdd2c4d2	-0.10291447
131	0x3df787d5	0.12086455
132	0x3e8e4229	0.2778485
133	0x3e44c88d	0.19217129
134	0x3eca4b0e	0.39510387
135	0xbcc7bd7c	-0.024382345
136	0x3d38f76e	0.045157842
137	0xbd11ed88	-0.035626918
138	0x3d9cb948	0.07652527
139	0xbea147d2	-0.31500107
140	0xbe85d63c	-0.2614001
141	0xbe1f30eb	-0.15546004
142	0x3ebbe7c5	0.36700264
143	0x3ea4f4c9	0.32218006
144	0x3e150c3a	0.14555445
145	0xbe650e56	-0.2236875
146	0xbeebecd4	-0.46079123
147	0xbe1481bf	-0.14502619
148	0x3bcde5fe	0.0062835207
149	0xbeadfdb0	-0.3398261
150	0xbe3bea66	-0.18351135
151	0x3e0c9701	0.13729478
152	0x3e7f2eba	0.24920169
153	0xbd4b3490	-0.049610674
154	0x3dda0c51	0.106468804
155	0xbe801435	-0.25015417
156	0xbe5f2d78	-0.21794689
157	0x3cf002e3	0.029298251
158	0x3e6557ea	0.22396818
159	0x3e6b12e5	0.22956426
160	0x3e31b867	0.173555
161	0x3e83660f	0.25663802
162	0xbb4eee4b	-0.003157514
163	0x3da74e6b	0.08169254
164	0xbd8fbb91	-0.07018197
165	0x3e0ad574	0.13557988
166	0x3cb59c75	0.022169331
167	0xbe2dee2f	-0.16985391
168	0x3e575f36	0.21032414
169	0xbd98ed56	-0.07467143
170	0x3e976463	0.29568776
171	0x3e24eeb8	0.16106689
172	0x3c104c17	0.008807204
173	0xbd521eeb	-0.051299017
174	0xbca0f9a9	-0.019650297
175	0xbe28708a	-0.1644918
176	0xbbc248d4	-0.005929092
177	0xbe399372	-0.18122652
178	0x3e771c64	0.24131924
179	0xbed62a2b	-0.41829047
180	0xbe904f0d	-0.2818531
181	0xbe8b3f3f	-0.2719669
182	0x3c92032a	0.017823774
183	0x3e838ba6	0.2569248
184	0x3d895a5c	0.06706688
185	0xbe8e3ba1	-0.27779868
186	0x3e9bc7c3	0.30425844
187	0x3e829f96	0.2551238
188	0xbe925761	-0.2858229
189	0xbd20ad04	-0.0392275
190	0x3d49d958	0.04927954
191	0x3e956f5a	0.29186517
192	0x3e3aa3d7	0.18226562
193	0xbe0eddd1	-0.13951804
194	0xbc1d6127	-0.009605682
195	0xbe2d4149	-0.16919436
196	0xbd300fd3	-0.04298384
197	0x3ea792e8	0.32729268
198	0xbe6a4e3a	-0.22881404
199	0x3df74851	0.1207434
200	0x3e7f5993	0.24936514
201	0x3e2616ed	0.16219683
202	0x3e05fe3e	0.13085267
203	0x3e2e4d45	0.17021663
204	0xbc48cd90	-0.012256041
205	0xbda0bf23	-0.078489564
206	0xbe984f36	-0.29747933
207	0xbe99bbfc	-0.30026233
208	0x3d3d018f	0.046144065
209	0xbea2dc06	-0.3180849
210	0x3e155dec	0.1458661
211	0x3e869871	0.2628818
212	0xbe73bde5	-0.23802908
213	0xbe0083bd	-0.12550254
214	0xbe2c5b1b	-0.16831629
215	0xbe25b44d	-0.1618206
216	0x3e07b07e	0.1325092
217	0x3dc5f47f	0.096657746
218	0x3e877732	0.26458126
219	0xbe7159e5	-0.23569448
220	0x3e389edb	0.18029349
221	0xbe7d995f	-0.24765538
222	0xbcac0ba3	-0.021001643
223	0x3d71014a	0.05883912
224	0xbdbb361c	-0.0914118
225	0xbe1f9d78	-0.15587413
226	0xbe530c93	-0.20610265
227	0xbb98b858	-0.0046606474
228	0xbe028128	-0.12744582
229	0xbda3e7a4	-0.08003166
230	0xbed29f6e	-0.4113726
231	0xbd1cb748	-0.038260728
232	0x3decfb45	0.11571363
233	0xbe9825d7	-0.2971637
234	0x3be9ced9	0.007135254
235	0x3e118a5d	0.14212938
236	0x3dcfa7ce	0.10139428
237	0x3e5f3797	0.2179855
238	0x3df743fb	0.12073513
239	0xbd714cd7	-0.05891117
240	0x3df34f2d	0.11880336
241	0x3dfc8fda	0.12332125
242	0x3da05d58	0.07830304
243	0xbdcc49a8	-0.09974986
244	0xbe89f1e6	-0.26942366
245	0x3dea9bb1	0.11455477
246	0xbe5a7455	-0.2133344
247	0xbe225a55	-0.15854771
248	0xbebc5fb0	-0.36791754
249	0xbe5333d6	-0.20625243
250	0x3e7c6a71	0.24649979
251	0xbe9bb1f3	-0.30409202
252	0x3e344795	0.17605431
253	0x3e13f2b4	0.14448053
254	0xbce25200	-0.027626991
255	0xbe231107	-0.15924464

enc3.layer.1.weight f4 [64]
0	0x3f7dd954	0.9915974
1	0x3f8fa651	1.1222631
2	0x3f864094	1.0488458
3	0x3f56187f	0.8363113
4	0x3f73c8b9	0.95228153
5	0x3f855257	1.0415753
6	0x3f772205	0.96536285
7	0x3f886ed4	1.0658822
8	0x3f86e007	1.0537118
9	0x3f6456b3	0.8919479
10	0x3f74bdaf	0.95601934
11	0x3f6c1a0e	0.92227256
12	0x3f6ff18d	0.9372795
13	0x3f976bf3	1.1829818
14	0x3f7410c2	0.9533807
15	0x3f75d2a2	0.96024525
16	0x3f6caf27	0.9245476
17	0x3f7c4d62	0.98555577
18	0x3f61b776	0.88170564
19	0x3f7a7396	0.9783262
20	0x3f7d9f07	0.9907078
21	0x3f72fee5	0.9492019
22	0x3f851066	1.039563
23	0x3f75e227	0.96048206
24	0x3f61de22	0.8822957
25	0x3f825eba	1.0185158
26	0x3f7ecaf1	0.99528414
27	0x3f7a9020	0.9787617
28	0x3f73b738	0.95201445
29	0x3f7451f1	0.9543753
30	0x3f8aa42d	1.0831352
31	0x3f87fdfc	1.0624385
32	0x3f82e5d3	1.0226387
33	0x3f829bd6	1.0203807
34	0x3f775663	0.9661619
35	0x3f86c14b	1.0527738
36	0x3f847754	1.0348916
37	0x3f6dda7a	0.92911494
38	0x3f7b0a6b	0.9806277
39	0x3f8695fd	1.0514523
40	0x3f5ff6c8	0.87485933
41	0x3f601a64	0.8754027
42	0x3f8839b7	1.0642613
43	0x3f7c3b1b	0.9852769
44	0x3f9df30a	1.2339795
45	0x3f82dbe7	1.0223359
46	0x3f92223e	1.14167
47	0x3f7abef9	0.9794765
48	0x3f810ecb	1.008264
49	0x3f5cfed7	0.86326355
50	0x3f7fb3b9	0.9988361
51	0x3f7b5aa5	0.9818519
52	0x3f8b733d	1.0894543
53	0x3f8c85b1	1.0978299
54	0x3f682ab9	0.9069019
55	0x3f7d8712	0.99034226
56	0x3f51710b	0.81813115
57	0x3f7768ad	0.966441
58	0x3f6eeac8	0.93327
59	0x3f8dea72	1.1087172
60	0x3f76eff4	0.9645989
61	0x3f622cb4	0.8834946
62	0x3f8c1fb8	1.094718
63	0x3f6b2670	0.91855526

enc3.layer.1.bias f4 [64]
0	0x3df2a4ef	0.11847865
1	0x3d5f6bb2	0.054546066
2	0x3e4ac5ec	0.19802064
3	0xbdcdb840	-0.100449085
4	0x3c51c2d8	0.012802802
5	0xbd04b717	-0.03240117
6	0x3cea7c2c	0.028623663
7	0xbc90b77d	-0.017665619
8	0x3d6ae819	0.05735025
9	0xbc0446be	-0.008073507
10	0xbce7adf9	-0.028281199
11	0xbc6301ea	-0.013855437
12	0xbce99cad	-0.028517092
13	0x3dd438df	0.1036241
14	0x3d70ef32	0.058821864
15	0xbb601dc9	-0.003419744
16	0x3ceaf917	0.028683228
17	0x3d9b0033	0.075683974
18	0xbc43425b	-0.011917676
19	0x3cb0e71f	0.021594582
20	0xbc8196b1	-0.015818926
21	0x3d7b5ae5	0.06136598
22	0x3de523d6	0.11188476
23	0x3bebce53	0.0071962266
24	0xbd825591	-0.06363977
25	0x3d75e1b8	0.060029715
26	0xbd9d55b6	-0.07682364
27	0x3d263fda	0.040588237
28	0xbd057050	-0.032577813
29	0xbcfff197	-0.031243129
30	0x3d92da7c	0.07170579
31	0x3dca9ddd	0.09893391
32	0x3d01d409	0.031696353
33	0xbb2e5e60	-0.0026606545
34	0x3dc3e1cd	0.095645525
35	0x3da12404	0.078681976
36	0xba13021b	-0.0005607919
37	0x3cc3bee4	0.023894735
38	0xbc92628d	-0.017869258
39	0x3e0a30a0	0.13495111
40	0xbd10a1b7	-0.035310473
41	0x3ce237a1	0.027614417
42	0x3cfda6fb	0.030963412
43	0x3d611b9a	0.054957964
44	0x3e1fd99c	0.15610355
45	0x3cdd3ab7	0.027005536
46	0x3e0cfdae	0.13768646
47	0x3c718f02	0.014743568
48	0x3da5453d	0.08069847
49	0xbd5342b8	-0.0515773
50	0x3c09b70c	0.008405458
51	0x3daf0569	0.08545954
52	0x3ca57793	0.020198619
53	0x3e249520	0.16072512
54	0x3dc6ee8d	0.09713469
55	0x3dae9164	0.08523825
56	0xbdaa62f6	-0.083196566
57	0x3d2d6cfc	0.042340264
58	0xbd17da4c	-0.03707342
59	0x3dbebae1	0.09312988
60	0xbc8b39f4	-0.016995408
61	0xbdf9b170	-0.12192047
62	0x3e09a5d5	0.13442166
63	0xbc4c84ef	-0.012482866

enc3.layer.1.running_mean f4 [64]
0	0x3ea3b081	0.319706
1	0x3ec15b16	0.37764806
2	0x3db5ddcb	0.08880194
3	0xbdd48404	-0.103767425
4	0x3ccda5a3	0.025103396
5	0x3e0cdc76	0.13755974
6	0xbbca07fc	-0.0061655026
7	0x3d0c39c0	0.034234762
8	0xbe5cac4c	-0.21550101
9	0x3cac04c5	0.020998368
10	0xbe9c41a8	-0.30518842
11	0x3e2ec2e6	0.17066535
12	0xbeea250f	-0.45731398
13	0x3ebbb171	0.36658815
14	0x3f263f24	0.64940095
15	0x3b8a082e	0.004212401
16	0xbe908e3e	-0.28233522
17	0x3e5c628e	0.2152197
18	0x3dc9a816	0.09846513
19	0xbde63921	-0.11241365
20	0xbd172e9c	-0.036909685
21	0x3e439dbf	0.19103144
22	0x3d668560	0.05627954
23	0xbe9c1cce	-0.30490726
24	0x3cb80d54	0.022467293
25	0xbeb7e826	-0.35919303
26	0x3e893db4	0.26804888
27	0xbec3e1b8	-0.38258147
28	0x3dab0eae	0.08352409
29	0xbcd33958	-0.02578418
30	0x3ebcde5e	0.36888403
31	0xbe28bcb0	-0.16478229
32	0xbef1df88	-0.47240853
33	0xbea21e72	-0.31663853
34	0x3d809918	0.062792
35	0x3da13ea0	0.07873273
36	0x3d8537f2	0.06504811
37	0x3e4a7a8d	0.19773312
38	0x3d6aeafa	0.057352997
39	0xbc8e354f	-0.017359404
40	0x3cdd63ad	0.027025068
41	0x3d814918	0.0631277
42	0x3cc0f2ee	0.023553338
43	0x3e6f060a	0.23342147
44	0x3d89eebe	0.067349896
45	0xbe0d59cd	-0.13803788
46	0xbecf727f	-0.4051704
47	0x3e548fc3	0.20757966
48	0x3edef614	0.43547118
49	0xbc5c1341	-0.013432325
50	0x3c9b15a6	0.018931221
51	0x3df3652a	0.1188453
52	0x3eafc9f3	0.34333763
53	0x3ea2615f	0.31714913
54	0xbdf0628c	-0.11737546
55	0x3e60baca	0.21946254
56	0xbc398a35	-0.011324455
57	0x3f04ed2a	0.51924384
58	0xbe605786	-0.21908388
59	0xbf0a6ab4	-0.54069066
60	0xbe82a628	-0.25517392
61	0xbdee43b2	-0.116340056
62	0x3e59d519	0.21272697
63	0xba8217e2	-0.000992533

enc3.layer.1.running_var f4 [64]
0	0x3e775b99	0.24156035
1	0x3e0fd914	0.14047652
2	0x3d662c40	0.056194544
3	0x3d5a2476	0.053257428
4	0x3cb3957c	0.021921866
5	0x3d1b5a45	0.037927885
6	0x3c3753e1	0.011189432
7	0x3e11986a	0.14218298
8	0x3e1714c5	0.14754017
9	0x3d0eb410	0.03483969
10	0x3d785ff5	0.060638387
11	0x3dc15874	0.09440699
12	0x3ed131de	0.40858358
13	0x3e87a6e6	0.2649452
14	0x3e2f7788	0.17135441
15	0x3e2c5584	0.16829497
16	0x3e0fccd6	0.14042982
17	0x3d675012	0.056472845
18	0x3cc74430	0.024324507
19	0x3c98b1e2	0.018639509
20	0x3dd3a0db	0.10333415
21	0x3d2065b6	0.0391595
22	0x3df67746	0.12034468
23	0x3da701b4	0.08154622
24	0x3bec0396	0.007202576
25	0x3da97e0c	0.08275995
26	0x3e14a698	0.14516675
27	0x3e98b1fc	0.2982329
28	0x3c496680	0.012292504
29	0x3d746e0e	0.05967527
30	0x3e70b9e1	0.23508407
31	0x3decf4c1	0.115701206
32	0x3ea0ec8a	0.31430465
33	0x3e0e19b4	0.13876992
34	0x3cb74790	0.02237299
35	0x3d6b51ea	0.057451166
36	0x3c247f79	0.0100401575
37	0x3da86c02	0.08223726
38	0x3e336df7	0.17522417
39	0x3e14a994	0.14517814
40	0x3c7beee0	0.015376776
41	0x3e57b07e	0.2106342
42	0x3e3a9bba	0.18223467
43	0x3e81861d	0.25297633
44	0x3df38fb2	0.11892642
45	0x3ea0aede	0.31383413
46	0x3ec6ba4f	0.38814017
47	0x3e3d00ba	0.18457308
48	0x3e0b0c8b	0.13579004
49	0x3d196bd8	0.037456363
50	0x3d8820de	0.06646894
51	0x3d9d6aae	0.07686363
52	0x3e0d89cf	0.13822101
53	0x3e27eabe	0.16398141
54	0x3d61d7fe	0.055137627
55	0x3cfc7d1e	0.03082138
56	0x3cc73a54	0.024319805
57	0x3e107782	0.14108089
58	0x3da19cda	0.07891245
59	0x3e62e6f3	0.22158413
60	0x3d247116	0.04014691
61	0x3ca36050	0.019943386
62	0x3e5859f3	0.21128063
63	0x3db1d534	0.086832434

enc3.layer.3.weight f4 [128, 64, 1, 1]
0	0x3d1e4909	0.03864387
1	0xbc468963	-0.0121177165
2	0x3daa55b0	0.08317125
3	0x3cf14ffe	0.029457089
4	0xbc303102	-0.010753872
5	0xbd3fa6de	-0.046789996
6	0x3d9ba4c7	0.07599788
7	0x3c716b51	0.014735059
8	0xbcc6a95b	-0.024250677
9	0x3d9879e9	0.074451275
10	0x3d398620	0.045293927
11	0xbd06c283	-0.032900345
12	0xbc90a2a0	-0.01765567
13	0x3d2d4e21	0.042310838
14	0xbd2e633e	-0.042575113
15	0xbd7bcc07	-0.061473873
16	0x3bc010bc	0.00586137
17	0x3cad244c	0.021135472
18	0xbdd17fd8	-0.102294624
19	0xbad918c6	-0.0016563169
20	0xbdd077bc	-0.101790875
21	0xbdc71fdd	-0.09722874
22	0xbe720b39	-0.23637094
23	0xbdae46ed	-0.08509622
24	0xbd227a03	-0.03966714
25	0xbd923aca	-0.071401194
26	0xbda033f5	-0.0782241
27	0xbe147e92	-0.14501408
28	0xbc4761a1	-0.012169273
29	0xbd358f0e	-0.04432588
30	0x3dc9d7b6	0.09855597
31	0x3d8bd36d	0.06827436
32	0x3b9b92c7	0.004747722
33	0x3de80481	0.11328984
34	0x3c8b01cc	0.01696863
35	0xbd99e96b	-0.07515224
36	0x3daf87b4	0.08570805
37	0x3c991d0b	0.018690607
38	0x3c397c06	0.011321073
39	0xbe359087	-0.17730914
40	0x3d2e856a	0.042607702
41	0xbdfa7aca	-0.122304514
42	0xbddb40e9	-0.1070574
43	0x3cd0a9de	0.025471624
44	0xbe203356	-0.15644583
45	0xbd05554b	-0.032552045
46	0x3cb91b47	0.022596015
47	0xbe3a8007	-0.18212901
48	0x3deb702c	0.114960045
49	0x3c9e3321	0.01931149
50	0xbd1ecfd0	-0.038772404
51	0x3d848a57	0.06471699
52	0x3d7a4a1d	0.061105836
53	0x3cee5bce	0.02909651
54	0xbd24376d	-0.04009192
55	0xbe0fbf24	-0.14037758
56	0xbc34e2f2	-0.011040436
57	0xbd45394f	-0.048150357
58	0xbcb5ac7c	-0.022176974
59	0x3cd42a37	0.025899036
60	0x3c3df0f1	0.011593089
61	0xbd5b65c3	-0.053563844
62	0xbd3e38dc	-0.046440944
63	0xbd47c9dc	-0.048776492
64	0xbab7dd0a	-0.0014027667
65	0x3cfbf060	0.030754268
66	0x3da034de	0.078225836
67	0x3ce7c168	0.028290465
68	0x3df6c2c9	0.12048871
69	0xbb0d30ca	-0.0021543973
70	0xbd0c1ba1	-0.034206036
71	0x3b648200	0.0034867525
72	0x3dc60eb3	0.096707724
73	0x3e13577e	0.14388844
74	0xbde2d3f5	-0.11075584
75	0xbce1fc5a	-0.02758615
76	0xbc337524	-0.0109532215
77	0x3d02eb64	0.031962767
78	0x3d3f2f9c	0.046676263
79	0xbdad0e2f	-0.08449971
80	0xbda98be4	-0.08278635
81	0x3c439de4	0.0119394995
82	0xbcb9eaef	-0.022695033
83	0x3c74f428	0.0149507895
84	0xbe369791	-0.17831255
85	0x3ca1e501	0.019762518
86	0x3de50c50	0.11183989
87	0xbc47cc02	-0.012194635
88	0x3dc8e1c7	0.098086886
89	0xbcbe6158	-0.023239776
90	0xbe1a66a2	-0.15078214
91	0x3de2e654	0.11079088
92	0xbb833371	-0.004003935
93	0xbc72cb6d	-0.014819008
94	0x3db8603c	0.0900273
95	0xbdc86483	-0.09784796
96	0xbcc529db	-0.02406781
97	0x3c95513c	0.018227212
98	0x3dbee43b	0.09320875
99	0xbdec21bb	-0.11529871
100	0xbce8e42c	-0.028429113
101	0xbca49d13	-0.02009443
102	0xbde9d101	-0.114168175
103	0xbe2088d4	-0.15677196
104	0xbda383f6	-0.07984154
105	0x3dc92c49	0.098229
106	0x3daa1f58	0.083067596
107	0x3dabdcff	0.08391761
108	0x3c26d39d	0.0101822885
109	0x3e263305	0.162304
110	0x3e23c0c5	0.15991504
111	0x3bc1482a	0.005898495
112	0x3cb83652	0.02248684
113	0xbe0aa164	-0.13538128
114	0xbda7c34a	-0.08191545
115	0x3d934354	0.07190576
116	0xbdc3da06	-0.09563069
117	0xbdf4d7e6	-0.11955242
118	0x3b1d6aec	0.002402003
119	0x3de3db16	0.11125772
120	0xbc6995c5	-0.014256899
121	0x3c2d9237	0.010593942
122	0xbccec077	-0.025238259
123	0xbe4df6f1	-0.20113732
124	0xbdca42cf	-0.09876024
125	0x3cb7433d	0.022370929
126	0xbdae3ef4	-0.08508101
127	0x3c9bbbfc	0.019010536
128	0xbe629088	-0.22125447
129	0x3de277e0	0.110580206
130	0xbdce352c	-0.100687355
131	0xbd2912fb	-0.041277867
132	0x3d467ad5	0.048456986
133	0xbcb79a28	-0.022412375
134	0x3c8f10e7	0.017464114
135	0xbd0478f7	-0.032341924
136	0x3df5c10b	0.11999711
137	0x3d312331	0.04324645
138	0x3d8d4fea	0.06900008
139	0xbde3109b	-0.110871516
140	0xbcd6d5a6	-0.026224922
141	0xbd606dcf	-0.05479222
142	0x3d7e4d13	0.062085222
143	0x3e14caaa	0.14530435
144	0xbddae3fd	-0.106880166
145	0x3cbbdfe9	0.022933917
146	0xbda8d997	-0.08244627
147	0xbd132ec7	-0.035933282
148	0x3d412dad	0.0471627
149	0xbda5e45f	-0.08100199
150	0xbd9ef1f0	-0.0776099
151	0xbd9640bf	-0.07336568
152	0x3d27720c	0.040880248
153	0xbd88244e	-0.066475496
154	0x39951dfb	0.00028441832
155	0xbd6a53dc	-0.05720888
156	0xbd3188e5	-0.043343443
157	0xbd498be9	-0.049205694
158	0xbde634d0	-0.11240542
159	0xbd734af4	-0.059397653
160	0x3e0ab6e9	0.13546337
161	0xbd3b9b10	-0.045802176
162	0xbd055746	-0.032553934
163	0xbd439deb	-0.047758024
164	0xbdacc021	-0.08435083
165	0x3d67b196	0.056565844
166	0xbde7efc1	-0.11325026
167	0x3caf1e1d	0.021376664
168	0x3e11133a	0.1416749
169	0xbdecaaa1	-0.115559824
170	0xbd8265b8	-0.063670576
171	0x3d8ae4b3	0.06781902
172	0xbdfe6d6e	-0.12423216
173	0xbd1ad713	-0.037802767
174	0xbd6645f1	-0.056219045
175	0xbd86e23e	-0.06586121
176	0xbd7897f8	-0.060691804
177	0xbd538b97	-0.051646795
178	0xbd57d990	-0.05269772
179	0xbdf849bb	-0.12123438
180	0xbc117b92	-0.008879559
181	0xbd974b06	-0.073873565
182	0x3cbfa709	0.023395078
183	0xbd5af135	-0.05345269
184	0x3d96bb1f	0.07359909
185	0xbdd69e38	-0.104793966
186	0x3c8a48f9	0.0168805
187	0xbd41759c	-0.0472313
188	0xbd8fdfab	-0.07025083
189	0x3d10ac2d	0.03532045
190	0xbcccbdd1	-0.024992855
191	0xbd08a4b5	-0.033360202
192	0x3c18d857	0.009328923
193	0xbd2b34ff	-0.041798588
194	0xbda55a71	-0.08073891
195	0x3bb8fb03	0.0056451573
196	0xbd565b17	-0.052332964
197	0xbde54ad9	-0.11195917
198	0xbd494a6d	-0.049143244
199	0x3d05e6d6	0.032690845
200	0xbcfa1000	-0.030525208
201	0xbe11a29f	-0.14222191
202	0xbd8a5d7a	-0.067561105
203	0xbe2c261f	-0.16811417
204	0x3da54ac4	0.08070901
205	0x3c51cd85	0.012805347
206	0xbd3820a0	-0.04495299
207	0x3d455a7c	0.048181996
208	0x3da28e76	0.079373285
209	0xbd269af3	-0.040675115
210	0xbde2e26d	-0.110783435
211	0xbdbf62a2	-0.093449846
212	0x3ddb7869	0.10716326
213	0x3d1826c6	0.037146352
214	0x3be5d4ac	0.007013878
215	0xbdb6faaa	-0.08934529
216	0xbd8444e5	-0.06458453
217	0xbe1789af	-0.14798616
218	0x3d13d645	0.036093015
219	0x3de58cf2	0.11208524
220	0x3c44ebec	0.012019139
221	0xbe11859e	-0.14211127
222	0xbc421136	-0.011844924
223	0xbd819005	-0.06326298
224	0xbd5b8ffc	-0.05360411
225	0x3d3df435	0.046375472
226	0xbc091c0c	-0.008368503
227	0xbe364ea5	-0.17803438
228	0x3d0d55da	0.034505703
229	0x3d4000d9	0.04687581
230	0xbe1480a5	-0.14502199
231	0xbd643232	-0.055711932
232	0xbd34778f	-0.044059332
233	0x3d587b5e	0.052852027
234	0xbd1ea8ca	-0.03873519
235	0xbe729e46	-0.23693189
236	0xbcb325f1	-0.021868678
237	0xbd880c2f	-0.06642949
238	0x3e6de435	0.23231585
239	0x3dd820f2	0.10553159
240	0x3d9869b3	0.074420355
241	0x3d498ad9	0.04920468
242	0x3ac6cde4	0.0015167561
243	0xbe2b6d9b	-0.1674103
244	0xbd9f4f90	-0.07778847
245	0xbc40295a	-0.011728609
246	0xbd4daa1b	-0.050211053
247	0x3db57f05	0.08862118
248	0xbd5f925a	-0.05458293
249	0x3ca86d04	0.020559795
250	0xbdf3b08b	-0.11898907
251	0x3d39cd5b	0.045361858
252	0x3cb9bc8d	0.022672916
253	0xbcb1f5dd	-0.021723682
254	0xbe095779	-0.13412274
255	0xbb9e0846	-0.0048227636
