trained_models/seated_nude.pth (torch, 210147 bytes, 72 tensors)

enc1.layer.0.weight f4 [3, 1, 3, 3]
000000 fe 93 fb 3c 4a 34 c9 3e ee 9c d5 bd fb 10 4e 3d
       0.030710217 0.39297706 -0.104303226 0.050309163
000010 cb f1 ea 3e 7e 59 29 be 20 9d aa be 7e d9 c8 bd
       0.45887598 -0.16538045 -0.33323002 -0.09807108
000020 2c e9 0b 3e 21 98 35 bb 14 2d d1 3d 07 11 6f bb
       0.13663167 -0.0027709084 0.10213676 -0.0036478655
000030 c9 2d 80 bd f7 1e 02 3e 2e 39 1c be 52 5f de 3e
       -0.06258733 0.12707125 -0.15256187 0.434321
000040 03 56 08 bc 54 a6 78 bd b2 48 07 be 6c 62 75 bc
       -0.008321288 -0.060705498 -0.13211325 -0.014977079
000050 48 76 c8 bd c9 a5 57 bd dc d7 f6 3d b8 3b ad 3e
       -0.09788185 -0.05264834 0.12052891 0.33834624
000060 24 a3 67 bd b3 14 82 3d b5 80 96 3c
       -0.056552067 0.06351604 0.01837192

enc1.layer.1.weight f4 [3]
000000 b6 a3 16 3f b6 ea 31 3f 79 34 09 3f
       0.58843553 0.69498765 0.5359569

enc1.layer.1.bias f4 [3]
000000 ce 3c 78 3f 38 27 5e 3f bb 8c 9f 3f
       0.9696778 0.86778593 1.2464823

enc1.layer.1.running_mean f4 [3]
000000 2c 81 ce bc 0b 7d 5b bd 02 a2 33 bd
       -0.025208078 -0.053586047 -0.043855675

enc1.layer.1.running_var f4 [3]
000000 62 7c 16 3d ec 7c f8 3c 84 fc 36 3c
       0.036739714 0.030333005 0.011168603

enc1.layer.3.weight f4 [32, 3, 1, 1]
000000 19 33 ff 3d ec 66 7c 3c 50 d2 c8 be fb 24 90 3e
       0.12460918 0.015405398 -0.39222956 0.28153214
000010 06 23 4c be 76 13 2c 3d e8 94 17 be 1a d0 35 be
       -0.19935235 0.042010747 -0.14802897 -0.17755166
000020 05 7a 8e be 35 66 93 be 1b f9 13 3f 08 40 a6 3e
       -0.2782747 -0.28788915 0.5780198 0.32470727
000030 52 6d e2 3e 55 27 10 3f ba 10 36 bd 3f 70 a0 3c
       0.4422403 0.56310016 -0.044449545 0.019584773
000040 ee 20 aa 3e ef c0 25 3f b5 de ea 3e a9 ce 7a 3e
       0.33228248 0.6474752 0.45873037 0.24492897
000050 c6 97 d2 be 47 9d 4b 3e 0b 63 62 3b d4 8e e0 be
       -0.4113142 0.19884215 0.0034543897 -0.4385897
000060 2f f6 88 be 32 66 36 3e 39 4b 9c bd a6 d4 d2 bd
       -0.26750323 0.17812422 -0.07631535 -0.10294466
000070 70 bd 72 bf 22 ba a9 3d 8c ea cc 3e 50 63 e8 3e
       -0.9482031 0.08287455 0.40022695 0.4538827
000080 13 9e e5 3e 1c 94 91 3e 3c 08 fc be f7 db 85 3e
       0.44847164 0.2843331 -0.49225032 0.26144382
000090 c2 0c 4b 3d 02 ea 87 3e 27 13 67 3e bc 54 85 3c
       0.049572714 0.2654572 0.225659 0.016275756
0000a0 73 78 f1 3d 2d 88 31 3e 05 d2 0b bf c2 99 02 be
       0.11790552 0.17337103 -0.5461734 -0.12753966
0000b0 81 85 b1 3e 51 7c 32 bd 75 fb 6f bd d3 4e b0 3d
       0.34672168 -0.04357559 -0.058589417 0.086087845
0000c0 9b 71 a6 3e 18 3d cc be 59 9c 47 3f dc 19 06 3f
       0.3250855 -0.3989036 0.7797294 0.5238321
0000d0 2d 6f e6 be 5e f7 32 3e 80 e6 ae 3e 22 95 06 3f
       -0.45006695 0.17477176 0.34160233 0.5257131
0000e0 e6 2a b2 bd 41 d0 d5 3d 24 71 10 bf 63 e6 f4 be
       -0.086995885 0.10440112 -0.5642264 -0.4783202
0000f0 b2 ff 6a be 28 62 a6 3e 9a 12 7f be 87 42 83 3e
       -0.22949103 0.32496762 -0.2490944 0.25636694
000100 b6 9a 0a 3b c8 5f 28 3e a3 0b 0d be 90 09 93 be
       0.0021149344 0.16442788 -0.1377397 -0.28718233
000110 4f c1 7a bd 90 07 ce 3c 76 5a 41 be 78 6f ce be
       -0.06121951 0.02515009 -0.18882164 -0.4031942
000120 67 0c 9c be a2 5f ae be be 60 b2 be 7e cf 9d be
       -0.30478212 -0.34057337 -0.34839433 -0.30822366
000130 6f 00 9a 3e 45 9c 92 bd 96 69 10 bd 98 bf 9b bd
       0.30078456 -0.07158712 -0.035256945 -0.07604903
000140 24 fb 2d 3f b1 bf 5e bd 66 36 5b be f2 6c 6e 3e
       0.67961335 -0.05438203 -0.2140747 0.23283747
000150 4f 67 f5 3d 0b 41 3d 3f 49 19 ac 3d d9 db 20 bf
       0.11982595 0.7392737 0.0840326 -0.6283546
000160 a9 c3 bc be ca 7e 0f 3f 08 a0 6b be 05 df 8e be
       -0.36868027 0.5605284 -0.23010266 -0.27904525
000170 8e ba fe be 96 49 23 bf 86 9a 01 3f e9 f4 87 be
       -0.49751705 -0.6378416 0.5062641 -0.2655404

enc1.layer.4.weight f4 [32]
000000 27 4b 81 3f 51 00 56 3f a9 df 5a 3f c3 fd d5 3e
       1.010106 0.8359423 0.8549753 0.41795167
000010 0e b3 4b 3f 97 f6 41 3f ff be e3 3e 0c b7 1a 3f
       0.7957009 0.7576689 0.44481656 0.6043556
000020 27 9f 5a 3f 2e cb 7c 3f a2 a1 f8 3e c0 2e 45 3f
       0.853991 0.9874753 0.48560816 0.7702446
000030 98 ee 43 3f 19 96 27 3f d9 81 5f 3f ee e1 1a 3f
       0.7653594 0.65463406 0.87307507 0.6050099
000040 3d c7 2c 3f 43 12 49 3f b5 73 46 3f cd b9 6c 3f
       0.67491513 0.7854349 0.77520305 0.9247101
000050 74 80 0e 3f 93 f5 31 3f bf e0 7a 3f e1 dd 71 3f
       0.55664754 0.6951534 0.97999185 0.94479185
000060 51 56 41 3f 19 a9 31 3f 90 65 2e 3f 95 2d 4e 3f
       0.75522333 0.6939865 0.6812372 0.805383
000070 b6 ad 27 3f 28 33 66 3f 87 a6 7e 3f ca 3c 14 3f
       0.65499437 0.8992181 0.9947285 0.57905257

enc1.layer.4.bias f4 [32]
000000 00 89 b0 3e 11 5c 14 3d 0d c9 70 3d 92 58 f3 bc
       0.34479523 0.036220614 0.058785487 -0.02970532
000010 e5 f0 cb bb de 49 2c 3d 8e 41 ce 3d 06 e6 df bd
       -0.006223785 0.042062633 0.10071097 -0.10932545
000020 66 2a cf bd 49 c2 82 3e b0 a3 a5 3d 64 79 89 3e
       -0.10115509 0.25538853 0.080878615 0.26850426
000030 78 75 c8 3d 4e 8c c6 3c 18 b0 df 3e 1a 3a d8 3d
       0.097880304 0.024236824 0.43689036 0.10557957
000040 c9 df b0 3b 5e a6 ad 3c cd 35 61 3e 83 c5 f2 3d
       0.005397771 0.021197494 0.2199318 0.118540786
000050 d2 4d ad 3c b8 d5 60 3d 37 bf 3b 3d d2 53 be bd
       0.021155272 0.054891318 0.045836654 -0.09293331
000060 39 48 df 3d d5 aa ac bc 83 b3 ad 3d 05 46 1b be
       0.10902447 -0.021077553 0.08481505 -0.15163429
000070 5e 04 ad 3e 2a b8 f5 3d 65 fd 0e 3e 4d 7e 3a bd
       0.33792394 0.11998017 0.1396385 -0.045530606

enc1.layer.4.running_mean f4 [32]
000000 df 42 b5 be 5e 7b 19 3e a8 7e 26 bf 93 fd 23 3f
       -0.3540258 0.14988467 -0.6503701 0.640588
000010 2c b6 61 3f 0a ac 8f 3f 80 cf 22 3e 46 4f b0 be
       0.881686 1.1224377 0.15899467 -0.3443548
000020 a9 ae 49 be e2 a0 58 bf 2d b6 ad 3f 08 8a 26 3e
       -0.19695534 -0.8462049 1.3571221 0.16263592
000030 06 f5 10 3f 90 1c ad 3e 4c 01 5d be 23 61 9d 3c
       0.56623876 0.33810854 -0.21582526 0.019211357
000040 40 ba 70 3f 04 9d a7 3e 90 1d 32 3f 55 bd 7f bf
       0.94034195 0.3273698 0.6957636 -0.9989827
000050 bc 2f 7f be d5 74 ea 3e dd ed ef be 78 1e 26 bf
       -0.24920553 0.4579226 -0.46861163 -0.6489024
000060 5a af 84 bf ca f3 00 be f1 f8 3e 3f 64 79 3e 3d
       -1.0366013 -0.12592998 0.74598604 0.046502486
000070 08 a3 61 3f 00 55 7a be df 31 8c bf ce f2 00 bf
       0.8813939 -0.24446487 -1.095272 -0.5037049

enc1.layer.4.running_var f4 [32]
000000 c6 5e f0 3c 70 b2 6b 3c 6f c4 b9 3d a2 62 20 3e
       0.029342066 0.0143858045 0.0907067 0.15662625
000010 91 0b 9d 3e 98 7b 86 3e e6 2e b4 3d c7 2b 0e 3d
       0.30672887 0.2626617 0.08798008 0.034709718
000020 a2 7c 74 3c e2 99 cb 3e e0 e7 df 3e f0 85 43 3d
       0.014922293 0.3976584 0.43731594 0.047735155
000030 28 8f a4 3d f3 45 cd 3c d9 40 ad 3d b2 5d f5 3a
       0.080351174 0.025057768 0.08459634 0.001871994
000040 3f ee 2b 3e de 9a 75 3d ce f9 5e 3e 7f d3 88 3e
       0.16790102 0.059962146 0.2177498 0.2672386
000050 98 ff dd 3c ea e2 34 3d 63 8f 94 3d 92 42 b3 3d
       0.027099416 0.044161715 0.07253911 0.08752932
000060 10 15 82 3e c4 76 ac 3c 18 d1 d5 3d 20 5a 82 3c
       0.25406694 0.021052726 0.10440272 0.015912116
000070 07 4b 9f 3e 2c 9b 34 3e 31 10 81 3e 85 c0 c4 3d
       0.3111193 0.17637318 0.25207666 0.09607033

enc2.layer.0.weight f4 [32, 1, 3, 3]
000000 c4 72 11 3e 0a c4 9c bc f2 9f 8c bd 62 36 4c 3c
       0.14203936 -0.019136447 -0.06866445 0.012464138
000010 94 23 f0 bd 40 bc 8d be 92 d6 e9 be 38 0d ea bc
       -0.11725536 -0.27682686 -0.45671517 -0.028570756
000020 6a 47 af 3b 26 fa 91 3d c2 39 35 3e 76 54 c4 be
       0.0053490894 0.0712779 0.17697814 -0.3834569
000030 4b 34 68 3d 85 8d 7e 3d 26 cd c6 3d 95 96 a9 be
       0.056690495 0.062146682 0.09707098 -0.33122697
000040 1e 25 7e 3e 04 29 a7 3e 64 4a a4 be 86 d0 03 3e
       0.24818847 0.3264848 -0.32088006 0.12872514
000050 bd cb 1b 3b 06 10 2a be af db 5e 3e 7b 1b a7 3d
       0.002377256 -0.16607675 0.2176349 0.08159538
000060 32 ff 50 be 3c 17 f3 3d 50 03 59 be 72 85 ff bd
       -0.2040985 0.11869666 -0.2119267 -0.124766245
000070 5b 7b 18 be 0c fa 6a be f2 52 e4 bd ac f3 a5 3c
       -0.14890806 -0.22946948 -0.11148633 0.020257793
000080 aa 9b c7 3c a2 73 ba be a2 3c 9a bd 0d 83 b4 be
       0.024366219 -0.36416346 -0.07531096 -0.35256234
000090 da f1 56 be 25 86 97 be 44 2f 12 3e 8d 27 6b 3d
       -0.20990697 -0.29594532 0.14275843 0.057410765
0000a0 d4 fb b5 3d 61 90 89 3d 57 56 37 3e 21 ae 81 3e
       0.08885923 0.06716991 0.1790403 0.25328162
0000b0 44 2b 97 bd 9c c1 9c 3e 87 f0 ec 3d 75 8a ad 3d
       -0.07381299 0.30616462 0.115693145 0.08473674
0000c0 d9 b4 a9 3e 53 a4 ec 3d 99 32 68 3d b3 36 e9 bd
       0.33145788 0.1155478 0.05668888 -0.11387386
0000d0 a3 07 5b be 1c 68 2f 3e b8 f7 37 bd 21 2e b2 3e
       -0.21389632 0.17129558 -0.044913977 0.3480082
0000e0 bd 68 0f 3e 0e ac 84 bd 85 67 4d 3e d2 58 fa 3a
       0.14004798 -0.06478129 0.20059021 0.0019099957
0000f0 c9 3c b3 3d 97 69 11 bc 28 d9 7b be fb ba ad be
       0.08751828 -0.008875272 -0.24594557 -0.33931717
000100 36 ea 30 be 58 17 4f be 3a 00 a1 be 1d 8a 3b be
       -0.17276844 -0.20223749 -0.31445485 -0.18314405
000110 fd d6 e2 bc b4 63 8b be be e1 87 be 5e d9 80 bd
       -0.027690405 -0.27224505 -0.26539415 -0.062914595
000120 13 57 61 be b9 8f dc bd 88 f2 49 bc 7a 0d 26 be
       -0.22005872 -0.107696004 -0.01232589 -0.16216078
000130 b5 90 4d be 13 4f 31 bc 69 72 3c be 98 c8 77 be
       -0.20074733 -0.010822075 -0.18403019 -0.24197614
000140 86 05 b4 bc cd cb 2a ba 8a 61 74 3e 97 8c 1b 3e
       -0.02197529 -0.0006515354 0.23865333 0.1519035
000150 ba 2c ab 3d 7b c6 27 3e f9 05 32 3d d0 29 15 3e
       0.0835814 0.16384308 0.043462727 0.14566731
000160 a7 da 4d 3e d8 87 c3 3e 49 a4 e9 3d eb e9 2f 3e
       0.2010294 0.38189578 0.11408288 0.17179076
000170 4a 31 c9 3e fb 43 96 be b5 55 f1 3d bd 14 cb 3e
       0.39295417 -0.2934874 0.117839254 0.3966426
000180 66 3f b0 3d 1f a2 42 3e 20 5e 4b 3e 08 90 7a 3e
       0.08605842 0.19007157 0.19860125 0.24469006
000190 d6 51 7b bc d0 cf 5b be a9 78 69 3e f6 80 ba bc
       -0.015339335 -0.21465993 0.22799934 -0.022766571
0001a0 f6 2f 5f be e0 89 95 3e e9 27 17 3e 68 28 cc be
       -0.2179564 0.29206753 0.14761318 -0.39874578
0001b0 a9 73 89 3c 79 d0 14 3d f4 59 0b 3e 6e c2 a3 3d
       0.016778784 0.036331628 0.13608533 0.07996069
0001c0 c1 03 79 3d 9c 7a b5 bd 7a dd 8f 3e 40 c0 8b be
       0.060794596 -0.088612765 0.2809866 -0.27295113
0001d0 ae de b8 be c5 fb 93 be be 85 6b 3e 07 61 77 3e
       -0.3610739 -0.28903022 0.23000237 0.24158107
0001e0 8e 02 8a 3e 48 9e 89 3e 3f 33 76 3d 9c 55 49 3e
       0.26955074 0.26878572 0.060107466 0.19661564
0001f0 47 0e 0a 3e 4e 34 aa bd 73 99 9d 3e 01 dd f8 bd
       0.13482009 -0.083107576 0.30781135 -0.12151528
000200 04 f9 1b 3d 03 26 f3 3c 80 a9 23 be 39 4d 00 be
       0.038079277 0.029681211 -0.15982628 -0.12529458
000210 33 37 fb 3d 40 50 37 be 7a 51 09 be be 2c 7c be
       0.12266388 -0.17901707 -0.13409987 -0.24626443
000220 77 d1 4e be 1e ff 93 3e a6 68 12 3e 54 14 ef bd
       -0.20197092 0.28905576 0.14297733 -0.11673799
000230 c9 dc cd 3d ea b3 04 3e 4c bc b5 3e d7 52 7a 3e
       0.10051877 0.12959257 0.35495222 0.24445663
000240 70 5c fc bd f0 30 da bd 4d e8 23 3e 8a e5 4e bd
       -0.123223186 -0.10653865 0.16006584 -0.050511874
000250 14 53 25 be dc 3c f8 bd b4 a4 0c be 75 a9 71 be
       -0.16144973 -0.12120983 -0.13734704 -0.23599799
000260 45 d9 99 be 91 4b ef bd 59 40 ad be fd 65 2b be
       -0.30048576 -0.11684335 -0.33838156 -0.16738124
000270 ba 48 9d be 65 91 a1 be 6f e9 74 be 87 4c 94 bd
       -0.30719548 -0.3155624 -0.23917173 -0.07241159
000280 bf 80 b8 3d 1b 2e 4e 3e 44 45 1b 3e 8a a6 e4 bd
       0.09008931 0.20134775 0.15163141 -0.11164577
000290 d3 0a 38 3d 9f cf 00 be ad b6 00 3d a8 c5 31 3e
       0.044932198 -0.12579201 0.031424213 0.17360556
0002a0 86 20 90 be 99 89 d6 bc 05 1a 2f 3e 56 05 6f 3b
       -0.28149813 -0.026188659 0.1709977 0.0036471686
0002b0 42 e1 4f 3e f5 94 10 3c 46 24 5e be 12 09 5f be
       0.20300773 0.008824577 -0.21693525 -0.21780804
0002c0 64 73 af 3d 5f f4 e4 be f1 e1 97 be 75 35 32 3e
       0.08566931 -0.4471769 -0.29664567 0.17403205
0002d0 7e 4a d0 bc fe c0 27 3c 9e e2 98 3e 98 46 c4 3d
       -0.025426146 0.010238884 0.29860395 0.09583777
0002e0 ec 96 32 3e f7 37 92 3e 66 7c 01 3e 10 6c d0 3e
       0.17440385 0.28558323 0.1264511 0.40707445
0002f0 ae eb af bd cd cf 38 bd fb fd 8b 3e 6c 70 7d 3e
       -0.08589874 -0.04512005 0.2734221 0.24749917
000300 22 24 17 be a5 51 85 3e 00 8e 42 be e9 8e c7 be
       -0.14759877 0.26038852 -0.18999481 -0.3897622
000310 f9 01 f1 bd 51 81 4d be 60 03 85 3d ed 95 74 3d
       -0.117679544 -0.20068862 0.06494784 0.059713293
000320 90 0f 25 3e 4d 64 86 be 1c ff 56 be 85 1c 1f 3e
       0.16119218 -0.26248398 -0.20995754 0.15538223
000330 ad 50 37 3e 82 c1 9a bc 34 39 bf 3e 20 31 70 3d
       0.17901869 -0.0188911 0.3734833 0.0586406
000340 c3 70 67 3e 5f ee fa 3d c9 8d 2a 3e 82 2d ee 3e
       0.22601609 0.12252497 0.16655649 0.46519095
000350 61 fc 2c 3e 08 3b 8a 3d 4a 24 10 3d 62 f5 32 bd
       0.1689315 0.067495406 0.035190858 -0.043691047
000360 60 8e 68 3e c9 91 83 3e 41 bd 7f 3e 30 48 f2 bd
       0.22710562 0.25697163 0.24974538 -0.11830175
000370 80 81 11 be ef b5 d1 bd b6 bc b4 bd 0d 97 30 be
       -0.14209557 -0.10239779 -0.08825056 -0.17245121
000380 64 2d 7f be 05 c7 3b be 64 4f ec be 30 2a 4e 3d
       -0.24919659 -0.18337639 -0.4615432 0.050333202
000390 1c 85 7d be 1b 4c 46 be 88 ea 07 3d f6 e3 42 be
       -0.24757808 -0.1936497 0.03318265 -0.19032273
0003a0 42 64 eb bc 29 b7 36 3c 8d 65 8f 3e 6d 1c c8 3d
       -0.02873433 0.011152067 0.28007165 0.09771047
0003b0 7f 21 48 be d3 4d 62 be a9 d2 4e be 95 36 9a be
       -0.19544028 -0.221 -0.20197548 -0.30119768
0003c0 e9 04 04 bd 08 d1 c8 bd 77 58 83 bd 23 fd 71 be
       -0.032231245 -0.098054945 -0.06413358 -0.2363172
0003d0 89 d1 8d 3e 80 00 35 be 8a 1c e1 bd 28 9e fd 3d
       0.27698925 -0.17675972 -0.109917715 0.123836815
0003e0 65 ce 5f be 92 19 56 3e 48 c1 7b bd 07 be 3e be
       -0.21856077 0.20908192 -0.061463624 -0.18627177
0003f0 7d bc e8 bc 52 3c 7d bd af 54 1e 3e b9 0f 14 3e
       -0.02841019 -0.061825104 0.15461992 0.14459123

enc2.layer.1.weight f4 [32]
000000 b7 bf 78 3f 23 40 81 3f a8 44 80 3f 38 d4 85 3f
       0.97167534 1.0097698 1.0020952 1.0455389
000010 3d 57 79 3f f8 a9 81 3f 94 37 80 3f c5 15 81 3f
       0.9739874 1.0129995 1.0016961 1.0084769
000020 8d 15 87 3f 89 ac 93 3f 65 1e 84 3f b3 e0 84 3f
       1.0553452 1.1537029 1.0321776 1.0381073
000030 10 7e 8d 3f 4d 50 83 3f ce 44 72 3f 35 81 5a 3f
       1.1054096 1.0258881 0.9463624 0.85353404
000040 d9 e0 8f 3f 7f d9 76 3f 4c 73 72 3f 30 35 74 3f
       1.1240493 0.9642562 0.9470718 0.9539366
000050 c5 6e 69 3f 23 6d 67 3f 93 e2 78 3f 1a a0 87 3f
       0.91184646 0.90400904 0.97220725 1.0595734
000060 10 4a 7a 3f fd 75 68 3f 1a 0f 83 3f 70 ff 61 3f
       0.9776926 0.90805036 1.0238984 0.8828039
000070 f1 83 78 3f ec 86 69 3f 1a c8 71 3f 88 64 7b 3f
       0.97076327 0.912215 0.94445956 0.98200274

enc2.layer.1.bias f4 [32]
000000 da 31 12 3e cd f7 ea 3d 12 87 93 3d 68 f3 d2 bb
       0.1427683 0.114730455 0.07203497 -0.0064377077
000010 df 8f 32 3d c6 d7 22 3e f6 ff 24 3e e8 ad 5b 3e
       0.043594237 0.15902624 0.16113266 0.21453059
000020 61 3c b2 3d 2b 67 04 3e bb 4c d6 3c 90 c0 1f 3c
       0.087029226 0.1292998 0.026159635 0.0097505
000030 c1 9a bd bc 3c 42 8c 3d b6 42 c6 3c 8b c7 19 3d
       -0.023145081 0.06848571 0.024201732 0.037543815
000040 52 6c 32 3e 24 19 30 3e 11 ea 20 bd 36 b3 cd bc
       0.17424133 0.1719709 -0.039285723 -0.025109868
000050 4a bd d5 3c 12 3f 8a bd e2 9f 2a 3d 05 ed 15 3d
       0.026091237 -0.06750311 0.041656382 0.036602993
000060 2f 8e 8a 3d 3c e8 4d 3c ca d2 9a 3d 39 f6 04 be
       0.067654006 0.012567576 0.07559736 -0.12984551
000070 63 c2 de bd 42 15 9f 3c cb 52 d1 3c 03 61 a9 3d
       -0.1087692 0.019419316 0.025552174 0.08270457

enc2.layer.1.running_mean f4 [32]
000000 e0 1a f4 be b4 38 c7 3d b3 d9 07 be be f6 5b be
       -0.47676754 0.09727612 -0.1326664 -0.21480843
000010 7a 8f 8f 3d 15 c6 8f 3e cf 1b c7 3d f4 ee a1 be
       0.07009788 0.28080812 0.09722101 -0.3162762
000020 ed d4 9a be 0a 81 46 3f 6c 5b a9 3e 84 78 9a 3c
       -0.30240574 0.7754065 0.33077562 0.018856294
000030 1d 81 21 bd 57 a7 93 3e 12 b9 06 be 48 00 42 3e
       -0.039429773 0.28838608 -0.13156536 0.1894542
000040 68 0f 8d be ac 00 b0 be 8e 74 5c 3c c8 62 9e be
       -0.27550817 -0.34375513 0.013455523 -0.3093474
000050 c2 0c 72 3e 50 f9 be bd cb ad 60 3e 0c 83 da 3e
       0.23637679 -0.09324896 0.21941297 0.42678106
000060 3a 4b 55 bd e9 18 83 be 4e 05 69 be 02 95 ae bd
       -0.052073695 -0.25604942 -0.2275593 -0.08524515
000070 26 3e e8 3c 58 7f 0b be 69 3a 25 be 46 5a 33 3c
       0.028349947 -0.13622797 -0.16135563 0.010946816

enc2.layer.1.running_var f4 [32]
000000 c0 40 5e 3e 6a f0 d2 3d d9 2e 0d 3d 6e 19 b4 3d
       0.21704388 0.102997616 0.034468506 0.08793913
000010 2b 71 c5 3c b6 39 1b 3e 09 ff b7 3c cf b7 25 3e
       0.024101814 0.15158734 0.022460477 0.16183399
000020 a7 85 19 3e 82 ac 18 3f bd 5a 35 3e e6 8f 3a 3e
       0.1499239 0.59638226 0.17710395 0.18218955
000030 18 b4 c9 3c fc 76 23 3e ce 6c 74 3d 5e 0a 91 3d
       0.024622008 0.15963358 0.059674077 0.070820555
000040 a6 97 f3 3d 50 62 58 3e 46 a3 97 3c 3f 62 14 3e
       0.11894159 0.21131253 0.018510472 0.14490603
000050 a5 f3 b9 3d 91 c5 5a 3d 10 f7 a0 3d d6 37 8e 3e
       0.09079675 0.05341107 0.078596234 0.27776974
000060 22 d4 d3 3c f9 ba fc 3d 04 aa d5 3d bc e2 6b 3d
       0.025857989 0.1234035 0.104328185 0.057589278
000070 42 cc 2f 3c 3f 7b 44 3d 9b 3c 6b 3d 71 d8 ea 3c
       0.010729851 0.0479691 0.057430845 0.02866766

enc2.layer.3.weight f4 [64, 32, 1, 1]
000000 d9 d2 db 3c b1 15 a5 bd 08 b7 96 3d 3b 85 c9 bd
       0.026833938 -0.08060778 0.07359129 -0.09839865
000010 66 e7 ca bb d4 66 35 3e 65 a2 86 3e 70 e4 13 be
       -0.0061921356 0.17715007 0.26295772 -0.1444261
000020 77 48 ce 3d 63 80 69 bd 1d 6d 01 3d 30 16 e7 bd
       0.10072415 -0.057007205 0.0315982 -0.11283529
000030 b8 db fd 3d 01 66 59 3e 31 99 ab 3d a0 cf d7 3b
       0.12395424 0.21230318 0.08378828 0.00658603
000040 35 a2 c1 bc c2 26 60 be 15 73 8e bd 17 2d 76 3d
       -0.023636917 -0.21889785 -0.06955544 0.060101595
000050 ea 3d 49 3d 41 a7 7a bd 88 6f dd 3d df 15 45 3e
       0.04913131 -0.061194662 0.108122885 0.19246624
000060 0d 93 39 be 1d a6 2f bd 3c 87 2a 3e 75 d5 5d 3c
       -0.18122502 -0.042883027 0.1665315 0.013539662
000070 1b 19 1c be d3 37 d2 3d f5 52 27 bc 4f 4b 87 3c
       -0.15243952 0.10264554 -0.01021265 0.016515402
000080 19 1f 91 3d 19 37 a5 bd 8a 1b f2 bd 04 5e 2e be
       0.070860095 -0.0806715 -0.11821659 -0.17028052
000090 d1 7b c2 bd 6b 17 7c be 87 e6 a0 be df 97 22 3c
       -0.09496272 -0.24618308 -0.31425878 0.009923904
0000a0 ac 11 f2 3c 7e b0 1d 3e 7b 2a 01 ba 68 da 78 3c
       0.029549442 0.15399358 -0.00049272896 0.015188791
0000b0 25 80 1c 3d 75 29 b7 3d 30 75 6d bd 2e 04 d2 bb
       0.038208146 0.08943454 -0.057973087 -0.0064091897
0000c0 86 3c b6 bd 39 0d 46 3e 91 a3 b4 bd 9f 66 3d bd
       -0.08898263 0.19340982 -0.0882026 -0.046240445
0000d0 7b b6 55 bb 14 30 59 bc ce 2e a2 bd 38 ac 31 be
       -0.0032609988 -0.013256092 -0.079190835 -0.17350852
0000e0 32 c6 3e 3d 87 2c d4 3d f9 38 8f 3d 92 5f 06 bd
       0.046575733 0.103600554 0.069932885 -0.032805987
0000f0 6f 1c c9 3c 90 36 8f bd 8c 1d f4 bc fa 1b c4 bd
       0.024549691 -0.06992829 -0.029799245 -0.095756486
000100 ec 70 0a 3e cc 4a 96 bc e0 48 f6 bd a8 2e b5 bd
       0.13519639 -0.018346213 -0.120256186 -0.088467896
000110 b5 00 35 3e a0 d2 ef bc ba b7 be bb 25 f8 ad 3c
       0.17676051 -0.029275239 -0.0058202418 0.021236489
000120 ae ee 50 3e 7c ba 41 3d 32 dd 43 3e 1c dd 40 3e
       0.20403549 0.047296986 0.19127348 0.18834347
000130 f8 2b be 3d eb 83 f6 3d 00 8f 36 3e 21 24 ac bd
       0.0928573 0.1203688 0.17827988 -0.084053285
000140 64 e4 3c 3e 75 9e ee 3d fc 76 bc 3d 0a d7 0d 3e
       0.18446499 0.11651317 0.09202382 0.13851562
000150 c3 21 03 be 13 a3 16 bd 72 32 9e 3d df d1 bb 3d
       -0.12805848 -0.036776613 0.077244654 0.09170889
000160 9c 89 07 3d 53 cc 09 3b 19 39 95 bd 18 43 8f 3d
       0.03309022 0.0021026328 -0.07286281 0.06995219
000170 17 c1 04 3e d3 3d 1d 3c 26 92 93 bd 8d 79 f4 bd
       0.12964283 0.00959726 -0.0720561 -0.119372465
000180 61 ce 89 3d bf 16 09 3e 73 56 68 be bb 60 34 be
       0.06728817 0.13387583 -0.22689228 -0.17615025
000190 aa c9 db bb 3f 93 83 3d fd f0 c9 3c e5 9f 29 3d
       -0.00670739 0.06424569 0.024651045 0.041412253
0001a0 29 83 90 bd 43 30 25 be 68 13 c3 3d 07 64 d1 3d
       -0.07056267 -0.16131692 0.09525186 0.10224157
0001b0 45 50 f1 3c 28 72 4d 3e 80 f9 81 3d 03 1b ec ba
       0.02945722 0.20063078 0.063464165 -0.0018013421
0001c0 29 5b cf bd 12 8a 47 bc 29 8b b8 3d ce e8 f9 bd
       -0.10124809 -0.012178915 0.09010918 -0.12202607
0001d0 9e 66 20 be b4 2a e0 3d 2a 3e ad be 22 c1 7c be
       -0.15664145 0.10945645 -0.3383649 -0.2468305
0001e0 0b d8 7d 3d 4a 8c 3f 3d c4 51 02 bd a8 4c 84 3d
       0.061973613 0.04676465 -0.03181626 0.064599335
0001f0 2f c7 7b 3c 25 3c 88 bd 3c 79 86 3d 41 99 17 3d
       0.015367313 -0.06652097 0.06566092 0.03701139
000200 11 0e 81 bc df 41 c1 bc d8 9c 4b 3e 7e e0 08 3e
       -0.015753778 -0.02359098 0.1988405 0.13366887
000210 1e 31 d9 3b 2a 6b be 3c 6e ec 7f 3d 3c f7 1b 3e
       0.0066281697 0.02324446 0.062481336 0.15231031
000220 46 8b bc 3d 48 4e c9 3d d8 96 45 3e d5 9c 33 3e
       0.09206252 0.09829384 0.19295824 0.17540295
000230 85 83 3b be 31 fb 21 3e c0 8d 43 3e cd 3f f5 3b
       -0.1831189 0.15818478 0.19097042 0.0074844123
000240 90 12 47 bd e1 4a 2b bc be ee e7 3d 2e da 9e 3d
       -0.048601687 -0.010454864 0.11324833 0.07756458
000250 d3 b3 8a 3b d0 5b 50 3d 5e 95 6a 3d 6d 4e 35 bd
       0.0042328625 0.05086881 0.057271354 -0.044264246
000260 5e 16 ea 3b 37 2d a1 3d 8d 3e bd bc cb c8 19 3d
       0.0071437797 0.07869952 -0.023101116 0.037545007
000270 73 b9 97 bd 9d 42 a1 bd 0e 52 76 3d 3d 6d 8f bc
       -0.074084185 -0.078740336 0.060136847 -0.017508144
000280 e2 b5 9e 3b 2c c5 88 3d 38 e9 f8 bc e2 92 b6 bc
       0.0048434595 0.066782326 -0.030384645 -0.022286836
000290 10 cc 6f bb bc e2 07 be 44 fc 5e be df ad 04 3e
       -0.0036590137 -0.13270086 -0.21775919 0.12956952
0002a0 fd e9 da bd 7a 28 49 3e 51 d4 ff bd e6 4d 89 bd
       -0.10689161 0.19644347 -0.12491668 -0.06704311
0002b0 18 48 19 3d 99 2d d2 bc 9d 95 d6 bd 45 5e 45 bd
       0.03742227 -0.025656508 -0.10477755 -0.048185606
0002c0 05 0d e2 bc 80 57 b3 bd cb 63 82 bc 22 36 7b 3d
       -0.027594099 -0.08756924 -0.015916726 0.061330922
0002d0 4d 1e e5 3d 10 0a 99 bd 4d 5f a6 bd 95 37 04 3d
       0.1118742 -0.074726224 -0.08123646 0.03227957
0002e0 16 13 32 bd f0 a6 a9 bd 30 5c 24 be c2 22 3f 3c
       -0.043475233 -0.08283794 -0.16050792 0.011666002
0002f0 06 1f 34 3e 77 61 4b 3d ad 40 ca bd 69 0e 56 3d
       0.1758996 0.049653497 -0.09875617 0.052259836
000300 c2 b1 a5 ba 2d 8b 69 3d 33 bd 2e 3e 85 ca 64 3e
       -0.0012641477 0.057017494 0.17064361 0.2234288
000310 d6 56 ed 3d 09 c8 65 3e 17 c1 c7 bd 2b 01 28 be
       0.11588828 0.22439589 -0.09753626 -0.16406696
000320 83 34 d9 bc 22 e8 01 3e a7 bb 8d 3d e0 3f e5 3c
       -0.026514297 0.12686208 0.069205575 0.02798456
000330 1a ac a9 bc d8 b2 d5 bc 35 27 b1 3d c5 73 49 bc
       -0.020711947 -0.026086256 0.08650056 -0.012295668
000340 17 94 22 3d 39 c6 53 bc 31 80 6a 3d 19 b7 41 be
       0.03969201 -0.012925678 0.05725116 -0.18917502
000350 99 19 62 bc 3f a9 d8 3c 13 c6 1f 3e d6 1f 3d 3d
       -0.013800048 0.02644789 0.15602903 0.04617294
000360 e1 37 19 bd 0c 48 b9 bc 85 93 a6 3d 80 a7 9c bc
       -0.037406806 -0.022617362 0.08133606 -0.019122839
000370 c7 cb f6 bd 5f ba 0c 3d a8 ec c6 bc 48 54 8c 3d
       -0.12050586 0.034357425 -0.024282768 0.06852013
000380 53 69 49 3c ea 1a ff 3b 05 19 d0 3d 4b e9 16 3c
       0.012293178 0.007785191 0.10161022 0.009210895
000390 fb 78 eb 3d 37 0e 44 3e 20 31 a5 bc c2 f8 17 3e
       0.114976846 0.19146048 -0.020165026 0.14840987
0003a0 56 15 05 be 25 7a 6d be 24 73 60 3e 10 02 89 bd
       -0.1299642 -0.23191126 0.21918923 -0.066898465
0003b0 c9 50 8f bd 88 48 af 3d 49 f8 57 3e ed 3b 88 bd
       -0.069978304 0.08558756 0.21090807 -0.06652055
0003c0 e1 65 e8 bd a2 42 1c 3d e8 3e 5a 3d c5 9f 2d 3e
       -0.11347557 0.038149484 0.05328265 0.16955478
0003d0 f5 54 47 bd ba d5 8d bd 6e 18 9a bd 37 e1 3e be
       -0.048665006 -0.06925531 -0.07524191 -0.186406
0003e0 9c 4a a1 bd 6d be 80 3d 81 69 8b bd 7c f3 5d bb
       -0.07875559 0.06286321 -0.06807233 -0.0033867052
0003f0 3c 35 6a bd 8d d8 c1 3d 7f 83 5d bd 8c 4d 6a bd
       -0.057179675 0.09465132 -0.054080483 -0.05720286

enc2.layer.4.weight f4 [64]
000000 49 b9 57 3f 8e 6f 4b 3f 2c b0 70 3f c6 40 25 3f
       0.842671 0.79467094 0.94018817 0.6455196
000010 a7 dc 38 3f b4 f7 85 3f 04 4a 72 3f 8d 17 5a 3f
       0.7221169 1.0466218 0.9464419 0.85192186
000020 cf c6 58 3f c4 c7 20 3f 35 ad 6d 3f 20 53 31 3f
       0.8467836 0.6280482 0.9284242 0.69267464
000030 2b 94 8a 3f de 85 1c 3f 93 ad 83 3f 11 8f 4a 3f
       1.0826467 0.61141765 1.0287346 0.7912455
000040 ac 06 4c 3f a0 ab 80 3f 72 c0 78 3f 00 8d 5b 3f
       0.7969768 1.0052376 0.9716865 0.85762024
000050 5a 5f 62 3f dc 55 40 3f 31 af 3c 3f 61 69 4e 3f
       0.88426745 0.7513101 0.7370482 0.80629545
000060 aa a8 27 3f 1f f5 29 3f 07 68 2d 3f a5 2a 59 3f
       0.65491736 0.6638965 0.6773686 0.84830695
000070 69 0b 37 3f 76 25 5c 3f e3 37 04 3f 15 8a 41 3f
       0.71501786 0.8599466 0.51647776 0.7560132
000080 81 68 0c 3f 39 bb 2b 3f f9 b9 69 3f f5 99 48 3f
       0.5484696 0.67082554 0.91299397 0.7835992
000090 c1 71 13 3f a1 34 67 3f 1e 8e 60 3f 5d 0c 7e 3f
       0.5759545 0.9031468 0.87716854 0.99237615
0000a0 5d 2b 4e 3f 49 68 58 3f 0d b6 72 3f cf 4f 80 3f
       0.8053492 0.84534127 0.9480904 1.0024356
0000b0 f3 6d 46 3f c5 ed 50 3f f5 14 60 3f 10 0a 3a 3f
       0.7751152 0.8161281 0.8753198 0.72671604
0000c0 66 08 7d 3f 99 af 2d 3f ef c0 4a 3f 4d b7 45 3f
       0.9884094 0.67846066 0.79200643 0.7723282
0000d0 c8 0f 60 3f a5 90 80 3f 1a ba 20 3f b2 93 4c 3f
       0.8752408 1.0044142 0.6278397 0.79912865
0000e0 d8 96 67 3f 1e 71 17 3f e4 c8 4f 3f 62 a2 36 3f
       0.90464544 0.5915698 0.8116591 0.71341527
0000f0 9f 3e 4c 3f fc 66 66 3f b3 e1 44 3f 92 91 51 3f
       0.7978305 0.9000089 0.7690689 0.8186275

enc2.layer.4.bias f4 [64]
000000 ff 9f ba bc 7f 8b 97 bc 22 d8 28 bd 40 75 31 be
       -0.02278137 -0.018499134 -0.041221745 -0.17329884
000010 8d 80 bd bd 01 aa 5a 3c df a0 39 bd f0 00 c2 bc
       -0.09253035 0.013346196 -0.045319434 -0.023682088
000020 1d bf eb bd 70 bb 9d be e2 8b 62 3d 49 cc 34 be
       -0.11511061 -0.30807066 0.055309184 -0.17656054
000030 89 b5 a1 3e 87 3a fc 39 a6 fe 2c 3d 99 ed 82 3d
       0.31583813 0.00048108792 0.04223504 0.063929744
000040 27 80 3c 3d 87 80 05 3c b0 66 cd bd b7 6a 40 bc
       0.046020653 0.008148319 -0.10029352 -0.011744193
000050 52 3a ef 3c 24 51 f2 bd 06 b0 4c bd 63 fc e6 bc
       0.029202614 -0.118318826 -0.049972557 -0.02819652
000060 01 4d 2f be fa a9 7d be 20 a5 df 3c 9f b9 07 3e
       -0.17119218 -0.24771872 0.027300417 0.13254403
000070 db a9 fb bd 58 9a 8e 3d 89 c6 24 bd b6 15 0a 3e
       -0.12288257 0.069630325 -0.0402284 0.13484845
000080 b5 6f 30 3d c1 af a2 be ca 19 cd 3d 85 14 17 bd
       0.043075282 -0.31774715 0.100146845 -0.036884803
000090 ab 56 91 bc 41 4e ed 3d f0 f3 fd 3d f3 49 29 3e
       -0.017741522 0.115871914 0.12400043 0.16532116
0000a0 0d a6 9c bd b1 ab a5 3d 72 26 39 bc be 1e b4 3d
       -0.07648859 0.08089388 -0.01130067 0.08794926
0000b0 c9 4a d7 3d 36 61 c6 3d 99 be 13 3d be 79 98 3d
       0.10512311 0.0968651 0.03607044 0.074450955
0000c0 36 52 e2 bc 1a 39 12 3d 0d 3d db 3d f8 58 e3 bd
       -0.027627092 0.035698988 0.10705004 -0.11100954
0000d0 48 26 29 bd d0 80 90 3d 4d bd 4e bd 98 e9 17 3d
       -0.041296273 0.07055819 -0.0504735 0.037088007
0000e0 0c 19 99 3d 0b 29 3a 3a 08 6c b2 3d 78 51 8f bd
       0.074754804 0.0007101453 0.087120116 -0.06997961
0000f0 d1 c9 ef bd c2 4d a7 bd 38 eb ba bd 58 04 50 be
       -0.11708415 -0.08169128 -0.09126896 -0.20314157

enc2.layer.4.running_mean f4 [64]
000000 de 36 8f 3e 8a 3e c1 be 33 9c 20 3f fe 81 8d be
       0.27971548 -0.37743026 0.6273834 -0.2763824
000010 65 37 1b 3f f5 96 85 be 37 de b8 3e 1a 86 16 3d
       0.606314 -0.26091734 0.36107036 0.036748983
000020 d8 3d 06 3f 48 38 f3 3e 9e 03 04 bf 43 9b bf bd
       0.52438116 0.47503877 -0.5156802 -0.09355786
000030 01 81 c3 bd 34 ec 37 3d 20 86 a6 3e 75 6f 81 bc
       -0.0954609 0.044902995 0.32524204 -0.015800217
000040 c4 9d 3c 3c 0b 93 cf bd 69 4c a4 3e 89 d9 88 3e
       0.011512224 -0.10135468 0.32089546 0.26728466
000050 40 15 4c bd 6f 70 69 3e 3a 29 43 3c 5e 31 b5 be
       -0.049824953 0.22796796 0.011911685 -0.35389227
000060 56 d9 e9 bd 8e f9 a5 be 0c 18 52 be ce 91 a9 3b
       -0.11418407 -0.32416958 -0.20516986 0.005174852
000070 16 b6 31 bf 07 24 2a bf 5a 8c 1e be e2 7f 8b bc
       -0.69418466 -0.66461223 -0.15483227 -0.017028753
000080 d4 24 6f be b7 bf 2d 3e 9e 71 d2 bd 77 de e0 bd
       -0.23353893 0.16967665 -0.10275577 -0.10979932
000090 11 2a e7 3e 85 74 98 be a9 ca 4b 3e d6 56 8b 3e
       0.45149282 -0.29776397 0.19901527 0.27214688
0000a0 ab 7e ce 3e 7c e8 0a bf 16 0f 9b 3c 90 00 95 3d
       0.40331015 -0.54260993 0.018928092 0.07275498
0000b0 80 d9 42 be 5c 13 14 bf 90 c5 22 3e 35 cd b4 be
       -0.19028282 -0.5784204 0.15895677 -0.3531281
0000c0 3f 7a d9 3e ba d8 cc 3d 0f 16 df bd 20 c3 71 be
       0.4247608 0.10002275 -0.10892879 -0.2360959
0000d0 2c c5 88 3e 1b 80 c3 3e f0 7b 73 be 68 f2 4a be
       0.2671293 0.38183674 -0.23777747 -0.19819033
0000e0 d4 27 bb bd 13 05 6f be 93 ba 9a be fc 7f a6 3e
       -0.09138456 -0.2334178 -0.3022047 0.3251952
0000f0 ff 42 15 3e 9b 72 f4 3d 04 01 86 be 9f dd 05 be
       0.14576338 0.11935922 -0.2617265 -0.13072823

enc2.layer.4.running_var f4 [64]
000000 c4 7d 80 3e 7a 5d 35 3e 85 62 5b 3e e1 9d 2b 3f
       0.25095952 0.1771144 0.21424301 0.6703778
000010 e4 34 7f 3e e2 fa 11 3e 28 6f 02 3e 6a 77 3c 3f
       0.2492252 0.1425586 0.12737715 0.7361971
000020 0a 52 01 3e 00 62 5f 3e 33 63 82 3e 1f 0a 2c 3e
       0.12628952 0.21814728 0.25466308 0.16800736
000030 38 ed b5 3e d8 a8 c8 3e 98 08 0c 3f de 48 29 3e
       0.35532546 0.39191318 0.54700613 0.16531703
000040 2f 20 2f 3e 62 e0 01 3e 0a 51 76 3e fb ce b7 3d
       0.17102121 0.12683252 0.24054351 0.08975025
000050 54 23 29 3f 8f 8a 61 3e 04 5c af 3d 6a e6 52 3f
       0.6606953 0.22025512 0.085624725 0.82382834
000060 bb fc 9d 3e 6a dd f7 3d b8 2b 3a 3f aa 1e 76 3e
       0.3085688 0.12102778 0.7272296 0.24035135
000070 18 5c e2 3e 86 c4 35 3f 7a 34 27 3e 20 7c 26 3e
       0.44210887 0.71002996 0.16328612 0.16258287
000080 7b 7a 3f 3e 34 24 0d 3e 04 2d 86 3e 2c 8f c6 3e
       0.18699066 0.13783342 0.2620622 0.38781106
000090 88 3c 09 3e dc ae ad 3e 6b 1b e5 3e 31 5f 09 3f
       0.13401997 0.3392247 0.4474748 0.53660876
0000a0 f0 86 3d 3e 44 69 36 3e 26 6d e8 3e 12 3d 71 3e
       0.18508506 0.17813593 0.45395774 0.23558453
0000b0 6b 38 32 3e a3 3d e0 3e c8 6b 20 3e aa 57 c9 3d
       0.17404334 0.43797025 0.15666115 0.09831174
0000c0 54 24 e8 3e f0 ff e8 3d 70 b3 e1 3e d7 92 12 3e
       0.45340216 0.11376941 0.44082212 0.14313827
0000d0 5a 58 99 3e 74 6b 2e 3e 55 97 87 3e 1a 3a 1b 3e
       0.2995022 0.17033178 0.26482645 0.15158883
0000e0 05 76 2d 3e 6e e0 39 3f 48 43 80 3e 08 5d 82 3e
       0.16939552 0.7260808 0.25051332 0.25461602
0000f0 b2 ed 4b 3e 6e 59 12 3e 54 51 f0 3e 81 22 ab 3e
       0.19914892 0.14291927 0.46937048 0.33424762

enc3.layer.0.weight f4 [64, 1, 3, 3]
000000 4d 2b ea bc 0c 5a 78 be 2d 5e 5e be f0 34 fb bd
       -0.0285851 -0.242531 -0.21715613 -0.122659564
000010 0c 46 c4 be 33 77 99 bb 9b 01 57 3e 18 40 6a be
       -0.38334692 -0.004683399 0.20996706 -0.22876012
000020 b0 bd fd bd fd 59 ff bd 14 59 c0 3c f8 d7 a5 3d
       -0.12389696 -0.12468336 0.023479976 0.080978334
000030 c0 d1 8a be 6c 3b 34 bd 3a b1 dd 3d 21 6d 3e 3e
       -0.27113152 -0.04400198 0.10824819 0.18596317
000040 54 48 a9 be a3 90 d1 be 3e 66 0a 3e 41 2e 91 3e
       -0.33062994 -0.40930662 0.13515565 0.283556
000050 16 27 6f 3e 4b 8a 03 3d 21 63 43 3e 89 68 1c 3e
       0.23354754 0.03211431 0.19080783 0.15274252
000060 3d 52 7d 3e 09 19 3d 3e 98 49 ca bc 90 87 af bd
       0.24738403 0.18466581 -0.024693295 -0.08570778
000070 e8 95 3b bc 91 cb cf bd 7f 31 f8 bd 27 fd 31 3e
       -0.011449315 -0.10146249 -0.12118816 0.17381726
000080 73 77 9a bd c9 eb 90 bd 0c 2e ab 3d 20 81 76 3e
       -0.075423144 -0.070762224 0.08358392 0.24072695
000090 0f fd fa 3c 4e dd 42 3e 2f 97 05 3d f1 cf 45 3d
       0.030638246 0.19029734 0.032614883 0.04829401
0000a0 89 44 58 bd 46 eb da 3d c1 09 64 3e af 2b 16 3e
       -0.052799735 0.10689406 0.22269346 0.14665101
0000b0 0d ab a7 3d 25 3d 92 3e 54 cc ab 3c c7 9d a1 bb
       0.08186922 0.28562275 0.020971455 -0.0049321386
0000c0 33 ad 19 3e d6 3a 2c 3e bb 09 cd 3c 6c 8e 28 be
       0.15007477 0.16819319 0.025029054 -0.1646058
0000d0 1a 26 6a 3e 87 4b 84 3e a1 5b 3f 3e 36 e1 84 3e
       0.22866097 0.25838873 0.18687297 0.25953072
0000e0 0b b3 79 3e c6 b3 40 be 41 e8 22 3e 3e 30 2f bd
       0.24384706 -0.18818578 0.1590891 -0.042770617
0000f0 ba d3 15 3e ad 3f 92 3e 75 bb 3d 3e fd b7 47 3e
       0.14631549 0.28564206 0.1852854 0.1950378
000100 d4 8b 04 bd 8e ea 63 be 2c 17 be bd ac 72 2d bb
       -0.032359913 -0.22257444 -0.092817634 -0.0026466055
000110 46 af c2 bd 0a 07 87 3d 40 e5 80 3b 77 ed 0d 3e
       -0.09506087 0.065931395 0.0039335787 0.13860117
000120 77 96 92 bc 4d 56 32 bd 4a 2b b4 3c 8b 95 02 bc
       -0.017894013 -0.043539334 0.021993298 -0.007970224
000130 2c 55 1c 3e 74 de 40 3e 58 34 95 3d 73 ca 60 3d
       0.15266865 0.18834859 0.072853744 0.05488057
000140 39 95 2b be 59 f9 f7 3d fb 85 44 3e 8c b1 85 3e
       -0.16756143 0.12108106 0.19191734 0.2611202
000150 4a 0e 49 be 48 02 89 be 38 82 a7 3e eb 53 96 be
       -0.19634357 -0.26759553 0.32716537 -0.293609
000160 f7 77 2a be 74 c7 2d be 0c 4a 2d be b7 69 86 be
       -0.16647325 -0.16970617 -0.16922778 -0.2625253
000170 78 b9 f1 3d 3c 98 f8 3d 93 76 86 3e 89 8c 7f be
       0.118029535 0.121384114 0.2626234 -0.24955954
000180 6c f7 cb be 4c fb 7f 3e 56 cd 39 be 50 cf a2 3d
       -0.39837205 0.24998206 -0.18144736 0.07949698
000190 bf ce 74 3e 18 ae a5 be d6 83 95 3d 6c 2a 46 3e
       0.23906992 -0.32359385 0.07300536 0.1935212
0001a0 6c ab 7b 3d 99 9c 05 be 0b 03 f3 3d 0c 7c b7 3e
       0.061442778 -0.13048019 0.11865815 0.35836828
0001b0 1a e7 2a bd 8f 83 08 bb bb 6d 6c 3e 3c b0 7b be
       -0.041724302 -0.0020830368 0.23088734 -0.24578947
0001c0 ab 66 56 be cc ce 3c be 88 98 1f 3c 92 6e ea bc
       -0.20937602 -0.18438262 0.009740956 -0.028617177
0001d0 f5 b9 d7 bd 89 50 19 be cd b7 18 be cc 4f 53 3e
       -0.10533515 -0.14972128 -0.14913864 0.20635909
0001e0 10 86 89 be 00 a2 1f 3d 64 e3 0e be 3a 8c 7e bd
       -0.26860094 0.038972855 -0.1395393 -0.06214545
0001f0 cd f4 b5 bd 33 d4 a4 be 6b 12 31 bd eb 41 65 be
       -0.08884583 -0.32193145 -0.043230455 -0.22388427
000200 78 a3 50 3d 15 a9 ae be ce d7 b8 be b6 0c 8d 3e
       0.050937146 -0.34113374 -0.36102146 0.2754876
000210 f6 e0 11 be b9 ef 52 3e ea 3f 59 3e fb 9a b4 bc
       -0.14245972 0.2059926 0.21215788 -0.022046557
000220 24 9e 0d 3e 4a b8 b7 be 1d ab 27 3e ff 08 81 be
       0.13829857 -0.3588279 0.16373868 -0.25202176
000230 86 f1 9a be f3 ec a3 bc fb 61 0c bc 4c c3 85 be
       -0.30262393 -0.020010447 -0.008568282 -0.26125562
000240 fe 87 25 3e af 35 c0 be 52 26 05 3e 2f f3 ac be
       0.16165158 -0.37540957 0.130029 -0.33779284
000250 d6 80 66 be 53 c2 97 3e 03 b0 18 be 18 64 dd 3d
       -0.22510085 0.29640445 -0.14910893 0.10810107
000260 90 79 99 3e 74 f7 64 bd c8 35 4d bc f4 8a 55 3e
       0.29975557 -0.055900052 -0.0125250295 0.20853788
000270 84 84 16 be b0 65 84 be 2d f7 96 3e 57 eb 19 3d
       -0.14698988 -0.2585883 0.29485455 0.037577953
000280 c1 cb 44 3e 22 af 05 3e fb 7c 4b be c8 9e ec 3d
       0.19218351 0.13055089 -0.19871895 0.115537226
000290 e2 0a 04 3d 9f aa da bd e1 52 6f 3d e9 50 8c bd
       0.03223694 -0.10677075 0.05842865 -0.0685137
0002a0 b4 9e f0 3c 13 40 b6 3e 39 dc a0 3e 7b 96 c9 3d
       0.02937255 0.3559576 0.31418017 0.09843155
0002b0 74 15 ee bd a5 7d 19 3e c4 8a d4 bd 02 57 e9 3d
       -0.116251856 0.14989336 -0.1037803 0.113935485
0002c0 bb 25 c2 3e 28 0c 84 3e 00 c8 a4 3e e2 b7 b3 3e
       0.3791941 0.25790524 0.32183838 0.3510123
0002d0 0a ab 11 bd 65 5e 95 be 35 9d 6b 3e e6 4d 25 3e
       -0.035563506 -0.2917358 0.23009188 0.16142997
0002e0 57 ca ad be d9 95 e9 3d b1 92 a7 3e 98 aa 34 3d
       -0.33943436 0.11405534 0.32729104 0.044108003
0002f0 52 2c 16 be 04 d0 01 3e c1 5d 9b 3e 6f cd fc 3d
       -0.14665344 0.12677008 0.30344966 0.12343871
000300 e3 dd bd bc 26 e5 e1 3e 6f cc 00 3e 6f e2 47 3e
       -0.023177093 0.4412014 0.12577985 0.19519971
000310 c7 5d 8b 3e 5a 61 31 3a 05 78 ec bd 29 2e 76 3e
       0.27219984 0.00067665207 -0.115463294 0.24041046
000320 89 0d a6 bd cf c6 26 be ae 0a 14 be 13 bd d8 be
       -0.081080504 -0.16286777 -0.14457199 -0.42331752
000330 e2 0d 46 be 87 e1 84 3e a3 35 3d 3e ce 42 88 be
       -0.19341233 0.25953314 0.18477492 -0.26613468
000340 da 75 3f bc 6a fb 32 3e 14 c9 46 3e c3 37 27 3e
       -0.011685813 0.1747872 0.19412643 0.16329865
000350 57 fb 32 3d 2d de 4e 3c db 1e bc 3e ca 85 98 3e
       0.043696728 0.012626213 0.3674229 0.29789573
000360 d2 e7 b9 3d 88 48 4a 3d ad 92 b3 3d 3b ee f6 3d
       0.09077419 0.049385577 0.087682106 0.120571576
000370 32 d8 4a 3e 9d a2 fd 3d f3 10 93 3d aa 4f 9b 3e
       0.19809034 0.12384532 0.07180967 0.30334216
000380 90 88 1a 3e 57 b2 b1 3d bd 09 2e 3e 25 de 8b be
       0.15091157 0.08676594 0.16995902 -0.2731792
000390 64 62 a9 be 5f ff 5a 3e cc c6 44 3e df 04 5e 3e
       -0.3308288 0.21386479 0.1921646 0.21681546
0003a0 73 03 83 be 2e e5 47 3d 03 e0 00 3e 7c f9 23 3e
       -0.2558857 0.048802547 0.12585454 0.1601314
0003b0 db 75 56 3e 2b c6 b0 bd 2c 3e 1b 3e cd f3 84 be
       0.20943396 -0.086315475 0.15160435 -0.25967255
0003c0 fc 9b 8c be a2 82 94 be 06 55 84 3e b2 1e 48 3e
       -0.27462757 -0.29005915 0.25846118 0.1954296
0003d0 8b c7 b5 bd ab 03 e8 3d 41 3b 19 3e 56 60 09 3a
       -0.088759504 0.113288246 0.1496401 0.00052404904
0003e0 7e e8 56 be 31 74 c5 3e e3 51 05 be ba 21 fe 3d
       -0.20987126 0.3856521 -0.13019519 0.124087766
0003f0 bf c5 77 3e 08 7f 4f be 93 49 32 3d 57 7c a5 be
       0.24196528 -0.20263302 0.043527197 -0.32321426

enc3.layer.1.weight f4 [64]
000000 f3 a7 89 3f 26 7d 65 3f 35 61 92 3f 18 e0 80 3f
       1.0754379 0.89644086 1.1435915 1.0068388
000010 1d 9d 87 3f 18 94 84 3f 00 c3 8a 3f 3b 07 80 3f
       1.0594822 1.0357695 1.0840759 1.0002207
000020 e5 89 7b 3f b3 68 76 3f d7 3e 66 3f a9 f0 78 3f
       0.98257285 0.9625351 0.89939636 0.9724222
000030 c2 73 7a 3f 2a 61 6c 3f 8e 1a 7a 3f 02 c7 6f 3f
       0.9783288 0.9233576 0.9769677 0.93663037
000040 42 07 61 3f fe b7 6f 3f 22 3f 86 3f ca c1 62 3f
       0.879017 0.93640125 1.0488017 0.8857695
000050 cf 9d 82 3f 5e 34 8e 3f 16 e9 45 3f 79 94 78 3f
       1.0204409 1.1109731 0.77308786 0.9710155
000060 ed 4a 85 3f 65 2a 8e 3f dd 30 62 3f 80 6d 67 3f
       1.041349 1.1106688 0.8835581 0.9040146
000070 f8 70 78 3f e0 c3 6b 3f be 8a 7d 3f 1a 52 4e 3f
       0.97047377 0.92095757 0.9903983 0.8059403
000080 15 33 4b 3f fd 0d 74 3f 11 63 83 3f 6d 24 83 3f
       0.7937482 0.95333844 1.0264608 1.0245491
000090 f8 21 a0 3f 3c 15 91 3f 31 d9 63 3f 0c c8 85 3f
       1.2510366 1.1334605 0.8900328 1.0451674
0000a0 49 5a 88 3f 7e 0c 4c 3f 28 95 83 3f b0 fe 54 3f
       1.0652553 0.7970656 1.0279894 0.8320112
0000b0 f6 9c 78 3f ba 5b 87 3f 84 75 79 3f 79 ef 8f 3f
       0.97114503 1.0574868 0.9744494 1.1244956
0000c0 67 c3 94 3f fa b1 69 3f d3 77 7e 3f be da 54 3f
       1.1622132 0.91287196 0.9940159 0.83146274
0000d0 65 8d 8f 3f ec 2f 79 3f 97 0a 4a 3f de d3 6c 3f
       1.1215025 0.9733875 0.7892241 0.92510784
0000e0 52 67 90 3f 6c c2 7c 3f d5 9f 77 3f 3a bc 66 3f
       1.1281531 0.98734164 0.9672826 0.9013096
0000f0 82 98 7f 3f 14 20 82 3f d0 b5 71 3f 8f d4 86 3f
       0.99842083 1.016604 0.9441805 1.0533618

enc3.layer.1.bias f4 [64]
000000 f2 b1 cb 3d 17 76 b1 bc c5 47 e2 3c 99 06 70 3c
       0.0994605 -0.021662755 0.027622113 0.0146500105
000010 5f 7c b2 3d 0d 32 ab bd 30 27 fb bc d6 9c ff bd
       0.08715128 -0.08359156 -0.030658334 -0.12481086
000020 9e 81 73 bd 8c b0 6c bd d0 20 8d bc fc 32 78 3c
       -0.059449784 -0.057785556 -0.01722756 0.015148874
000030 31 40 71 bc 33 b2 98 bd b5 05 fc 3c 5a 22 5b b9
       -0.014724777 -0.07455864 0.03076444 -0.00020898264
000040 c6 d0 b5 bd f7 82 57 bd e8 bf 49 be 09 04 6a bd
       -0.08877711 -0.052615132 -0.19702113 -0.057132754
000050 e4 72 d6 bc 50 77 95 3c a9 28 09 be 5f 0c 51 3d
       -0.026177831 0.01824537 -0.13394417 0.05103719
000060 ce 8a 74 bd ec 54 4c 3d fe 60 1d be 77 35 df bd
       -0.059702687 0.049885675 -0.15369031 -0.108988695
000070 ae db 08 bd 79 7b 86 bd b4 7a 01 bd af 4b 48 3d
       -0.033412628 -0.06566519 -0.03161116 0.048900302
000080 9b 14 b4 bc 70 46 d2 bd 21 04 9e bd 96 64 21 3e
       -0.021982482 -0.10267341 -0.07715631 0.15761027
000090 4c cb 29 3e 4d 0b e5 3d df 38 f9 bd 98 dd 64 3b
       0.16581458 0.11183796 -0.121690504 0.003492212
0000a0 02 14 22 3c 47 40 ed bd d8 fd 00 3e f1 bc 08 be
       0.009892466 -0.115845256 0.12596834 -0.13353325
0000b0 eb e1 8c b9 f4 9b f3 3d d9 ad ec bb 68 95 5e 3e
       -0.00026871203 0.1189498 -0.0072228727 0.21736681
0000c0 25 83 67 be 65 44 3c bd c9 95 8e bc 0a ad 1a bd
       -0.22608621 -0.045963664 -0.017405408 -0.03776268
0000d0 2a 4a 44 3e 9d 98 c9 3c 81 5e 16 be 63 b2 f1 3d
       0.19168916 0.024608904 -0.14684488 0.11801603
0000e0 61 b2 89 3e 42 eb 16 3c d1 0d d5 3d b5 ad f4 bd
       0.26893905 0.009211363 0.10403026 -0.119471945
0000f0 c0 bf 1a bc e7 3e da bb 5e e6 95 bc 5c a6 f9 bd
       -0.009445131 -0.0066603306 -0.018298324 -0.12189934

enc3.layer.1.running_mean f4 [64]
000000 6a 41 b6 be 52 fa 6c be 50 50 ee 3e da 6e b3 3b
       -0.35596782 -0.23142365 0.4654565 0.005475861
000010 f7 fc 45 3e 48 c0 ca 3e 6a 4d e5 3e c8 0e 45 bc
       0.1933478 0.39599824 0.44785625 -0.01202745
000020 f7 10 7e 3d 33 df ce bc f0 70 50 be 3c 00 e8 3d
       0.062027898 -0.025252914 -0.20355582 0.1132817
000030 f8 08 ba be 66 1b 74 be 14 de 1d be a8 b4 96 be
       -0.36334968 -0.23838577 -0.15416747 -0.29434705
000040 08 92 fa bc be bc 0b 3e d1 50 3d 3e 48 b0 f0 3e
       -0.030587211 0.13646218 0.1848786 0.47009492
000050 34 5d b7 3c 2c 2a 9f 3e fa 61 f3 bd 0b d9 9c 3e
       0.02238331 0.31086862 -0.11883922 0.3063434
000060 4b 3a 35 3e c8 6d df 3b e1 16 a8 3a 4e 51 67 3e
       0.17698018 0.006818507 0.0012824201 0.22589609
000070 f2 d3 93 bd 81 d7 07 be 26 11 13 be 30 4f 9d 3e
       -0.0721816 -0.13265802 -0.1436201 0.30724478
000080 19 9e 99 3e e7 10 16 3e 84 44 a0 3e f6 ac 9e be
       0.3000343 0.14654885 0.31302273 -0.30991334
000090 6e 69 70 be 7a a6 e6 be 70 7d 4c be e7 41 1c 3f
       -0.23477718 -0.45048887 -0.19969726 0.6103806
0000a0 15 7a 8f 3d 27 fa aa 3e ad 89 12 bf 27 52 99 3e
       0.07005707 0.33393976 -0.57241327 0.2994549
0000b0 91 69 15 be 3c cc 04 bf 44 3c 65 3e 5c d7 c8 3e
       -0.14591052 -0.51874137 0.22386271 0.39226806
0000c0 78 2c 36 bd e6 73 9d be f7 67 ad 3d 7d 18 a5 3d
       -0.044476002 -0.30752486 0.08467095 0.080613114
0000d0 a6 bb 7e be 88 d7 c8 3e be 1d 31 bc c4 73 8a 3e
       -0.2487627 0.39226937 -0.010810314 0.27041447
0000e0 55 fd 9f 3e b6 2d f1 3d 0e bd c5 3e 74 38 42 3e
       0.31247965 0.11776297 0.386208 0.18966848
0000f0 1e e6 3f 3e be cb e3 3e 87 c9 82 bd 60 e8 af 3c
       0.18740126 0.4449138 -0.063860945 0.02147311

enc3.layer.1.running_var f4 [64]
000000 09 dd 98 3e 43 ab 4b 3d 56 52 08 3f 1b 00 ff 3b
       0.29856136 0.049723875 0.53250635 0.007781995
000010 fa 02 b7 3d 84 d8 28 3e a6 69 ad 3e e9 a6 41 3c
       0.089361146 0.16488844 0.33869666 0.01181958
000020 da a0 10 3d dc c2 5b 3d 36 4f bb 3d 9d b6 7d 3d
       0.03530965 0.05365263 0.09145968 0.06194173
000030 db 68 1c 3e 03 79 94 3d 62 1f f0 3d 10 2f 19 3e
       0.15274374 0.07249644 0.11724736 0.14959359
000040 b2 e9 74 3d 55 f3 19 3e 9c 3f fd 3d 1d 03 9c 3e
       0.05979318 0.1503423 0.12365648 0.30471125
000050 f0 1c 92 3c 34 4a 83 3e a1 9e 71 3d 75 37 c3 3d
       0.017836064 0.2564255 0.05898917 0.09532062
000060 5a ce 82 3d 31 02 a8 3b 3e 7c 66 3c a0 02 a2 3d
       0.06387015 0.0051272144 0.014067708 0.07910657
000070 4b c7 77 3c f4 07 9b 3c 70 4d 57 3d 45 47 26 3e
       0.015123199 0.01892469 0.052564085 0.16238125
000080 2a ba 99 3d 3e 89 c3 3d 38 1a 09 3e a6 c8 0e 3e
       0.07506211 0.09547661 0.13388908 0.13943729
000090 3f 9d af 3d 3e 39 85 3e 33 a7 c2 3d 57 05 3b 3f
       0.08574914 0.26020235 0.09504547 0.7305502
0000a0 4a 49 b9 3d 38 ec d3 3d e4 39 dd 3e 0e 5a e9 3d
       0.09047182 0.103477895 0.4320823 0.1139413
0000b0 f4 05 70 3d bf 56 1a 3e d0 a9 22 3e 4a 72 21 3e
       0.058599427 0.15072154 0.15885091 0.15766254
0000c0 3c 8d 49 3d 3e eb d2 3d f5 bd 65 3d e2 35 74 3d
       0.049206957 0.10298775 0.05608936 0.0596217
0000d0 b9 58 04 3e 50 9d 80 3e 54 25 d3 3c a9 5b 68 3e
       0.1292447 0.2512002 0.025774635 0.22691216
0000e0 27 02 6e 3e e5 b1 fd 3c a4 5e 37 3e bf 3c f2 3d
       0.23243009 0.030968616 0.17907196 0.11827993
0000f0 12 7a ae 3d e0 fe af 3e ee 11 c6 3c 0b 9c 60 3c
       0.08519377 0.34374142 0.024178471 0.013709079
