trained_models/starry_night.pth (torch, 210147 bytes, 72 tensors)

enc1.layer.0.weight f4 [3, 1, 3, 3]
000000 ce b3 7c be 1b 82 85 bd 4c 0e 25 3d b8 28 9f 3d
       -0.24677965 -0.06518956 0.040296838 0.07771438
000010 33 82 f0 3d 5c a7 c1 bd e6 99 d1 3e f8 12 5f 3b
       0.117435835 -0.094557494 0.40937728 0.0034038406
000020 e1 f2 00 be e3 76 cb bd f7 4a 21 3e 5d 55 c6 3d
       -0.12592651 -0.09934785 0.15751253 0.096842505
000030 f1 8e 68 3e 90 b5 c7 3d b2 31 90 be 09 fd 6b 3c
       0.22710778 0.09751427 -0.28162915 0.01440359
000040 63 9f 85 be 13 75 b5 be 98 55 06 3e 1c 7f cb bd
       -0.26098165 -0.35440883 0.13118589 -0.099363536
000050 25 eb 2b 3e c1 1f de bd 5b 4e f9 be db 25 99 bd
       0.1678892 -0.108459 -0.48692593 -0.074779235
000060 a8 0d 51 3e 6b c0 78 bd 81 e1 d6 3d
       0.20415366 -0.06073038 0.1049223

enc1.layer.1.weight f4 [3]
000000 c2 8d 47 3f 0a 3b 58 3f 6f 15 43 3f
       0.7795068 0.84465086 0.7620458

enc1.layer.1.bias f4 [3]
000000 c6 f4 13 3f 40 41 a9 3e 31 c1 1f 3f
       0.5779537 0.33057594 0.6240416

enc1.layer.1.running_mean f4 [3]
000000 b6 04 81 bc fa 67 8d 3d e8 8b 63 3d
       -0.015749317 0.069045976 0.055553347

enc1.layer.1.running_var f4 [3]
000000 8e 5f 03 3c ec 27 18 3d f6 e2 61 3c
       0.0080183875 0.037147447 0.013787022

enc1.layer.3.weight f4 [32, 3, 1, 1]
000000 b9 9b 61 bd 71 7f dc 3e d3 c1 b3 bd 8c a2 24 bf
       -0.05508015 0.4306598 -0.087772034 -0.64310527
000010 c5 11 d7 be b9 91 1d bd 5e ad b0 3e 8a 0f ec 3e
       -0.42005745 -0.03846905 0.3450727 0.46105605
000020 f7 75 a3 3e d1 28 96 3e fe 95 2b be 81 b6 03 3f
       0.31925938 0.29328015 -0.16756436 0.51450354
000030 87 2c cf 3e 30 98 c8 3d d6 56 05 bf d4 6a d0 3e
       0.4046366 0.097946525 -0.52085626 0.40706503
000040 67 e4 c4 3d 1e a2 44 bd d1 11 f9 be c7 93 de bd
       0.09613877 -0.04800617 -0.48646405 -0.1086803
000050 3e 45 9f bc c3 f8 9e be d0 3c 4d be 0e b9 49 be
       -0.019442197 -0.31049165 -0.2004273 -0.19699499
000060 81 68 cf 3e f6 d1 9a 3e 20 cc be bd aa 6e 5d 3e
       0.40509418 0.30238312 -0.093162775 0.21624246
000070 3a 45 ef 3e fe 38 05 be 80 e2 01 be 2d 72 27 be
       0.46732503 -0.13010022 -0.12684059 -0.16352148
000080 01 53 15 3f 52 23 d3 3e a5 dd 1b bd f6 a7 bc bd
       0.5832978 0.41237885 -0.038053174 -0.092117235
000090 bd ce fc 3e d8 05 6e be 0d b4 5d 3d c8 d1 b5 3e
       0.4937648 -0.23244417 0.054126788 0.35511613
0000a0 f6 8f 88 3e 19 8f 5c be 18 83 87 be a9 b5 13 be
       0.26672333 -0.21538962 -0.26467204 -0.14424767
0000b0 8c 76 64 be 58 54 9a 3c 3b 42 8d be 2e d0 83 3e
       -0.22310847 0.018839046 -0.27589592 0.25744766
0000c0 9f 60 4f bb 07 3d 0f be 80 08 fe be da bb d7 3e
       -0.0031643284 -0.13988124 -0.4961586 0.42135507
0000d0 7b 33 99 be f3 e2 83 be ea 1c bb be e5 de 18 3f
       -0.2992209 -0.25759086 -0.36545497 0.5971511
0000e0 3d 39 3d be e6 8e 50 3e bc 2c f3 3e a7 7c 0d 3f
       -0.18478866 0.20367011 0.47495067 0.5526833
0000f0 25 1d c3 3d f8 19 85 be b2 8e 17 3e d4 13 3b 3f
       0.09527043 -0.25996375 0.14800528 0.7307713
000100 b6 07 87 3e 82 4c ec be 99 cd 79 be 5e 31 5f 3e
       0.2637307 -0.4615212 -0.24394836 0.21796176
000110 80 07 e1 be 98 29 1d 3d 20 ba 04 3e 64 ed e0 be
       -0.43951035 0.038369745 0.12961626 -0.43931115
000120 f0 6e ba 3e bb b4 21 3e e7 53 6d 3e fa 52 b8 be
       0.36412764 0.157916 0.23176537 -0.36000806
000130 d5 aa 89 3e 2e 85 e2 3e a6 ce 23 bd b3 2d ab bc
       0.26888147 0.44242233 -0.039991997 -0.020895815
000140 5b 5d 28 be 69 36 5a 3e cc 3a 2d 3f 33 23 92 be
       -0.16441862 0.21309818 0.6766784 -0.2854248
000150 8f c4 dc 3d bd 2c fa be 88 a5 ad be 11 f1 ce 3d
       0.10779678 -0.48862258 -0.33915353 0.101045735
000160 54 5e 99 be 45 fb af 3e e3 bd a7 3e c3 ee 64 be
       -0.2995478 0.3437139 0.3276206 -0.22356705
000170 7a e6 44 bf f4 f0 07 3e d1 83 69 be c0 92 3c bc
       -0.7691418 0.1327551 -0.2280419 -0.011509597

enc1.layer.4.weight f4 [32]
000000 c9 63 61 3f f9 61 62 3f 24 80 86 3f a5 02 a8 3e
       0.88042885 0.88430744 1.0507855 0.32814518
000010 93 ba 82 3f c3 c4 33 3f 98 9a cb 3e 10 ff 3a 3f
       1.0213188 0.7022211 0.39766383 0.73045444
000020 64 e9 39 3f 83 31 4c 3f e0 4e 6d 3f 5c 93 49 3f
       0.7262175 0.7976305 0.9269848 0.7874048
000030 9b 24 2e 3f ca ad 3e 3f 58 a2 5e 3f 8c 73 6e 3f
       0.68024606 0.7448393 0.86966467 0.9314506
000040 ea 59 77 3f 44 9b 6b 3f 22 3e 81 3f 38 19 95 3f
       0.9662157 0.9203379 1.0097086 1.1648321
000050 76 49 5c 3f c7 ed 0b 3f 01 b1 5f 3f fa e2 6c 3f
       0.8604959 0.54659694 0.8737946 0.9253384
000060 44 1d 45 3f a7 ad 8f 3f b1 aa 46 3f 77 05 5f 3f
       0.7699778 1.122487 0.77604204 0.87117714
000070 bb 62 71 3f fd 04 52 3f bf a5 6d 3f 56 2d 45 3f
       0.94291276 0.8203886 0.92831033 0.770223

enc1.layer.4.bias f4 [32]
000000 67 59 16 3f ca 95 f2 3e 50 d3 8f 3e e7 11 88 3e
       0.5873017 0.47379905 0.28090906 0.26576158
000010 96 8f 0c 3f e8 e7 84 bb 1d 37 e8 bd 9f ed d9 3d
       0.54906595 -0.0040559657 -0.11338637 0.10641026
000020 e4 7d 32 3e 08 a3 87 3e 2d fb 9a 3d 51 0a 85 3e
       0.17430836 0.2649157 0.07567439 0.25984433
000030 a8 e8 c2 3c 8c 77 e9 3d 9b e2 3a 3e 8d e5 fa 3e
       0.02379258 0.11399755 0.18250506 0.49003258
000040 d2 d4 e9 bc 27 e4 1d 3e b9 bd 75 3e a9 e5 44 3d
       -0.028543863 0.15419064 0.23998155 0.048070583
000050 5d ba 54 3e dc ee 2b be 77 15 b5 3e 51 cd 8c bc
       0.20774217 -0.16790336 0.3536794 -0.017187746
000060 5e 80 1c 3e c7 c1 c1 3d 34 8d 7c be 1d 8e 2c 3e
       0.15283343 0.09460788 -0.2466324 0.16851087
000070 8b 0b b0 3d a8 48 fe 3d e6 c8 01 3f 61 cb 17 3e
       0.08595952 0.12416202 0.5069717 0.14823677

enc1.layer.4.running_mean f4 [32]
000000 23 89 06 3e 67 e0 2d bf 0d 3b 35 3f 96 dc f5 3e
       0.13138251 -0.67920536 0.7079323 0.48019856
000010 be 56 74 bd 10 fa 92 3e 03 98 ca be 92 d0 e9 be
       -0.059653036 0.28706408 -0.395691 -0.4566694
000020 b2 a6 b9 3e 02 d7 97 3e 31 f2 82 3e e3 16 3f 3e
       0.3625999 0.29656225 0.25575402 0.18661074
000030 10 e3 77 3e b7 b9 61 3e a1 96 d4 be 7e 50 58 3d
       0.24207711 0.22043501 -0.4152117 0.05281114
000040 f4 f9 e0 be 95 8a 85 bd 8d 5e 65 bd 99 95 4a 3f
       -0.439407 -0.06520573 -0.055998374 0.7913452
000050 70 38 08 3d 46 06 94 3e 5a 22 bb be 80 c1 66 be
       0.033256948 0.28911036 -0.36549646 -0.22534752
000060 0c c4 fd 3e 67 74 69 3e 14 8f 20 be b8 e4 96 3e
       0.49563634 0.2279831 -0.1567958 0.29471374
000070 2c 5f df be 90 a4 20 3e 40 4f ec be 1a 7a 37 bd
       -0.43627298 0.15687776 -0.46154213 -0.04479418

enc1.layer.4.running_var f4 [32]
000000 de db 57 3d d3 07 18 3e 1a c9 07 3e 09 28 86 3d
       0.052699916 0.14846735 0.13260308 0.06550605
000010 8a 14 41 3e da 98 80 3d 1c 7c a9 3d 4a e5 39 3d
       0.18855491 0.06279154 0.08275625 0.045384683
000020 56 43 82 3d 38 2f 48 3d 2f 9d d5 3d fc a4 b6 3d
       0.063604996 0.048873156 0.10430371 0.08918187
000030 bd 53 0b 3e b2 0e 7e 3d c4 8c 15 3d 2e f9 8d 3c
       0.13606162 0.062025733 0.036511198 0.017330732
000040 0a 6d eb 3d ec de 61 3e f6 05 34 3e 07 12 71 3e
       0.11495407 0.22057694 0.17580399 0.23542033
000050 fc 67 9d 3c a7 7c 9b 3e da fe 41 3d 81 48 4c 3d
       0.019214623 0.3036854 0.047362186 0.049873833
000060 de 1a 5b 3d 3a 3e 86 3e ef b9 0f 3c ac e2 b7 3d
       0.05349242 0.2621935 0.008772357 0.08978781
000070 30 65 58 3e f6 bb e6 3c 06 33 d6 3e 80 e4 0a 3d
       0.2113235 0.028165799 0.41835803 0.03390932

enc2.layer.0.weight f4 [32, 1, 3, 3]
000000 83 99 8b 3d c0 2c 90 3e b1 d2 1d 3d 79 34 11 be
       0.068163894 0.28159142 0.03853101 -0.14180173
000010 24 00 c3 be 88 ec 81 be 69 39 24 3e 51 44 18 3e
       -0.38086045 -0.25375772 0.16037525 0.1486981
000020 0d 6a 10 bd 18 d2 3d 3e 29 8f 91 3b ae 15 b4 3e
       -0.035257388 0.18537176 0.004442115 0.3517279
000030 2b 09 93 be 3b c5 ab bd fc f1 19 3e 6a fc 75 3e
       -0.28717932 -0.08387228 0.15033716 0.2402207
000040 15 ce 0e be 14 74 fe bd 83 24 03 bd 78 c8 3c 3e
       -0.13945802 -0.12424484 -0.032017242 0.18435848
000050 9b f5 63 3d 5a 58 29 3e 5c 81 73 3e 59 31 24 3e
       0.05565415 0.1653761 0.23779815 0.1603445
000060 bf 89 9b 3d c7 b1 12 3e 5b eb 31 3e f7 3f 9b bd
       0.07594632 0.14325629 0.17374937 -0.0758056
000070 45 c6 bd 3c 48 65 5d be ea 1d 4a be c3 f0 2c be
       0.023165831 -0.21620667 -0.19737974 -0.16888718
000080 8d 64 94 be ce 7c 70 3e fb 64 84 3e df 5f 2c be
       -0.28982964 0.23485109 0.25858292 -0.16833447
000090 7b 1a 33 bd 71 e1 53 be f4 62 81 be e9 ea 0a bd
       -0.043726426 -0.20691468 -0.25270808 -0.033915434
0000a0 34 31 76 bd 6d be 85 be 47 ed 70 3d 8a 6e 0a 3d
       -0.060105518 -0.26121846 0.058820035 0.033796825
0000b0 72 90 f9 bd cf 67 d4 3b bb 5a 91 be 82 65 5d bc
       -0.12185754 0.0064821015 -0.28389534 -0.013512971
0000c0 49 8f a4 be d2 39 ab 3d 10 c7 d9 bc 5d 9d 0a 3e
       -0.32140568 0.08360638 -0.026584178 0.13536592
0000d0 98 20 9c bd e2 7c ad 3c a4 10 12 bc 4d 00 f4 bb
       -0.07623404 0.021177713 -0.0089151 -0.007446325
0000e0 75 8a 3b bd 4f e2 07 be 8b 84 fa 3c 4b 70 b1 bc
       -0.04578634 -0.13269924 0.03058078 -0.02165999
0000f0 5f 62 af bd 6a b7 c4 be 45 ff 9a be b7 94 6c be
       -0.08563685 -0.38421184 -0.3027288 -0.23103605
000100 0e 31 05 3e cc b9 46 3e e2 de 4d be bf 04 fc 3e
       0.13006994 0.19406813 -0.20104554 0.4922237
000110 8d 7b 5c 3d c5 b9 13 3e 98 7b c2 3e 50 a4 27 be
       0.053828765 0.14426334 0.3798492 -0.16371274
000120 13 60 ab 3e 10 99 a5 3e ac 2e ea 3d 1b 9d aa 3e
       0.33471736 0.3234334 0.11434683 0.33322987
000130 37 9f 13 3d 21 39 79 3e 26 52 06 bd 22 f5 19 3e
       0.03604051 0.24338199 -0.032793187 0.15034917
000140 ac 4d 93 bd 30 38 20 bd 0b c3 b6 be 47 ee 21 bb
       -0.07192549 -0.039116085 -0.3569568 -0.0024708675
000150 27 47 62 bd 39 0f 56 3e 08 ad 03 3e d7 46 cd 3d
       -0.055243637 0.20904244 0.12858975 0.10023277
000160 a4 8a 9f bc 37 1a c9 3c 55 b7 13 3e 9b c2 ed 3d
       -0.019475289 0.024548633 0.14425404 0.11609384
000170 b2 51 33 bd e3 7d 35 3b 26 46 13 3f 2c 50 d8 3e
       -0.043779083 0.0027693443 0.57528913 0.42248666
000180 e0 19 f4 bc e5 70 d6 3c 11 82 7c 3e f7 c6 1d be
       -0.029797494 0.02617688 0.24658991 -0.1540793
000190 06 a9 c6 bd 9e 81 18 3e 24 07 f4 3d 79 22 98 be
       -0.097002074 0.14893195 0.119154245 -0.297138
0001a0 eb b9 2f 3d cf e0 49 3d ea 87 4b be 16 a2 36 3e
       0.042901915 0.04928666 -0.19876066 0.17835268
0001b0 0f 1c 5d 3d 89 8e 2a be 20 54 c6 bd 48 1f 6b be
       0.053981837 -0.16655935 -0.09684014 -0.22961152
0001c0 51 fd 76 3e f4 7d 98 be 08 e3 49 3e f3 36 77 3e
       0.2412007 -0.29783595 0.19715512 0.24142055
0001d0 28 6f 87 3d d2 96 4d 3d 01 ed 3e be 03 58 49 be
       0.06612998 0.05019266 -0.18645097 -0.1966248
0001e0 7f 19 c1 bd 9f 10 b4 be 59 34 37 be 06 31 81 be
       -0.09428691 -0.3516893 -0.17891063 -0.25232714
0001f0 0d fe 47 bd 8a dd a1 bd 66 6e 4b be de 9b 8f 3b
       -0.048826266 -0.07903583 -0.19866332 0.0043825945
000200 7e d6 09 3e 68 c8 3a bd 28 55 fe bd 94 3b ec 3d
       0.13460729 -0.04560128 -0.12418586 0.11534801
000210 57 3b 91 3e 1d 9f c6 3b 22 f6 fa bd b8 33 67 3e
       0.28365585 0.0060614482 -0.12253977 0.22578323
000220 73 aa 9d bd 4c 3b 24 3d c5 1d b5 be 40 ee 83 be
       -0.07698526 0.040095612 -0.35374275 -0.25767708
000230 1b 23 b8 be 29 18 6b bd 3b 91 cf 3d 98 a0 47 3e
       -0.35964283 -0.057396088 0.101351224 0.19494855
000240 ba 3c 8a 3d e1 9d 90 3d 06 9c e3 bd d2 83 84 3e
       0.06749864 0.07061363 -0.111137435 0.2588182
000250 f7 16 6f 3e 44 9d b4 3c e4 55 b6 bd 45 ba 0d 3e
       0.23348604 0.022047646 -0.08903101 0.13840587
000260 1f 9d 3a 3e c1 b4 0a 3e cf a7 a3 bc 9f 5d 6e 3e
       0.18224 0.13545515 -0.019977478 0.23277901
000270 47 60 9d be d1 9d 7b 3e ac e8 65 3e 9e a0 19 3e
       -0.30737516 0.24571921 0.22452039 0.15002677
000280 d4 2d 8f be 92 00 2d 3d 7f 11 02 be 31 3d d9 bc
       -0.27964652 0.042236872 -0.12701987 -0.026518436
000290 10 7f 87 be b9 7e 67 bd a8 79 a1 be 33 de a8 be
       -0.26464128 -0.056517337 -0.3153813 -0.32982025
0002a0 0c e2 12 be e3 5b c7 bd 09 13 04 be 22 83 7b be
       -0.14344043 -0.09734323 -0.12897886 -0.24561742
0002b0 bc 8c d6 be 44 57 16 be 7f a4 5d be 5b 18 0b 3e
       -0.41904247 -0.14681727 -0.21644782 0.1358351
0002c0 07 c1 55 3d e3 59 84 bc 55 7f 8c be aa 12 26 be
       0.05218604 -0.016156143 -0.27440897 -0.16218057
0002d0 1b 3d f2 bc af dd 88 be eb 0b 37 be 4e 0b d3 bd
       -0.029570153 -0.2673163 -0.1787564 -0.103048906
0002e0 b2 eb f2 3d 29 5e 02 3e 29 b5 97 3c 6c 37 b0 be
       0.118613616 0.12731232 0.018519001 -0.34417284
0002f0 f2 6a 8a be 3a 52 af bd 25 ff 5e 3e 6f fa d2 3d
       -0.27034718 -0.08560605 0.21777017 0.10301673
000300 2f 18 a2 3e 71 fc 90 3e 38 bb da 3d f6 53 ba 3d
       0.31659076 0.28317598 0.106802404 0.090980455
000310 da 85 89 3e 9f b9 9d 3d d6 88 62 be 1e 5c 4e 3e
       0.26859933 0.0770142 -0.22122511 0.20152327
000320 c2 63 67 3e 06 07 92 bd 7a 8f a9 3e 6f 8f a8 bd
       0.22596648 -0.07130246 0.33117276 -0.08230483
000330 14 8d 9d 3d 1f 26 18 3b db 83 8f be fd 08 4f be
       0.07692924 0.0023216081 -0.28030285 -0.20218273
000340 d3 1f 63 be b9 a6 d5 bd af d0 fa be e7 3b e6 bb
       -0.22180109 -0.104321904 -0.48987338 -0.007026184
000350 72 f7 07 3d 0e 1e 6b be 6c fd 2c be c7 64 f3 3c
       0.033194967 -0.22960684 -0.16893548 0.02971114
000360 8a 75 83 3e 42 e0 36 be b7 43 ab be e9 88 16 be
       0.25675613 -0.17858985 -0.334501 -0.14700665
000370 38 a0 36 3e eb 99 76 3d ea e8 71 3e 16 78 6f be
       0.17834556 0.06020538 0.23624006 -0.23385653
000380 d4 ea d9 3d 9f 9b 24 be 4d 18 c6 bd 3d 26 4d bc
       0.10640493 -0.1607499 -0.09672604 -0.012521324
000390 c9 8e 47 bd a2 a0 8f be 8b a9 32 be 3b 21 aa bd
       -0.048720155 -0.2805224 -0.17447488 -0.083071195
0003a0 6a 2c 73 3e bf 1f 96 3e ff 31 66 3d 35 81 4e bb
       0.23747411 0.29321095 0.056200024 -0.003151012
0003b0 b8 c3 25 be ed 0d cf bd 7a 4a 86 be 16 aa 81 be
       -0.16187942 -0.10110078 -0.26228696 -0.25325078
0003c0 74 96 51 3d ce 58 6f be 2a c0 b0 be ee d0 46 be
       0.051168874 -0.2337372 -0.3452161 -0.19415638
0003d0 c5 5c 56 3e 06 8f b8 3d b2 c7 4c 3e 8f e6 9d be
       0.20933826 0.090116546 0.19998053 -0.30839965
0003e0 dd 39 00 3c 1d c3 03 be 6a 4d 63 3e e0 a4 31 be
       0.007826296 -0.12867399 0.221975 -0.17348051
0003f0 98 66 12 3e 69 05 a7 bd b5 b5 87 be b5 88 94 3d
       0.14296949 -0.08155329 -0.2650582 0.07252637

enc2.layer.1.weight f4 [32]
000000 64 3c 8e 3f fa d5 5a 3f 32 25 81 3f 7f 33 79 3f
       1.111218 0.8548275 1.0089476 0.973442
000010 81 40 7a 3f e6 eb 7d 3f 34 46 71 3f 1f 94 66 3f
       0.97754675 0.9918808 0.94247746 0.90069765
000020 b1 37 62 3f 8d a3 80 3f f2 5d 82 3f 92 67 72 3f
       0.8836623 1.0049912 1.018492 0.94689286
000030 dd 96 83 3f e3 2e 76 3f f0 6f 7e 3f d0 c6 76 3f
       1.0280415 0.96165293 0.99389553 0.96397114
000040 8b 1b 89 3f ce 06 82 3f a0 86 9d 3f 91 4b 85 3f
       1.071153 1.0158327 1.2306709 1.0413686
000050 36 9e 8b 3f 4c ed 85 3f 18 93 77 3f 8c e1 82 3f
       1.0907657 1.0463042 0.9670882 1.0225081
000060 71 2f 71 3f ce dc 77 3f ab 36 85 3f 5d ac 81 3f
       0.94213015 0.96821296 1.0407308 1.0130726
000070 2c 2d 80 3f f1 ed 69 3f e6 12 84 3f 14 e9 85 3f
       1.0013785 0.91378695 1.0318267 1.0461755

enc2.layer.1.bias f4 [32]
000000 ed c1 05 3d e6 1a 98 3d e2 75 fa 3d 52 d8 f0 bc
       0.032655645 0.074270055 0.122295156 -0.029400025
000010 4b 84 f6 bb cb 60 57 3d 25 27 91 3c 70 d2 1a 3e
       -0.007523095 0.052582543 0.01771886 0.15119338
000020 5b ef 99 3d e4 7c cd 3c 73 b1 29 3e 7b 45 4c bb
       0.075163566 0.025083967 0.16571598 -0.0031169343
000030 9f d7 9c 3c dc 91 db bc 47 9e bb 3d ca c6 5e 3d
       0.019145785 -0.02680295 0.091610484 0.0543888
000040 83 54 be 3d e7 0b ea bc 13 62 cf 3d 83 20 44 3e
       0.09293463 -0.028570129 0.10126128 0.19153027
000050 37 af 1c 3e 0c 58 a3 bc b7 4d 00 3e 4b fb 93 3d
       0.15301214 -0.019939445 0.12529646 0.07225665
000060 8a f9 97 bd 9f d8 bc bc 40 93 7d 3c 19 c7 36 bd
       -0.07420643 -0.023052512 0.015477002 -0.044623468
000070 1c 28 a0 3d 7c c2 e7 3d cb 07 3d 3d 24 48 ec 3d
       0.0782015 0.11316392 0.04615001 0.11537197

enc2.layer.1.running_mean f4 [32]
000000 76 4f a0 bd 42 eb 40 3e a9 1e 24 3f 27 da 31 be
       -0.07827656 0.18839744 0.64109284 -0.17368375
000010 32 59 25 bf 58 7f fb bd d7 8c a7 bd e2 1d 81 3e
       -0.64589226 -0.12280148 -0.0818116 0.2521811
000020 7e f6 f1 3e dd 97 ed bb 1a 75 1d 3f fa 27 c6 bd
       0.4725837 -0.0072507695 0.6150681 -0.09675594
000030 4a 64 01 3b 8f 8f dc be 27 70 c2 3c 80 da b2 be
       0.0019743615 -0.43078277 0.023735119 -0.34932327
000040 6c a2 99 3e 3a 86 48 3e ba 67 49 bf 59 e6 26 bf
       0.3000673 0.19582453 -0.786739 -0.6519523
000050 52 cb d8 be f3 e5 51 3e 3c 20 cb 3d 72 2d 01 bf
       -0.4234262 0.20497875 0.099182576 -0.5045997
000060 e9 b1 99 bc 33 e2 2d be ba f0 81 be 2e ca da bc
       -0.018761592 -0.1698082 -0.25378972 -0.026707735
000070 84 9c 19 be ae 25 3e 3e fa 5a 1c bf c2 ca 1f bf
       -0.15001112 0.18569061 -0.6107632 -0.6241876

enc2.layer.1.running_var f4 [32]
000000 f1 19 cd 3d 16 4b 9a 3d e6 a4 fa 3e 89 b7 13 3d
       0.100147136 0.07533853 0.48953933 0.036063705
000010 08 3c bf 3e 15 e7 5a 3d 4c 1b df 3b e4 e1 af 3d
       0.37350488 0.053443033 0.006808674 0.08588007
000020 0c ef a4 3e 94 c0 48 3d 0a 9a d1 3e 54 05 58 3d
       0.32213628 0.04901178 0.40937835 0.052739456
000030 cf c8 31 3d 0b 51 86 3e c4 8a c5 3c d9 72 75 3e
       0.043404397 0.26233706 0.02411402 0.23969592
000040 92 89 f6 3d 76 bd b4 3d 4b 59 3c 3f ec b8 1e 3f
       0.12037958 0.08825199 0.7357375 0.6200092
000050 97 e1 2e 3e 0d 45 c3 3d 23 ac 90 3d 0c 0d a3 3e
       0.17078243 0.09534655 0.070640825 0.3184589
000060 e2 da c0 3d 62 e8 b5 3d 2e 43 cf 3d a8 6c 87 3d
       0.094167486 0.08882214 0.101202354 0.066125214
000070 b8 fd 7f 3d b0 7d ec 3d e5 49 b0 3e 92 c3 c8 3e
       0.062497824 0.115474105 0.34431377 0.39211708

enc2.layer.3.weight f4 [64, 32, 1, 1]
000000 b3 26 e1 bc 2a 18 f2 3c 3f 3f 01 be 9d b7 68 bd
       -0.027484274 0.029552538 -0.12621783 -0.056815732
000010 52 81 ee bd 42 b2 d6 3d 16 44 8d bd 89 d8 b0 bc
       -0.1164576 0.10483219 -0.06897752 -0.021587627
000020 08 0b d3 bc f4 54 69 3d 66 e6 fc 3b 80 58 bc bc
       -0.025762096 0.056965783 0.0077178953 -0.022991419
000030 7c 91 53 3c 8b 27 d8 bd 71 7e e3 bc d7 e5 b8 3c
       0.012913104 -0.10554417 -0.027770253 0.022570534
000040 44 d3 07 be 6d 2d 47 3d b6 cc dc bd 1f 98 53 3e
       -0.13264185 0.048627306 -0.10781233 0.20663498
000050 d0 96 ce bd 9a c8 30 3e e5 a3 82 3d 65 81 23 bd
       -0.10087359 0.17264023 0.06378917 -0.039918322
000060 9c 84 1a bd f0 b0 97 3d 9e 76 aa bc 8c 1b 96 3d
       -0.037724122 0.07406795 -0.020808514 0.07329473
000070 96 59 fb bd 41 88 c9 3d c8 38 01 bc e5 40 5d be
       -0.122729465 0.098404415 -0.007887073 -0.21606787
000080 c9 af 74 3e 19 4a 6e 3d ae c9 e8 3d 96 14 53 3d
       0.23895182 0.058176134 0.11366592 0.051533304
000090 06 6a fb bc 52 0a 8d be c4 38 af 3d 1e 66 67 bd
       -0.030690204 -0.27546936 0.08555749 -0.05649387
0000a0 67 69 59 3d c6 44 fd 3c b1 d0 9d bd 3e 0f 1a bd
       0.053079035 0.030916583 -0.0770582 -0.037612192
0000b0 e0 48 10 3e 2f f8 22 3d 14 ac 7b 3d b2 6b d9 bd
       0.140903 0.039787468 0.061443403 -0.106162444
0000c0 dd 3f 2f 3d 9d 86 81 38 84 f1 d1 3d 21 25 ba 3d
       0.042785514 6.176273e-05 0.102511436 0.09089113
0000d0 0f 7c e3 bd 10 b4 f3 3c 1c b2 9c bd 76 fb ec bd
       -0.11107647 0.029748946 -0.07651159 -0.115714
0000e0 95 11 6b 3d 3b 2b 05 3e fa be 51 3d 2f fd fc bb
       0.057389814 0.13004772 0.05120752 -0.0077206115
0000f0 58 e7 a7 bd 98 66 48 3c 3f 30 6b be 0f fc c5 be
       -0.08198422 0.0122314915 -0.22967623 -0.38668868
000100 a0 62 0b bd 31 17 03 3d 9d 7b 5f be 5a 18 14 bd
       -0.034029603 0.03200454 -0.21824498 -0.036156036
000110 c4 31 df 3c 6d 81 7a 3c 42 e1 54 be 65 94 74 bd
       0.02724541 0.015289647 -0.20789054 -0.059711833
000120 35 30 41 be eb 19 c8 bd 91 1d c6 be b5 c2 15 3d
       -0.18866046 -0.097705685 -0.38694432 0.03656264
000130 fb 71 de 3c eb 04 9d 3d fa bc 2d be db 8a 13 bd
       0.02715396 0.07666954 -0.1696662 -0.036021095
000140 5f 04 4c 3e 03 d1 14 bd 39 a6 74 3d 04 25 cc 3d
       0.19923542 -0.03633214 0.059728835 0.09967998
000150 94 d1 ef bd c7 9a 4b bc 91 89 d7 bd 8c 98 f4 bb
       -0.11709896 -0.0124270385 -0.105242856 -0.007464474
000160 87 39 f3 bd fc 98 0e 3d 27 59 32 be 73 18 c3 bc
       -0.11876207 0.034813866 -0.17416821 -0.02381537
000170 fc ae 1a be 64 bd 05 3e d3 f3 94 3d 98 a1 f2 3d
       -0.15105814 0.13060528 0.07273068 0.11847228
000180 08 29 1d bd 76 4b a9 bd 77 49 e6 bd 02 c0 05 be
       -0.03836921 -0.08266346 -0.11244481 -0.13061526
000190 0b 49 c4 bd 81 45 17 3d 6c b3 01 be a1 b4 a9 3d
       -0.09584244 0.03693152 -0.126661 0.08286405
0001a0 3f b7 f1 3d ba 00 0a 3e 85 48 08 3e 95 3d df bd
       0.118025295 0.1347684 0.13308914 -0.10900418
0001b0 ba 68 bf 3c 8e 54 a6 bc 00 37 f2 3c f3 c4 2e bd
       0.023365367 -0.02030399 0.029567242 -0.042668294
0001c0 79 d9 40 3e be ed 0d bd 30 41 8e 3b 14 3d 9d bd
       0.18832959 -0.034650557 0.004341267 -0.07677665
0001d0 ef 9c 78 3d 70 1d 27 3e 33 4f ec bd 88 86 16 bd
       0.06069654 0.16319823 -0.115385436 -0.036749393
0001e0 f8 d1 1f 3d 04 bd ed bd d3 c2 97 be 49 92 fd bb
       0.0390186 -0.116083175 -0.29640827 -0.007738386
0001f0 a2 af 3e be a2 3d 72 3d 70 30 81 be 5f a8 b3 bd
       -0.18621686 0.05914081 -0.25232267 -0.087723486
000200 2f 5b 0d bc f8 93 ca bc d6 75 1b be 6b e5 a5 3d
       -0.008627697 -0.02472876 -0.1518167 0.08100399
000210 f5 c0 9e 3c 4e bb d5 3b d1 01 bc 3c 38 57 7e bd
       0.019379118 0.0065225726 0.022950085 -0.062094897
000220 c3 3d 41 be 41 12 b4 ba 21 49 6c be 9b 3d 77 3d
       -0.18871216 -0.001373835 -0.23074771 0.060361486
000230 66 8b 0b be c1 18 e7 bc c1 ed 9b bc 39 23 1e be
       -0.13627395 -0.028210046 -0.019034268 -0.15443124
000240 cf ef 30 3e be 84 65 bd 6b db 66 3e 74 41 6e 3e
       0.1727898 -0.056034796 0.22544639 0.23267156
000250 06 4e ac be dc d1 1c 3e 9c bf a2 bd 47 4f dc 3c
       -0.33653277 0.1531443 -0.07946703 0.026893271
000260 46 4f a8 bd 3c e1 96 3c 32 df 3f 3c 5f 7b 2c be
       -0.08218245 0.018417947 0.011710929 -0.16843937
000270 1e a0 6e be fe 5f 79 3c 50 f8 49 be 20 e4 3a bd
       -0.23303267 0.01522064 -0.1972363 -0.045627713
000280 7e 08 40 bd 9c 91 1a 3e 83 bf 2a 3b a5 ee 8c 3d
       -0.0468831 0.15094608 0.0026054091 0.06881455
000290 a9 eb 3f 3e 89 3f 48 bd bf 0d 83 bd 85 8d c5 3d
       0.18742241 -0.048888717 -0.06399106 0.09646133
0002a0 b2 d3 ea 3b 96 7e 28 bd 93 5f e5 3d 57 cb 59 3b
       0.0071663493 -0.041136347 0.1119987 0.0033232772
0002b0 5a 1f 19 3e a9 78 e8 bc db 2d 35 3e c9 28 3c 3e
       0.14953366 -0.028377848 0.17693274 0.18374933
0002c0 e9 3b d0 3d a3 62 39 3c d7 21 56 3d a3 e3 bd bd
       0.10167677 0.011315021 0.052278366 -0.09271934
0002d0 5c 8a a6 bc 3b 75 63 bd f6 6c 64 3d cf a5 3f 3d
       -0.020329647 -0.05553172 0.055767976 0.046788987
0002e0 b9 0e 4e 3e aa 22 08 bd 47 c5 3e 3e 9a d2 80 3d
       0.20122804 -0.033236183 0.18629943 0.06290169
0002f0 bf c6 65 3e e7 3c 27 3e 08 67 82 3d c1 3b 1a be
       0.22439097 0.16331826 0.06367308 -0.15061857
000300 e5 3d c4 bd 37 f6 d0 bc aa 22 3b 3e 8a fd ab bc
       -0.09582118 -0.02550803 0.18274942 -0.02099492
000310 98 9b 37 bd 4a ff c1 bd cb 22 07 3c f1 18 66 be
       -0.04482612 -0.09472521 0.008248041 -0.22470452
000320 67 6a 06 bd df ff d3 3c a1 67 be 3d f9 aa 54 bc
       -0.032816317 0.025878845 0.092971094 -0.012980216
000330 7d 9a 75 bd 5a f4 32 be d5 60 13 be c4 ae 2f 3e
       -0.059961785 -0.17476025 -0.14392407 0.17156512
000340 81 60 7d bd a8 9b 33 bd 85 1e 78 3d ab 18 75 be
       -0.06185961 -0.043849617 0.06057598 -0.23935191
000350 dd 2c d1 3c 3c bc cb 3d 51 0a 72 bd 1d 9a c2 3d
       0.025534088 0.09948012 -0.05909187 0.09502051
000360 ff 51 42 bd 1c d0 ed bd d8 d4 b0 3d 81 0b 81 3d
       -0.04744148 -0.11611959 0.08634347 0.06301022
000370 a8 9c 5a 3d 99 15 77 bd 4c 02 a3 3d b0 d1 43 bd
       0.053372055 -0.06032333 0.079594225 -0.047807395
000380 4b 88 9c 3d 97 e7 83 bd d7 46 0f bc 8e d4 f6 ba
       0.07643183 -0.06440657 -0.008744917 -0.0018831657
000390 4f 53 c4 bc 8a dd 19 be 57 31 3b 3e b6 90 a0 bc
       -0.023965506 -0.15025917 0.1828054 -0.019600254
0003a0 7f 21 8d bc 11 22 52 3c 79 6b 30 3d 0b 70 4a be
       -0.017227886 0.012825505 0.043071244 -0.19769304
0003b0 4a 74 6f 3d bc e4 ce bd 74 49 4c 3c a0 04 1b 3d
       0.05846051 -0.10102221 0.012468684 0.037846208
0003c0 7c 54 c0 bd e9 01 1a 3e 98 96 66 3d 3d d9 fe 3d
       -0.09391114 0.15039791 0.05629596 0.12443779
0003d0 37 ee da bd 97 62 07 3e 7c 99 4f be 22 17 d1 bd
       -0.10689967 0.13221203 -0.20273393 -0.1020949
0003e0 0c db 4c 3a 79 96 50 3e d9 54 09 3e 90 53 b5 bc
       0.0007814623 0.20369901 0.13411273 -0.022134572
0003f0 7a 1a 38 be 95 8e 67 3d b8 23 08 be d3 93 97 be
       -0.1797885 0.05653246 -0.13294876 -0.29604968

enc2.layer.4.weight f4 [64]
000000 94 17 31 3f 2a 11 41 3f 6b 76 58 3f b5 bf 56 3f
       0.691766 0.75416815 0.8455569 0.8388627
000010 0a 06 4a 3f 67 16 5d 3f be 68 76 3f de 55 08 3f
       0.78915465 0.8636231 0.96253574 0.5325602
000020 0b 08 76 3f 09 8f 70 3f 5b 5d 58 3f 6f f6 3f 3f
       0.9610602 0.93968254 0.8451745 0.749854
000030 7d 29 3f 3f a3 86 16 3f 80 3e 2c 3f d2 9d 72 3f
       0.7467268 0.5879919 0.6728287 0.94772065
000040 ea 3e 4d 3f ee 8b 5a 3f 3e f0 4f 3f d9 06 0a 3f
       0.80174124 0.85369766 0.81225955 0.539167
000050 0f f9 37 3f b8 51 88 3f ab 87 05 3f 38 56 49 3f
       0.7186441 1.0649939 0.5216014 0.78647184
000060 c1 d6 30 3f 47 c1 39 3f 52 f1 48 3f 99 50 5f 3f
       0.6907769 0.7256054 0.78493226 0.8723236
000070 8e 5f 47 3f de 7d 59 3f 12 16 65 3f 21 6c 61 3f
       0.7788018 0.84957683 0.894868 0.88055617
000080 c3 58 14 3f 08 a9 3f 3f 32 91 82 3f a6 46 96 3f
       0.5794794 0.74867296 1.020056 1.174031
000090 bf f5 26 3f 3e d4 ee 3e 67 bb 4e 3f c4 d9 3a 3f
       0.6521873 0.46646303 0.80754703 0.72988534
0000a0 73 20 6b 3f 4f 72 0e 3f 3c 69 79 3f 55 31 49 3f
       0.9184639 0.5564317 0.974262 0.785909
0000b0 b4 07 3f 3f e0 5f 70 3f 96 a8 79 3f 36 b9 50 3f
       0.7462113 0.93896294 0.97522867 0.8153261
0000c0 c4 ff 24 3f af df 5b 3f 25 c3 7a 3f a8 9c 6a 3f
       0.6445277 0.8588819 0.97954017 0.9164529
0000d0 43 11 77 3f fc 11 7b 3f 41 4e 86 3f 59 73 42 3f
       0.96510714 0.98074317 1.0492631 0.75957257
0000e0 7c da 5b 3f f7 b0 5d 3f 01 52 64 3f d5 9d 20 3f
       0.85880256 0.8659815 0.8918763 0.6274083
0000f0 3a 66 24 3f 7f b0 47 3f f6 22 36 3f e4 50 0e 3f
       0.64218485 0.78003687 0.71147096 0.5559218

enc2.layer.4.bias f4 [64]
000000 f5 16 0a be 9c 9a 1e be f5 d7 1b bd 1c 9f ac 3d
       -0.1348532 -0.15488666 -0.03804775 0.08428785
000010 f6 8b 58 bd e6 cc 18 3e 59 45 06 3d 8c 81 60 be
       -0.052867852 0.14921913 0.03278098 -0.21924418
000020 3a b0 c9 3d 7f 27 a0 3c 85 2e b8 bd 9a 53 39 bb
       0.09848066 0.019550083 -0.08993248 -0.002827859
000030 7a b4 06 3e fc df c1 bc 4b ed c1 be 3c c6 c3 3d
       0.13154784 -0.023666374 -0.37876353 0.095592946
000040 9f 3e f9 bd 77 2d 40 3d c8 e6 36 3e 2c 19 e6 bd
       -0.12170147 0.04691836 0.17861474 -0.1123527
000050 b5 b6 f3 ba 44 99 3b 3c 3a 21 dc be d9 e2 e3 bd
       -0.001859388 0.011450116 -0.429941 -0.11127252
000060 2c a0 05 be 84 e5 37 bd bb 48 64 be a6 b3 cb 3d
       -0.13049382 -0.044896618 -0.2229337 0.099463746
000070 e4 f9 27 3d 05 b0 83 3e e9 21 e9 3e fc 93 4b 3e
       0.0410098 0.2572023 0.45533684 0.1988067
000080 10 07 a9 bd 79 b0 4d 3d b6 48 9b 3c d3 15 33 bb
       -0.082533 0.050217126 0.01895557 -0.002732624
000090 b2 cc 71 bd b4 e6 31 be a5 6f d8 bd f6 6a 1a be
       -0.059033103 -0.17373163 -0.105681695 -0.15079865
0000a0 61 f5 50 3c d3 7f 4f be b6 73 d9 3d f2 7b 03 be
       0.012753815 -0.20263605 0.10617773 -0.1284025
0000b0 f5 5b f6 bd 80 65 0b 3d 29 fc e7 3d f4 e4 e9 3d
       -0.12029258 0.034032345 0.113273926 0.114206225
0000c0 ed 60 82 bd bf f7 d2 3e 7d 44 e6 3d cd a9 b8 3d
       -0.063661434 0.4120464 0.11243532 0.09016762
0000d0 c3 13 f9 bd 06 dd 6a 3c c4 1b 11 3d 72 99 08 3e
       -0.121619724 0.014334923 0.03542687 0.13339785
0000e0 a3 b2 1c be 42 4f d0 3d eb 12 16 bc a3 ea e9 3d
       -0.1530252 0.10171367 -0.009159784 0.114217065
0000f0 b7 41 27 3d ec 33 b2 bc bb cb 09 bb be da 11 be
       0.040834155 -0.021753274 -0.0021025974 -0.142436

enc2.layer.4.running_mean f4 [64]
000000 11 30 73 be a4 8e 31 be e6 a9 fb be 54 63 cb be
       -0.23748805 -0.1733957 -0.4915306 -0.3972422
000010 74 56 d9 be 2c 6c 23 3f 8a 5a 49 be fe 98 60 be
       -0.4244877 0.6383693 -0.19663444 -0.21933362
000020 ac 9b 18 3d d8 3f 69 bc c0 82 b5 bd 60 44 d2 3c
       0.037257835 -0.014236413 -0.08862829 0.02566737
000030 55 6a 5f be a8 cf ce be 6c 8f 40 3e 9b ed 46 be
       -0.21817906 -0.40392804 0.18804711 -0.19426577
000040 86 7d d3 3c fe 7d 2e be 12 6c b3 3c 66 85 1b bc
       0.02581669 -0.1704025 0.021902118 -0.009492254
000050 70 a2 a8 bd c3 d8 b3 be 52 1c d9 be 76 99 a9 bd
       -0.082341075 -0.35126314 -0.4240442 -0.082812235
000060 3c c3 3b bd fd 59 ee be e2 89 e1 bd 92 7a 13 be
       -0.045840487 -0.4655303 -0.11012627 -0.14402226
000070 ad 45 91 be 72 3b a1 3e fa 59 98 3e d4 47 76 3c
       -0.2837347 0.31490666 0.29756147 0.015031774
000080 27 c5 93 bd a2 e5 21 be 77 16 36 3e 01 c2 88 be
       -0.07215338 -0.15810254 0.17782007 -0.26710513
000090 ae d1 50 3e 5f b0 57 bd 62 61 b2 be 4c 77 33 bd
       0.20392486 -0.052658435 -0.34839922 -0.043814942
0000a0 3a 4e a4 bd 9b d4 5c be 1b d5 51 bd 48 78 80 be
       -0.08022733 -0.21565478 -0.051228624 -0.25091767
0000b0 70 3c c9 be 1f 37 1c bf 04 05 b0 3d f4 a6 86 bc
       -0.39303923 -0.6102161 0.08594707 -0.016437031
0000c0 a6 ea d2 be 2e 40 92 bd 93 15 16 be 7d 7c 84 be
       -0.41194648 -0.071411476 -0.14656667 -0.25876227
0000d0 7a 41 24 be bb c2 0c bf fc aa f5 3e d4 88 a2 be
       -0.16040602 -0.54984635 0.47982013 -0.31745017
0000e0 eb 37 6a bd 22 48 27 3f fc ef 4b 3c b8 fe b0 bb
       -0.057182234 0.6534444 0.012447353 -0.0054014586
0000f0 16 d4 12 3e b6 89 8c be 1f 05 1a be af cb 0d bf
       0.14338717 -0.27448815 -0.15041016 -0.5538892

enc2.layer.4.running_var f4 [64]
000000 52 a6 17 3e 86 e3 f5 3e 4d 51 ba 3e 7e bf 87 3e
       0.1480954 0.4802515 0.36390153 0.26513284
000010 c3 81 49 3f ae 68 32 3e c6 0c 7e 3e 1e e2 db 3e
       0.78713626 0.17422745 0.2480956 0.4294595
000020 4a 40 17 3e e8 53 e5 3e 52 a4 3a 3e d6 d8 34 3e
       0.14770618 0.44790578 0.18226746 0.17660841
000030 94 7d ab 3d be 4a fb 3d 05 b5 03 3e d2 be fa 3e
       0.083735615 0.12270115 0.12862022 0.4897371
000040 1e 34 82 3e 0c 11 d9 3d 6e 48 1e 3e 51 f5 6f 3e
       0.25430387 0.105989546 0.15457317 0.23433425
000050 fc 3b 53 3e cc 51 cb 3e d4 ce 7b 3e 62 a1 13 3e
       0.20628351 0.39710844 0.24590617 0.14417031
000060 64 82 49 3e f0 8c 76 3e 80 18 49 3e 80 95 c2 3d
       0.19678646 0.24077201 0.19638252 0.09501171
000070 34 d7 13 3e 30 69 1b 3e fc 64 5a 3e 48 34 2b 3f
       0.14437562 0.15176845 0.21327585 0.6687665
000080 08 cb 89 3f 21 eb 6b 3e ac 30 81 3f 3a 28 71 3e
       1.0765085 0.23038913 1.0092978 0.23550501
000090 9c 18 0a 3e 0a e6 f8 3e 4b f7 84 3e c8 4e d4 3e
       0.1348595 0.48613006 0.2596992 0.41466355
0000a0 ea bd 63 3e 9c 80 b6 3e da b8 29 3e 8e 12 cd 3e
       0.22240415 0.35644996 0.16574422 0.4005322
0000b0 00 82 c4 3e 72 6e 9b 3d a0 c2 fc 3e 08 00 c7 3e
       0.38380432 0.07589425 0.49367237 0.3886721
0000c0 50 a7 89 3e 03 a1 81 3e b4 4c 87 3e 7c b2 98 3e
       0.26885462 0.25318155 0.26425707 0.29823673
0000d0 64 4f 5b 3e 7a 7d 20 3e b4 a3 00 3f 42 bc 1d 3f
       0.21417004 0.15672866 0.5024979 0.61615384
0000e0 91 f8 3e 3e 32 97 bd 3e 0e d2 e5 3d f2 d4 de 3d
       0.18649508 0.37029415 0.112217054 0.1088046
0000f0 5a ee 3f 3e 34 d4 18 3e 60 e5 3f 3e 28 34 08 3f
       0.18743268 0.14924699 0.18739843 0.53204584

enc3.layer.0.weight f4 [64, 1, 3, 3]
000000 5d ac d6 3d 96 c1 82 3e 2e db 86 3d 9e 60 fb 3c
       0.104820944 0.2553832 0.06584774 0.03068572
000010 7a 10 8f 3e 90 be 10 3e 49 7e 55 3e 54 28 29 3e
       0.27942258 0.14135194 0.20848955 0.1651929
000020 fd 02 4f 3e b9 39 72 be 49 8a 0a be 2b f9 30 3e
       0.20215984 -0.23654832 -0.13529314 0.1728255
000030 b6 e5 46 3d a6 af bb bd ec fd c8 be ef 3a f4 bb
       0.048558913 -0.09164362 -0.39256227 -0.0074533145
000040 7b 42 f1 bc 08 b2 ea be 50 4e 88 be c7 ea f6 bd
       -0.029450646 -0.45838952 -0.26622248 -0.12056499
000050 d5 13 63 3d a4 e5 8b be 61 de 9b be 5d ee 9b bb
       0.055438835 -0.2732364 -0.304431 -0.0047586397
000060 97 f4 a7 3e cf 6d 75 bd 43 35 93 be cb 1a 62 3d
       0.32803795 -0.059919175 -0.28751573 0.055201333
000070 9d b1 a5 bd 5c cd 52 bd c1 62 64 be 92 e5 a1 be
       -0.08090518 -0.051465377 -0.22303297 -0.3162046
000080 89 e6 a4 bd dc 24 90 be 0f bb a0 bd d5 45 87 3d
       -0.080517836 -0.2815312 -0.078481786 0.06605116
000090 a6 7a ea 3d 28 de 08 3e 3a da ad 3e b2 4c 67 bd
       0.114491746 0.13365996 0.33955556 -0.056469627
0000a0 be e6 a7 3d cd 0c 88 3e ae 18 5e 3e 5a f9 4d 3d
       0.081983075 0.26572266 0.21689102 0.05028663
0000b0 ad 23 67 bb 0b 49 b0 bd c3 de 08 be c7 15 8d be
       -0.0035269067 -0.08607682 -0.13366227 -0.27555677
0000c0 3d c9 dc bd f4 d8 a1 be a5 5a b7 be b2 3f 93 3b
       -0.10780571 -0.31610835 -0.35811344 0.004493677
0000d0 28 41 bb bd 45 48 4a be 25 2e 52 3e 38 56 44 be
       -0.09143287 -0.19754131 0.20525415 -0.19173515
0000e0 ae ea 1b be a4 49 5e 3e 92 b9 a1 be a8 c1 99 be
       -0.15226242 0.21707779 -0.3158689 -0.3003056
0000f0 60 03 61 3d 9d 6a 0d be 89 67 71 bd 56 8d 7d bd
       0.05493486 -0.13810201 -0.05893663 -0.061902367
000100 9a 66 34 3e 45 78 8f 3e 26 b0 a6 ba 8c e7 65 be
       0.17617264 0.28021446 -0.0012717291 -0.2245161
000110 d3 ca 82 be e6 8f a9 3d 19 da 55 bd c0 e4 78 3d
       -0.25545368 0.082793996 -0.052209947 0.060765028
000120 f1 bc 0a 3e 75 f2 56 3b e7 a9 36 3e be 46 39 3e
       0.13548638 0.0032798324 0.1783825 0.18093392
000130 db 31 ac 3e a0 38 d6 3d bd 58 6d 3e e5 f7 df 3d
       0.33631787 0.10460019 0.23178382 0.10935954
000140 f7 b0 93 3e 12 85 84 3c d9 b7 d3 3d 28 91 48 3e
       0.2884595 0.016176734 0.103378005 0.19586623
000150 9d 22 33 be f2 22 c5 3d bd 01 8f bd fc 4a 65 be
       -0.17493673 0.09625806 -0.069827534 -0.22391886
000160 a0 59 48 3e 3f 23 04 3f b1 df 1d 3e 9a 87 b1 be
       0.19565439 0.5161628 0.15417363 -0.34673768
000170 17 72 84 be 29 16 8f 3d 52 1c 87 bc 05 3a a3 3c
       -0.25868294 0.069866486 -0.016492996 0.019925127
000180 57 76 a2 be 86 df 8b 3e bf 84 9c 3d 12 d6 8b 3e
       -0.3173091 0.27318972 0.07642507 0.2731176
000190 41 61 7e 3e bd 18 15 3c eb 10 8e 3e dc 57 03 3e
       0.24841787 0.009100136 0.27747282 0.12826484
0001a0 f4 3e 8d 3e fa b8 02 3e d6 b8 14 3e 39 78 e1 3d
       0.27587092 0.12765875 0.14523634 0.11009259
0001b0 3b 06 65 be df d1 ee bd 6d b5 39 be 80 df e3 bc
       -0.22365658 -0.116611235 -0.18135615 -0.027816534
0001c0 16 a0 60 3e ae 17 cf 3e 45 c1 55 3e 20 85 f9 3d
       0.21936068 0.40447754 0.20874508 0.12183595
0001d0 7b 25 14 3e 47 53 90 be 2d b7 b2 3c 7c 5b 93 be
       0.14467423 -0.28188536 0.02181586 -0.28780735
0001e0 ed b5 f4 bd bd 71 a2 be ad d5 8a be c5 19 12 be
       -0.11948762 -0.317274 -0.27116147 -0.14267643
0001f0 23 0b a1 be 86 2f 8c be 37 fd 4b 3e a7 50 b3 3e
       -0.3145381 -0.27380008 0.19920813 0.3502247
000200 19 1d 71 3a 8b c2 10 3e 44 e1 95 bd 46 00 16 3e
       0.00091977563 0.14136712 -0.07318357 0.14648542
000210 7b 87 78 3e 3d 86 81 3e ca 5d 30 3e 5f 95 98 bd
       0.24270432 0.25297728 0.17223278 -0.07450365
000220 57 db a6 3e bc ea 8b 3e b7 61 10 3e 4c 4f 85 bd
       0.32589218 0.27327526 0.14099775 -0.06509265
000230 92 4c 6d 3e 17 a4 30 3e 36 9e 38 3d 7a 11 a2 3e
       0.2317374 0.17250095 0.045072757 0.3165396
000240 29 ee dd bc d9 90 78 be 52 38 34 be 75 7b 2c be
       -0.027091103 -0.24274005 -0.1759961 -0.1684397
000250 33 67 02 3e 1f 6b 6e be 79 c6 7a 3b 89 42 d5 be
       0.1273468 -0.23283051 0.0038265272 -0.41652325
000260 4c f0 e8 bd 51 03 34 3e d0 fe 53 3c 16 1c 77 be
       -0.11373958 0.1757939 0.01293917 -0.24131808
000270 c6 0f e1 bd 62 0a 8e be 51 9e b3 be 0e 06 89 be
       -0.10989337 -0.27742296 -0.35081723 -0.26762432
000280 7e ad b4 be cd 30 4d bd 6f 7b 03 be b1 b6 11 3e
       -0.35288614 -0.05009537 -0.12840055 0.14229847
000290 2e 27 41 3e f5 64 c7 3d f8 0f 12 be f9 71 63 bd
       0.18862602 0.09736053 -0.14263904 -0.055528615
0002a0 84 e5 47 3e ac 47 c3 3e d1 29 98 bd c1 4d 34 bd
       0.19521147 0.3814062 -0.07429851 -0.044019464
0002b0 b3 fa a5 3b a9 75 73 be 83 e9 08 3c 46 3b b3 be
       0.005065286 -0.23775353 0.008356455 -0.3500616
0002c0 6c 8e f6 bd 9e 8c 10 3c da 3c db be b4 e6 38 be
       -0.120388836 0.008822588 -0.42819864 -0.18056756
0002d0 13 ec 6e 3e 4d 37 f2 bb a4 b2 f9 3d 1e c8 74 3d
       0.23332243 -0.0073918463 0.12192276 0.05976116
0002e0 0f a0 d4 3e 5e 27 cd 3e 6c cc 94 3c ff b6 4e be
       0.41528365 0.40069097 0.018163882 -0.20186995
0002f0 df 3e 83 3d 50 35 52 bc 8c bc 65 3e 00 0d 5c bd
       0.06408476 -0.0128300935 0.22435206 -0.053723335
000300 fc ae 58 3e 5c c3 ad bc f8 54 57 3e 63 5e e3 3d
       0.21160501 -0.021211319 0.21028507 0.11101987
000310 ac 31 c8 3e 97 79 a3 3e 61 0d 2e 3e c5 b2 29 3d
       0.39100397 0.31928703 0.16997291 0.041430254
000320 4c 8c 83 3e 87 5b ad 3d c3 a7 85 3e 15 a5 f1 3d
       0.25692976 0.08464723 0.26104555 0.11799065
000330 4e 02 6c 3e 7a 58 89 bd 52 f0 40 3e 3a d7 28 3e
       0.23047754 -0.06706329 0.18841675 0.16488352
000340 3f 9b a5 3d 41 e8 05 3e 9b e3 12 3e 5d 2c a7 3e
       0.080862515 0.13076879 0.14344637 0.32651034
000350 dd 43 10 be 9e f3 a6 3e 12 29 8b 3e 1a ae 81 3e
       -0.14088388 0.3260774 0.27179772 0.2532814
000360 17 a3 85 3e ac 90 6d bd ea 01 80 be 3b e1 ef 3d
       0.2610099 -0.057999298 -0.2500146 0.11712881
000370 b4 fa 2d 3d c0 f3 74 bd cc a0 b1 be 78 c4 97 3d
       0.042475417 -0.05980277 -0.3469299 0.0741052
000380 0f 78 8d 3e 5d 06 83 3d 7c 91 80 3e a1 e8 4e 3e
       0.2763066 0.06397698 0.25110996 0.20205928
000390 38 95 53 3e ef d6 ed 3d e4 ee 0f 3e 90 87 1d 3d
       0.20662391 0.11613261 0.14055973 0.03845936
0003a0 91 35 0c 3e 36 21 9b 3e ef 18 0f 3d 9b 3c 81 3e
       0.13692309 0.30298775 0.034935888 0.2524155
0003b0 df 58 7f 3e fe 6d 4a 3e 3c d8 2d 3e af 47 11 3e
       0.24936245 0.19768521 0.16977018 0.14187501
0003c0 41 e2 77 3d 6a d2 8b 3b 4c cf 59 3d c8 22 66 be
       0.060518507 0.0042670267 0.05317621 -0.22474205
0003d0 2a 56 a4 3d 02 f0 97 3e 82 7e f2 bd 6f ba 75 3e
       0.08024247 0.296753 -0.11840536 0.239969
0003e0 9a 31 7e be 7b d5 5a be 72 9e fe 3d 4b 56 50 3e
       -0.24823609 -0.21370499 0.12432565 0.20345418
0003f0 50 3f 23 3e e1 e9 ea 3b c4 3d 03 3d 12 f2 5f 3e
       0.1594212 0.007168994 0.032041326 0.21869686

enc3.layer.1.weight f4 [64]
000000 f7 97 7e 3f c5 58 7e 3f a6 11 7c 3f 71 2e 7d 3f
       0.9945063 0.993542 0.9846443 0.9889899
000010 b8 60 82 3f 9a fe 88 3f 5f 63 52 3f 10 39 69 3f
       1.0185766 1.0702698 0.8218288 0.91102695
000020 6c 85 7a 3f 2f d6 73 3f c1 08 5e 3f f8 61 75 3f
       0.97859836 0.95248693 0.8673211 0.95852613
000030 6f 46 7a 3f 94 c1 7a 3f 43 a9 8b 3f bd 07 74 3f
       0.97763723 0.97951627 1.091103 0.9532431
000040 34 8f 76 3f d0 bc 6d 3f e1 eb 53 3f c8 1c 79 3f
       0.9631226 0.9286623 0.827818 0.9730954
000050 bc 57 68 3f 46 a3 86 3f c3 68 84 3f c1 e9 5f 3f
       0.9075887 1.0518577 1.0344471 0.87466055
000060 a7 49 a7 3f 3c 5b 8a 3f f8 f9 92 3f fc f9 6c 3f
       1.3069352 1.0809093 1.1482534 0.92568946
000070 3f b2 6e 3f af 80 72 3f 0c d0 6a 3f c6 22 55 3f
       0.9324073 0.94727606 0.91723704 0.83256185
000080 4b d9 6a 3f 2f 86 7f 3f 62 f1 67 3f 9e 78 95 3f
       0.9173781 0.9981412 0.90602696 1.1677434
000090 ad 27 7b 3f d8 74 44 3f 97 56 48 3f d4 e7 94 3f
       0.98107415 0.7674079 0.78257126 1.1633248
0000a0 8f 81 70 3f 12 6c 80 3f 5d c6 6c 3f 12 8f 78 3f
       0.9394769 1.003298 0.9249018 0.9709331
0000b0 fc 66 5e 3f 64 8b 68 3f e9 82 6c 3f b3 58 68 3f
       0.8687589 0.90837693 0.92387253 0.90760344
0000c0 56 6f 67 3f 0b 62 73 3f 4f 42 60 3f 44 9c 85 3f
       0.9040426 0.95071477 0.8760118 1.0438313
0000d0 4c 39 9f 3f 7d 57 80 3f 25 60 81 3f f3 7f 80 3f
       1.2439361 1.0026699 1.0107466 1.0039047
0000e0 8b a8 75 3f 41 76 7c 3f ed 92 64 3f 98 71 72 3f
       0.959603 0.9861794 0.8928669 0.9470458
0000f0 aa 89 41 3f 23 5c 50 3f 56 1b 5c 3f 31 f2 78 3f
       0.75600684 0.8139059 0.8597921 0.97244555

enc3.layer.1.bias f4 [64]
000000 d0 69 06 bc a1 06 a4 3d 94 de 1c bd c2 7b 03 bd
       -0.008203939 0.08009077 -0.038298205 -0.032100447
000010 8c 17 5e 3d 1c 7e 82 3d 3c 98 d1 bc 4e 7c 80 bd
       0.054221675 0.0637171 -0.025585286 -0.06273709
000020 e8 3e 0d 3e 5f 6b 9d bc e5 1e 0d be ec fb 3f 3c
       0.13793528 -0.019216238 -0.13781317 0.011717778
000030 eb c9 36 3e 5a d7 0f 3c 2b 0e 24 be 75 ad 4c 3d
       0.17850463 0.008779371 -0.1602103 0.04997011
000040 d5 8d 8b bc 91 ff 3b bd 5e 36 28 3c c9 d7 97 3b
       -0.017035404 -0.045898024 0.010266868 0.004633878
000050 82 29 99 bd fd 79 a4 bc bc c7 57 be 2c f9 25 be
       -0.0747862 -0.0200777 -0.21072286 -0.16208333
000060 2b 3a f1 3d a4 3a 57 bc 6a 4c 15 bd 3f f1 e8 bb
       0.11778673 -0.01313654 -0.036449827 -0.007108837
000070 61 e3 df 3c c7 4b ee 3d 83 06 a1 3e 29 b4 b4 bd
       0.027330102 0.11635547 0.3145028 -0.08823425
000080 c1 8a 99 bd 57 69 b4 3d 9c f3 c9 bd 7b f6 aa bc
       -0.07497168 0.088091545 -0.09860918 -0.020869484
000090 a3 96 10 3d 0f 5f 1b be 24 6f f8 bd 16 5d 07 3e
       0.03529991 -0.1517298 -0.121305734 0.13219103
0000a0 94 82 e8 3d cc d2 b8 bd e1 e3 9c bd f8 e8 1f 3d
       0.11353031 -0.09024581 -0.07660652 0.039040536
0000b0 8f 61 c6 bd ad 78 b4 3d 31 58 72 bd 03 21 67 bb
       -0.096865766 0.088120796 -0.059166137 -0.003526748
0000c0 10 3d d8 bd d4 c9 b9 bd ea 93 bb bd 97 cb ea 3d
       -0.10558522 -0.09071699 -0.09159072 0.11464613
0000d0 93 3c ba 3c 3c 63 e2 3d 81 b7 a1 3b dc 44 a8 bd
       0.022733962 0.11054084 0.0049352054 -0.08216259
0000e0 2b 86 98 bd bb 5d 7c 3a ed 23 c7 bc 7f 29 04 3d
       -0.074474655 0.0009627004 -0.024309123 0.032266136
0000f0 82 5e 01 be e8 d0 e2 bd 18 bb 05 be b2 d4 a8 3d
       -0.12633708 -0.11075002 -0.13059652 0.082436934

enc3.layer.1.running_mean f4 [64]
000000 e8 3f a3 3e 3a de 92 be 21 96 96 be e2 74 c9 be
       0.31884694 -0.2868517 -0.29411414 -0.39346987
000010 83 3e ba 3e 88 10 1b bf 03 bb 87 be aa de b4 3a
       0.36375818 -0.605721 -0.26509866 0.0013799269
000020 d0 06 26 3f f6 b1 8c 3e 0a 56 b0 bd 9a 64 e1 3e
       0.64854145 0.27479523 -0.08610161 0.44022065
000030 66 03 32 3e 2f 90 c3 be cb a5 18 3e 33 e5 1e 3f
       0.17384109 -0.3819594 0.14906995 0.6206848
000040 9a 8e a9 be 2e 9a 01 bf b5 9d 7c 3e 72 3b 3f be
       -0.3311661 -0.50625885 0.24669535 -0.1867502
000050 0a c5 b1 3e 8a 1c 19 3f 97 c9 11 3d 2c 56 b8 3e
       0.3472064 0.5980917 0.03559264 0.36003244
000060 60 d6 24 3c a0 20 c4 3e 64 54 66 3e de 02 48 3d
       0.010060877 0.3830614 0.2249313 0.04883086
000070 ee 29 ee 3e fa 22 2b 3f ed b9 29 3f 84 a9 54 bd
       0.46516365 0.66850245 0.66299325 -0.051919475
000080 1e 97 0a be a9 3f 04 3f 6d 02 95 bc be 2b 2e 3f
       -0.13534209 0.5165964 -0.018189633 0.68035495
000090 3c 29 92 3e 1c 25 9c bc ee c8 06 be a4 f6 95 3e
       0.28547084 -0.019060664 -0.13162586 0.29289734
0000a0 9e 78 a9 be e4 5b 41 3e da d7 d3 bd f2 3e 95 3e
       -0.33099836 0.1888271 -0.10343905 0.29149586
0000b0 4a 0e 68 be 25 3e c0 3e e8 61 88 3e e3 a1 cd bd
       -0.22661701 0.37547413 0.26637197 -0.10040643
0000c0 da 2e 5e be f8 58 4a 3d 26 a7 2a 3e 95 1a 37 3f
       -0.2169756 0.049401253 0.16665325 0.71524936
0000d0 de 85 1a 3f fe de be be 68 97 e4 be 1e 30 fc bc
       0.60360515 -0.37279505 -0.44646764 -0.030784663
0000e0 1a 37 03 3d 22 ac 25 3f 81 12 df 3e 72 ff 8e 3e
       0.03203497 0.6471578 0.43568805 0.27929264
0000f0 22 62 9e bd 83 e9 62 ba bf 63 64 3c d9 81 2c 3e
       -0.07733561 -0.0008656012 0.013939797 0.16846408

enc3.layer.1.running_var f4 [64]
000000 66 1f ee 3d 84 fc da 3d 64 22 b2 3d 90 f7 60 3e
       0.116270825 0.10692695 0.08697966 0.21969438
000010 04 2b 22 3e 5b 0d df 3e 62 1a 2f 3e f6 07 c1 3b
       0.15836722 0.43564877 0.17099908 0.0058908416
000020 66 17 83 3e e0 8b 03 3e 11 b9 f5 3c 35 19 40 3e
       0.2560379 0.12846327 0.029995473 0.18759616
000030 bd f9 30 3e 01 d9 b1 3d 34 74 d2 3d bf a9 f9 3e
       0.17282768 0.08683968 0.1027607 0.48762318
000040 b0 80 32 3e 59 ad 85 3e bc d2 98 3d 78 46 46 3d
       0.17431903 0.26108816 0.074620694 0.048407048
000050 62 55 21 3e 83 24 1d 3f 1c dc 18 3c 97 34 6d 3e
       0.15755227 0.6138384 0.009329822 0.23164593
000060 68 ba 16 3c 44 24 11 3e 80 bd 8d 3d 04 68 e9 3d
       0.009199716 0.1417399 0.0692091 0.113967925
000070 87 80 59 3e c8 22 15 3f 56 0d fa 3e 67 22 49 3d
       0.21240436 0.58256197 0.488383 0.049105074
000080 71 5e b2 3c 14 38 9c 3e 69 25 e9 3c 00 19 ee 3e
       0.021773549 0.30511534 0.028460221 0.46503448
000090 96 72 13 3e 24 0a 5a 3b 12 66 55 3d e9 fb 10 3e
       0.1439918 0.0033270204 0.052099295 0.14158596
0000a0 ee 02 29 3e f3 40 8f 3d f2 c0 16 3e ec c6 c7 3d
       0.16505024 0.0699481 0.1472204 0.09754738
0000b0 7e bb 92 3d bf fa 03 3e 0c a3 0a 3e 10 72 47 3d
       0.071646675 0.12888621 0.1353876 0.048692763
0000c0 92 8f 74 3d da 3a 7a 3d 92 b6 06 3e 6a 70 c7 3e
       0.05970723 0.06109128 0.13155583 0.38952953
0000d0 a9 eb fd 3e 29 95 a5 3d 73 21 80 3e b0 0f be 3c
       0.49593857 0.08085091 0.2502552 0.02320084
0000e0 e0 51 2d 3c 80 36 b2 3e 22 91 82 3e a6 96 ba 3d
       0.010578603 0.34807205 0.25501353 0.09110765
0000f0 fe f7 89 3d a4 57 f4 3c 79 57 01 3d f4 3c c8 3c
       0.06736754 0.029826947 0.03157756 0.024443127
