trained_models/sundai_edo.pth (torch, 210147 bytes, 72 tensors)

enc1.layer.0.weight f4 [3, 1, 3, 3]
0	0x3d51047a	0.05102966
1	0xbe825e20	-0.25462437
2	0xbea34ab2	-0.31892926
3	0xbc4e8982	-0.012606027
4	0x3e0e1044	0.13873392
5	0xbc9af43b	-0.018915286
6	0xbe306a61	-0.1722808
7	0x3e933801	0.28753665
8	0x3db0077a	0.08595176
9	0x3d9f8154	0.07788339
10	0x3cca76bf	0.024714826
11	0x3df43911	0.11924947
12	0x3e21197a	0.15732375
13	0xbe739b70	-0.23789763
14	0xbf0ee63d	-0.55820066
15	0x3dcc69e1	0.09981132
16	0xbd19a96c	-0.03751509
17	0x3d9b978f	0.07597267
18	0x3dfca31d	0.12335799
19	0x3e2e0188	0.16992772
20	0xbe0d05e0	-0.13771772
21	0x3e4388ef	0.19095205
22	0xbe64e93d	-0.22354598
23	0x3e78cbb9	0.24296464
24	0xbe737a89	-0.23777212
25	0xbf09e42e	-0.538638
26	0x3e3707a5	0.1787401

enc1.layer.1.weight f4 [3]
0	0x3f5ec23d	0.87015134
1	0x3f43d58f	0.7649774
2	0x3f4b435e	0.7939967

enc1.layer.1.bias f4 [3]
0	0x3f0cf68d	0.55063707
1	0x3f5871af	0.8454847
2	0x3ef09b78	0.46993613

enc1.layer.1.running_mean f4 [3]
0	0x3c96925e	0.01838034
1	0x3d2d4cf6	0.042309724
2	0x3d7d9e62	0.061918624

enc1.layer.1.running_var f4 [3]
0	0x3c6ed912	0.014578121
1	0x3cac77bc	0.021053188
2	0x3c96be4d	0.01840129

enc1.layer.3.weight f4 [32, 3, 1, 1]
0	0xbe08d7c2	-0.13363555
1	0x3e49acad	0.19694777
2	0xbc70d9f8	-0.014700405
3	0x3b3f1679	0.0029157682
4	0x3e4777aa	0.19479242
5	0x3c98a565	0.018633554
6	0xbf16205d	-0.5864313
7	0xbe64db81	-0.22349359
8	0x3e1e0d05	0.15434654
9	0x3d0c2463	0.03421439
10	0x3d9364c6	0.071969554
11	0x3e73a59d	0.23793645
12	0xbeecea0d	-0.46272317
13	0xbe887c15	-0.26657167
14	0x3f22776b	0.6346347
15	0x3f21cb78	0.63201094
16	0xbf092f99	-0.53588253
17	0x3e552f2b	0.20818774
18	0x3f260b44	0.6486094
19	0xbe1a3e1f	-0.1506276
20	0xbe8f0167	-0.27930757
21	0x3e8a5783	0.2701989
22	0x3ec42389	0.3830836
23	0x3eb518d4	0.35370505
24	0xbdbd8d33	-0.09255447
25	0xbebb148d	-0.36539117
26	0xbe74a9fa	-0.23892966
27	0x3e92842d	0.28616467
28	0xbdc0fed0	-0.094236016
29	0xbf10e148	-0.5659375
30	0x3ee17a51	0.44038633
31	0x3dcfed5f	0.10152697
32	0x3b57c5a6	0.0032924204
33	0x3e47455c	0.19460052
34	0x3f17a893	0.592416
35	0x3d964e22	0.073391214
36	0x3eb43886	0.35199374
37	0x3d5706d3	0.052496742
38	0x3eac27d4	0.33624136
39	0x3d9fc046	0.07800345
40	0xbf3fd698	-0.7493682
41	0xbf4634fe	-0.7742461
42	0xbed9f869	-0.42572334
43	0xbf05b001	-0.52221686
44	0x3eb8e591	0.36112645
45	0xbd81a19f	-0.06329655
46	0xbeb200e0	-0.34766293
47	0x3e972ddc	0.29527175
48	0xbe588844	-0.21145731
49	0x3ee680f5	0.4502026
50	0x3df825d7	0.121165924
51	0x3e6c355d	0.23067231
52	0x3e6264ee	0.22108814
53	0xbe81a057	-0.25317642
54	0xbe08ba5f	-0.13352345
55	0x3ef769f6	0.4832303
56	0x3e4667fe	0.19375607
57	0x3e4e9763	0.20174937
58	0xbf25ff4d	-0.64842683
59	0xbe89b23e	-0.268938
60	0xbedbd7c2	-0.42938048
61	0xbedf934f	-0.43667075
62	0x3e9c037f	0.30471417
63	0x3ebb649a	0.3660019
64	0x3f0edc91	0.5580531
65	0x3e1bf7a4	0.15231186
66	0xbde1d0f8	-0.11026186
67	0x3e8b9ab7	0.27266476
68	0x3d55bed6	0.05218395
69	0x3d482ccc	0.048870847
70	0x3bcfd412	0.0063424194
71	0x3f273eae	0.65330017
72	0xbec77cad	-0.38962308
73	0x3ecd08ad	0.40045682
74	0x3de6be3b	0.11266752
75	0x3e09fa05	0.13474281
76	0x3ef134a3	0.4711047
77	0xbeb5b03a	-0.35486013
78	0x3e38dcb5	0.18052943
79	0x3f3d7755	0.7401021
80	0xbe2fb1e2	-0.171577
81	0xbd485a47	-0.04891422
82	0x3dcf8103	0.10132029
83	0xbf125c7e	-0.5717238
84	0x3f281570	0.6565771
85	0x3d24fa70	0.0402779
86	0x3e08fc3e	0.13377473
87	0x3d406025	0.04696669
88	0xbefa3928	-0.48871732
89	0xbe845aaa	-0.2585042
90	0xbde50143	-0.11181881
91	0xbd1b2637	-0.03787824
92	0xbe2494b7	-0.16072355
93	0xbf16405a	-0.5869194
94	0xbee31bbf	-0.44357106
95	0x3e82d0c3	0.25549898

enc1.layer.4.weight f4 [32]
0	0x3f422ead	0.7585247
1	0x3f4b2dda	0.7936684
2	0x3f4ea72c	0.80723834
3	0x3f66fa99	0.9022613
4	0x3f3a9192	0.7287837
5	0x3f283d42	0.6571847
6	0x3f3d49a0	0.7394047
7	0x3edf8cae	0.43662018
8	0x3f62018d	0.88283616
9	0x3ec38daa	0.3819402
10	0x3f268c17	0.6505751
11	0x3f7a5f01	0.97801214
12	0x3f1127c6	0.56701314
13	0x3f32adce	0.69796455
14	0x3f546cec	0.829787
15	0x3f3359d3	0.70058936
16	0x3f436633	0.7632782
17	0x3f2d8df0	0.67794704
18	0x3f5b327d	0.85623914
19	0x3f4500f0	0.76954556
20	0x3f4c5d4c	0.7982986
21	0x3f1d8ecd	0.6154602
22	0x3f385a68	0.7201295
23	0x3f47e899	0.7808929
24	0x3f0f0ca6	0.55878675
25	0x3f606b8e	0.87664115
26	0x3eee3179	0.4652212
27	0x3f460ae2	0.77360356
28	0x3f425d1d	0.7592333
29	0x3f83db43	1.0301288
30	0x3f37d633	0.7181122
31	0x3f42a150	0.76027393

enc1.layer.4.bias f4 [32]
0	0x3e8103af	0.25198123
1	0x3e9ae27d	0.30250922
2	0x3dbb79ad	0.09154067
3	0x3e30881a	0.17239419
4	0x3e56da1d	0.20981641
5	0x3e58cf87	0.21172915
6	0x3eaaa4b9	0.33328798
7	0x3eae2d3a	0.3401888
8	0x3d8e3887	0.069443755
9	0x3e7e10fb	0.24811165
10	0x3e8b901b	0.2725838
11	0x3b2a17ff	0.0025954244
12	0x3e18de5e	0.14928576
13	0xbda4285f	-0.08015513
14	0x3e0e1b7b	0.1387767
15	0x3d445f03	0.047942173
16	0x3dbfbb50	0.09361899
17	0x3e562d4b	0.20915715
18	0x3de3fdd1	0.11132396
19	0x3df98eb0	0.121854186
20	0xbcb0f132	-0.021599386
21	0x3e4348b3	0.19070701
22	0x3dde0a4c	0.10841808
23	0x3de2ec18	0.110801876
24	0x3e28a449	0.1646892
25	0x3e7af4ec	0.24507493
26	0x3e298604	0.16555029
27	0x3c770270	0.015076265
28	0x3e5dbced	0.216541
29	0x3e1fdb12	0.15610912
30	0xbe1d97b9	-0.15389909
31	0x3d56824f	0.052370366

enc1.layer.4.running_mean f4 [32]
0	0x3d9c8199	0.07641906
1	0x3e42ae9c	0.1901192
2	0xbf02d42d	-0.51105005
3	0x3e70e4e5	0.23524816
4	0xbe2dc26e	-0.169687
5	0x3da1ccaa	0.07900365
6	0x3e0b8071	0.13623215
7	0x3f401e67	0.7504639
8	0xbf0aac58	-0.54169226
9	0xbe775f5e	-0.24157473
10	0x3ecb1e63	0.3967162
11	0x3f371c85	0.7152789
12	0x3efdc712	0.4956594
13	0xbf8ce48d	-1.1007248
14	0xbf0a9ef2	-0.5414878
15	0xbe355696	-0.17708811
16	0x3eaae5fb	0.33378586
17	0x3e506586	0.20351228
18	0x3eed2e8b	0.46324572
19	0xbf1d62aa	-0.61478674
20	0xbf0078a6	-0.50184095
21	0x3f59e950	0.8512163
22	0x3e513142	0.20428947
23	0x3ee1a04c	0.4406761
24	0x3e296966	0.16544113
25	0x3e98731a	0.29775316
26	0x3f301278	0.6877818
27	0xbe96c452	-0.29446656
28	0x3f11a5e2	0.5689374
29	0xbf11e107	-0.5698399
30	0xbe57c402	-0.21070865
31	0xbf254e3d	-0.6457251

enc1.layer.4.running_var f4 [32]
0	0x3c35ea5e	0.011103241
1	0x3c9193ac	0.01777061
2	0x3e57828c	0.21045893
3	0x3cf1762a	0.02947529
4	0x3e361f9c	0.17785496
5	0x3e0c9f96	0.13732752
6	0x3e18dc1a	0.14927712
7	0x3e821d66	0.25413054
8	0x3e06bf30	0.1315887
9	0x3de281d0	0.11059916
10	0x3de4f0b8	0.11178726
11	0x3e763a46	0.24045667
12	0x3e072917	0.13199268
13	0x3f19bf72	0.6005775
14	0x3e7029f8	0.2345351
15	0x3d3f6a89	0.04673246
16	0x3da0f0f1	0.07858456
17	0x3d5cc593	0.05389936
18	0x3dedc340	0.116095066
19	0x3e5654d0	0.20930791
20	0x3e4c9dec	0.19982117
21	0x3eadbdcb	0.33933863
22	0x3ce148f9	0.027500616
23	0x3e0f6a78	0.14005458
24	0x3d939a0c	0.072071165
25	0x3dc367b4	0.09541264
26	0x3e860f56	0.26183575
27	0x3db3d584	0.08780959
28	0x3e6c4b6a	0.23075643
29	0x3e203d0f	0.15648292
30	0x3cb7daa0	0.022443116
31	0x3e9ad628	0.30241513

enc2.layer.0.weight f4 [32, 1, 3, 3]
0	0x3e709f91	0.2349837
1	0xbe9290cb	-0.28626093
2	0xba858b00	-0.001018852
3	0x3db069fe	0.086139664
4	0x3e1db775	0.15402015
5	0xbeaf683f	-0.3425922
6	0x3e4f8347	0.20264922
7	0xbe3bc893	-0.18338232
8	0x3dfd0006	0.1235352
9	0x3dc79de1	0.0974691
10	0x3d0333ae	0.032031707
11	0x3d926a37	0.07149165
12	0xbdf382e9	-0.118902035
13	0xbead095e	-0.3379621
14	0xbe106178	-0.14099681
15	0x3d533533	0.051564407
16	0xbd24d5f3	-0.0402431
17	0x3e84baaa	0.25923663
18	0xbeecc2f6	-0.46242493
19	0xbe943006	-0.2894289
20	0xbe5d4739	-0.216092
21	0xbe5db121	-0.216496
22	0x3d7209be	0.059091322
23	0xbe8aa9a2	-0.27082545
24	0xbe3408e9	-0.17581524
25	0x3e288cb4	0.16459924
26	0x3e578e6c	0.21050423
27	0xbd57405f	-0.052551623
28	0xbe840d25	-0.25791278
29	0x3da00bcc	0.0781475
30	0x3d2dc39b	0.042422872
31	0xbe0b8b16	-0.13627276
32	0xbea2f6e4	-0.31828988
33	0x3e38e5eb	0.18056457
34	0xbeadaa8b	-0.33919176
35	0xbef3e1d8	-0.47633243
36	0xbe54fed8	-0.2080034
37	0xbecf787b	-0.40521607
38	0x3bfcacf3	0.007711047
39	0xbe22f31e	-0.15913054
40	0xbeb13eea	-0.34618312
41	0xbe57bfe8	-0.210693
42	0xbb23f041	-0.0025015029
43	0xbed163cb	-0.40896448
44	0xbdbc2e5a	-0.09188528
45	0xbe1517c9	-0.14559855
46	0xbd565652	-0.052328415
47	0x3d42dde0	0.047574878
48	0xbe62f1d4	-0.22162563
49	0xbe3072cf	-0.17231296
50	0x3bba3810	0.0056829527
51	0xbd9d883e	-0.07692002
52	0xbe5262a4	-0.20545441
53	0xbdf0d91a	-0.11760159
54	0x3bee9a95	0.007281611
55	0xbd02f070	-0.03196758
56	0xbe8e6033	-0.2780777
57	0x3da58ab5	0.08083097
58	0x3d7fac77	0.062420335
59	0x3e80291a	0.25031358
60	0xbe03b88f	-0.12863372
61	0x3ddb5865	0.10710219
62	0x3e29c9ae	0.16580841
63	0xbe360e7b	-0.17778961
64	0xbe152a7c	-0.14566988
65	0x3e9d68f4	0.30744135
66	0xbdeceb28	-0.1156829
67	0xbd810d1d	-0.06301329
68	0x3dafa1e7	0.08575802
69	0x3db20775	0.086928286
70	0x3c1d8b34	0.009615708
71	0xbd906d93	-0.070521496
72	0x3e82cd5b	0.255473
73	0x3dafc639	0.0858273
74	0x3e8ca0da	0.2746647
75	0x3e52652d	0.20546408
76	0x3e9cdf81	0.3063927
77	0x3e828bd7	0.25497314
78	0x3e0fab2a	0.14030138
79	0x3ed1029b	0.408223
80	0xbc3c10d9	-0.011478626
81	0xbecb6d1d	-0.39731684
82	0xbe8dae5f	-0.27672097
83	0xbd8fa754	-0.07014337
84	0x3e21648e	0.15761015
85	0xbea52372	-0.32253605
86	0xbea39860	-0.3195219
87	0xbe12afaa	-0.14324823
88	0x3e2e47fb	0.17019646
89	0x3ddf76d4	0.109113365
90	0x3e7d14a1	0.247149
91	0xbdb87095	-0.09005848
92	0xbeb64119	-0.3559654
93	0xbe3750d2	-0.17901924
94	0x3e972caa	0.29526263
95	0xbe734328	-0.23756087
96	0xbe5c753c	-0.21529096
97	0x3e36a50c	0.17836398
98	0x3e9a95d2	0.3019243
99	0x3d4aa239	0.049471114
100	0x3d9ca651	0.0764891
101	0x3ddbc133	0.10730209
102	0x3e8c96e0	0.27458858
103	0x3e7fdc8f	0.2498648
104	0xbdf603d2	-0.120124474
105	0x3e1caeac	0.15301007
106	0x3e7756b6	0.24154171
107	0x3e0257f2	0.12728861
108	0x3e3e190f	0.18564247
109	0x3e74ee60	0.23919058
110	0x3d50c726	0.050971173
111	0x3e3bbfc0	0.18334866
112	0xbd599664	-0.05312194
113	0xbe53cedd	-0.20684381
114	0xbe744599	-0.23854674
115	0xbdfd5a12	-0.12370695
116	0xbe7ac41c	-0.24488872
117	0x3e206c7e	0.15666386
118	0xbe250e4a	-0.16118732
119	0x3e23d6bf	0.15999888
120	0x3e9aa4e6	0.30203933
121	0x3e050100	0.12988663
122	0x3e0f0c96	0.13969645
123	0x3e0e02d2	0.13868263
124	0x3e2e8845	0.1704417
125	0x3db3eddf	0.08785605
126	0x3d8ac97d	0.06776712
127	0xbe90e0a5	-0.2829639
128	0xbe17c48b	-0.14821069
129	0xbe7bf43a	-0.24604884
130	0xbe2a7749	-0.16647066
131	0xbe10cd5d	-0.1414084
132	0xbe37eaa7	-0.17960607
133	0xbe6839f2	-0.22678354
134	0xbed2e19e	-0.41187757
135	0x3cb92cba	0.022604335
136	0xbe09e6df	-0.13466977
137	0x3e5ef8f4	0.21774656
138	0x3e0b72e0	0.1361804
139	0x3e4f871c	0.20266384
140	0xbe30e308	-0.17274106
141	0x3dc4c60c	0.09608087
142	0x3e817c24	0.25290024
143	0xbda7c6a3	-0.08192184
144	0xbebf58f9	-0.37372568
145	0x3e0f61d4	0.14002162
146	0x3e6f165b	0.23348372
147	0x3e964883	0.29352197
148	0xbec06379	-0.37575892
149	0xbd8b9265	-0.06815032
150	0x3a3e3ecb	0.00072572817
151	0x3d4f78ce	0.050652318
152	0xbe76238d	-0.24036999
153	0x3df381b6	0.11889975
154	0x3e6a7c24	0.22898918
155	0x3e63616b	0.22205131
156	0xbe94ab69	-0.29037026
157	0x3cf86a64	0.030324169
158	0x3cac896f	0.021061627
159	0xbe2133be	-0.15742394
160	0xbe7150e3	-0.23566012
161	0x3db70165	0.08935813
162	0xbdd77aa1	-0.105214365
163	0x3e8ace18	0.27110362
164	0x3e2b5a18	0.16733587
165	0x3d021cb3	0.03176565
166	0x3de37bc9	0.111075945
167	0x3e0231c3	0.12714295
168	0x3dcb8e1e	0.09939216
169	0xbe06c936	-0.13162693
170	0xbd9f9e90	-0.07793915
171	0xbe2b2c2c	-0.16716069
172	0xbd4ca959	-0.04996619
173	0x3e6d026e	0.23145458
174	0xbdf09a48	-0.11748177
175	0x3deca46c	0.115547985
176	0x3e95df2a	0.29271823
177	0x3bae43a1	0.0053181206
178	0x3d71c5d1	0.059026543
179	0xbe928ea7	-0.2862446
180	0xbdcef318	-0.1010496
181	0x3d6a14df	0.05714881
182	0xbd961f25	-0.07330159
183	0x3e8f9064	0.2803985
184	0x3e4e4e4b	0.20147054
185	0xbd6b2e43	-0.057417165
186	0xbe3926be	-0.18081185
187	0xbebdf3e8	-0.37100148
188	0x3e1dd5e1	0.1541362
189	0x3debe216	0.11517732
190	0xbe4b321c	-0.19843334
191	0xbe78e0e1	-0.24304534
192	0xbe44d946	-0.19223508
193	0xbe5375b3	-0.20650367
194	0x3e8b67bb	0.27227578
195	0x3d4fa493	0.05069406
196	0x3eb1ade4	0.3470298
197	0x3d206edd	0.039168227
198	0x3dce1f0d	0.10064516
199	0xbe81c676	-0.25346726
200	0xbe078c1a	-0.13237038
201	0xbe09e7d3	-0.1346734
202	0xbe2deeb4	-0.1698559
203	0xbdd3c2b0	-0.10339868
204	0xbe6ba363	-0.23011546
205	0x3d1f9828	0.038963467
206	0x3e17cc54	0.14824039
207	0x3e964375	0.2934834
208	0x3c7670cf	0.015041544
209	0xbe6de642	-0.23232368
210	0xbe3e5e37	-0.18590628
211	0xbe55235e	-0.20814273
212	0xbc5b0e81	-0.013370157
213	0xbe8f86eb	-0.28032622
214	0x3e8cddf9	0.27513102
215	0x3eb52b8c	0.35384786
216	0x3db002bf	0.08594274
217	0x3e712221	0.23548175
218	0x3e04960e	0.12947866
219	0x3e016dda	0.12639561
220	0x3ec403d5	0.38284174
221	0xbdead597	-0.1146652
222	0xbe34dd5f	-0.17662571
223	0x3e397eda	0.18114796
224	0x3e803c95	0.2504622
225	0x3e1c94f2	0.15291193
226	0xbe00083f	-0.12503146
227	0xbe24caff	-0.16093062
228	0x3c112ed3	0.008861261
229	0x3e4e28ea	0.20132795
230	0xbdc5440b	-0.09632119
231	0xbe4cc2fd	-0.19996257
232	0x3ea81f15	0.32836214
233	0x3ef0c76a	0.4702714
234	0xbebd28ad	-0.36945096
235	0x3e32e6fa	0.17470923
236	0xbdc96572	-0.09833802
237	0xbe2c1459	-0.16804637
238	0xbe1c30b1	-0.1525295
239	0xbe899744	-0.2687322
240	0x3ea7d591	0.32780126
241	0x3e55e7b6	0.20889172
242	0xbe7e734d	-0.24848671
243	0xbe40125c	-0.18757004
244	0x3b2596f7	0.0025266984
245	0xbe32a82e	-0.17446968
246	0xbe64f3d1	-0.22358634
247	0x3cd0d3c9	0.025491612
248	0xbe748e60	-0.23882437
249	0xbe31a281	-0.17347147
250	0xbe9f59f3	-0.31123313
251	0xbd7a8939	-0.061166022
252	0x3c358fe2	0.011081668
253	0x3d5ebd28	0.054379612
254	0xbd87af8e	-0.06625281
255	0xbe2fb168	-0.17157519

enc2.layer.1.weight f4 [32]
0	0x3f730c58	0.9494071
1	0x3f5b520a	0.85672057
2	0x3f84fd77	1.0389851
3	0x3f68aeb4	0.90891576
4	0x3f8af046	1.0854576
5	0x3f83be54	1.0292459
6	0x3f60a11f	0.8774585
7	0x3f83e2df	1.030361
8	0x3f8df95e	1.1091726
9	0x3f7a12b5	0.97684795
10	0x3f7a62c3	0.9780695
11	0x3f8a76cf	1.0817508
12	0x3f80e6a2	1.0070384
13	0x3f599840	0.8499794
14	0x3f88732b	1.0660146
15	0x3f69f274	0.9138558
16	0x3f688067	0.90820926
17	0x3f6ec728	0.9327264
18	0x3f77e3b5	0.9683183
19	0x3f66c726	0.90147626
20	0x3f66bbc8	0.9013028
21	0x3f8efb2f	1.1170405
22	0x3f7c36f4	0.9852135
23	0x3f8087b8	1.0041418
24	0x3f82463c	1.0177684
25	0x3f84e031	1.0380918
26	0x3f7dada5	0.99093086
27	0x3f685230	0.9075041
28	0x3f70f20e	0.94119346
29	0x3f8780b9	1.0586158
30	0x3f8221a8	1.0166521
31	0x3f75fc94	0.9608853

enc2.layer.1.bias f4 [32]
0	0x3d7d417f	0.06183004
1	0xbb8976ea	-0.004195084
2	0x3dd6034a	0.10449846
3	0x3d2153bd	0.0393865
4	0x3d3fc61a	0.046819784
5	0x3d99a187	0.07501512
6	0x3e6d6bc9	0.23185648
7	0x3d96aeb6	0.07357542
8	0x3e292d12	0.16521099
9	0x3d935d03	0.07195475
10	0x3ca988de	0.020695146
11	0x3cb8fa4f	0.022580294
12	0x3e2d7c2a	0.16941896
13	0xbcecbeb3	-0.028899526
14	0x3e00c686	0.1257573
15	0x3d919b67	0.07109719
16	0x3dead79f	0.11466908
17	0x3da51988	0.0806151
18	0x3d895f78	0.06707662
19	0xbd81e9f1	-0.06343449
20	0xbde8145f	-0.113320105
21	0x3e256750	0.16152692
22	0x3da6bfd5	0.08142058
23	0x3d9c060e	0.07618342
24	0x3e6b594a	0.2298328
25	0x3dfe6f15	0.12423531
26	0x3d14dfbf	0.036346193
27	0xbd52c9f2	-0.05146212
28	0xbcf170f4	-0.029472806
29	0x3d38952c	0.045064136
30	0x3d8c6b57	0.06856411
31	0x3e519dca	0.20470348

enc2.layer.1.running_mean f4 [32]
0	0xbba6827e	-0.005081474
1	0xbd850112	-0.06494345
2	0xbeeaf861	-0.45892623
3	0xbf18ee44	-0.59738564
4	0xbf324b8c	-0.69646525
5	0xbea41899	-0.32050017
6	0x3dd8ea02	0.105915084
7	0xbd102264	-0.035189047
8	0x3f472bb6	0.7780107
9	0xbead5ed1	-0.33861402
10	0xbd030581	-0.03198767
11	0x3ef1c250	0.4721856
12	0xbd883f87	-0.06652742
13	0x3e921060	0.28528118
14	0xbf364db2	-0.71212304
15	0x3e1cef64	0.15325695
16	0xbdf4d094	-0.119538456
17	0x3c03e15c	0.008049335
18	0x3e4ddcd3	0.20103769
19	0x3cee96f7	0.02912472
20	0xbce135d8	-0.027491495
21	0xbc12aa72	-0.00895177
22	0xbe82562e	-0.25456375
23	0x3c331108	0.010929354
24	0x3ea07f31	0.3134704
25	0x3e8b8943	0.2725316
26	0xbe2b7144	-0.16742426
27	0xbedd28bc	-0.4319514
28	0xbea30bae	-0.31844848
29	0xbe20c15f	-0.15698765
30	0xbe361135	-0.17780001
31	0x3ecfbc39	0.4057329

enc2.layer.1.running_var f4 [32]
0	0x3d90f06f	0.07077109
1	0x3d1aaa4d	0.037760068
2	0x3e5e0602	0.2168198
3	0x3ee41e1d	0.44554225
4	0x3ead2bd0	0.3382249
5	0x3dcf206c	0.10113606
6	0x3d8b8a9e	0.068135485
7	0x3bf54630	0.0074851736
8	0x3f48483a	0.7823521
9	0x3d85e45a	0.06537695
10	0x3d3f1cc9	0.04665831
11	0x3ea7e3ba	0.3279093
12	0x3cefbb34	0.02926407
13	0x3df5fef3	0.12011518
14	0x3ee743c0	0.45168877
15	0x3d304f6a	0.043044485
16	0x3d6bd0bc	0.05757211
17	0x3d7bb0f4	0.061448053
18	0x3d84a1ff	0.06476211
19	0x3cca2701	0.024676802
20	0x3ccc756e	0.024958339
21	0x3ca0599a	0.019573975
22	0x3daa256c	0.08307919
23	0x3d95c8a5	0.073136605
24	0x3db86818	0.09004229
25	0x3e24349f	0.16035698
26	0x3d479390	0.04872471
27	0x3e25b2a4	0.16181427
28	0x3e342b94	0.17594749
29	0x3da414d2	0.08011784
30	0x3d6f162d	0.058370758
31	0x3e3d9e42	0.18517402

enc2.layer.3.weight f4 [64, 32, 1, 1]
0	0x3d495ffd	0.049163807
1	0x3ca845c4	0.02054108
2	0xbd4b558a	-0.049642123
3	0x3d902a5f	0.07039332
4	0x3d82c33e	0.06384896
5	0x3d45d3f9	0.048297856
6	0xbdb62c43	-0.08895161
7	0x3e18e0c3	0.1492949
8	0x3db3a763	0.08772161
9	0xbe34919e	-0.17633674
10	0xbd5434f1	-0.0518083
11	0xbe5ea551	-0.2174275
12	0x3e463327	0.1935545
13	0xbd02e048	-0.031952173
14	0xbe2906e7	-0.1650654
15	0x3d197cc0	0.037472486
16	0x3dac4983	0.08412459
17	0xbaed2141	-0.0018091575
18	0xbe27b34a	-0.16376987
19	0x3d19c003	0.037536632
20	0x3c5ae008	0.013359077
21	0x3bf3348f	0.007422037
22	0xbe3e3502	-0.18574908
23	0xbd7555fd	-0.059896458
24	0xbdb8e6a6	-0.09028368
25	0xbe8bda85	-0.27315155
26	0xbdaf52c6	-0.0856071
27	0xbd4934ec	-0.049122736
28	0x3c183b9d	0.009291557
29	0xbddee513	-0.10883536
30	0xbd96074c	-0.073256105
31	0x3cba9dfa	0.022780407
32	0xbd3da82b	-0.046302956
33	0xbdf2efd0	-0.11862147
34	0xbd83f93e	-0.064440235
35	0x3d3baea9	0.045820866
36	0x3cd469e8	0.025929406
37	0xbdddf8d5	-0.108384766
38	0xbba4137f	-0.005007207
39	0xbdda587b	-0.106614076
40	0x3c2f0a3f	0.010683595
41	0x3e77761b	0.24166147
42	0xbc5657a5	-0.0130824195
43	0xbcd793d2	-0.026315603
44	0xbd9bc4d6	-0.07605903
45	0xbe0a91d2	-0.13532189
46	0x3e2f8c74	0.17143422
47	0x3df3d151	0.11905158
48	0x3d27d3fe	0.040973656
49	0xbe58d1b4	-0.21173745
50	0xbc37b7e0	-0.011213273
51	0xbdd587f3	-0.10426321
52	0xbdb13f63	-0.08654668
53	0x3cee6d3d	0.029104823
54	0x3ddbffa0	0.10742116
55	0xbe1c3bb1	-0.15257145
56	0x3d5fb0e1	0.054612044
57	0x3e17334c	0.14765662
58	0xbdc1fe80	-0.0947237
59	0xbde1c1d7	-0.110233
60	0xbddde758	-0.10835141
61	0xbdb703ae	-0.08936249
62	0xbc15168e	-0.009099616
63	0xbe420cf5	-0.18950255
64	0x3d441148	0.047868043
65	0xbd458a63	-0.04822768
66	0xbe100147	-0.14062987
67	0x3d0d4935	0.034493644
68	0xbd1386af	-0.036017116
69	0x3c5834ad	0.013196153
70	0xbd8e00ed	-0.0693377
71	0x3e1d5d61	0.15367652
72	0x3e151039	0.1455697
73	0x3d250e20	0.040296674
74	0xbd4577e2	-0.048210032
75	0xbec5b7fc	-0.3861693
76	0x3d98ca8e	0.07460509
77	0xbd5ebd8e	-0.054379992
78	0xbe182e8d	-0.14861508
79	0xbd9f0f20	-0.07766557
80	0x3c19a756	0.009378275
81	0xbdc0b615	-0.094097294
82	0xbe8b0c15	-0.27157655
83	0xbda31e9b	-0.07964822
84	0x3d21bf45	0.03948905
85	0x3d8b7183	0.0680876
86	0x3ddbac70	0.10726249
87	0x3d2f8835	0.042854507
88	0xbdfc31b2	-0.12314166
89	0xbea58fb2	-0.32336193
90	0x3ddb062b	0.10694536
91	0xbd16e57e	-0.036839955
92	0x3e603761	0.21896125
93	0xbd755c98	-0.059902757
94	0xbce6047c	-0.02807831
95	0x3d339ccc	0.043850705
96	0xbddec6e4	-0.10877779
97	0xbdbfd7bd	-0.09367321
98	0x3e674a9a	0.22587052
99	0x3c61b2f9	0.013775581
100	0x3deadeb5	0.11468259
101	0xbdce62e6	-0.10077457
102	0xbd69b5c3	-0.057058107
103	0x3d72249d	0.05911695
104	0xbdb4572b	-0.088056885
105	0xbd549d9b	-0.051908117
106	0xbe74042c	-0.23829716
107	0xbd692df3	-0.056928586
108	0xbd98a0d7	-0.07452553
109	0xbd1759b3	-0.03695078
110	0xbd11907e	-0.03553819
111	0xbe02f3f6	-0.12788376
112	0xbdc40a08	-0.09572226
113	0xbd5efd1d	-0.054440606
114	0x3da717b4	0.08158818
115	0xbde83656	-0.11338489
116	0xbe75a5a0	-0.23988962
117	0xbebe5489	-0.3717387
118	0x3db36901	0.08760262
119	0xbe209e5e	-0.15685412
120	0xbe5de682	-0.21669963
121	0x3e0facb3	0.14030723
122	0xbe417cf6	-0.18895325
123	0x3d673ea5	0.056456227
124	0x3e078c48	0.13237107
125	0xbe15b26a	-0.14618841
126	0x3d9559b3	0.072924994
127	0x3dca3850	0.09874022
128	0xbd2c85ee	-0.042119913
129	0x3d973f4a	0.07385118
130	0x3d7792f6	0.060442887
131	0xbe2a26be	-0.16616341
132	0x3e02d8ba	0.12777987
133	0x3d843a82	0.06456472
134	0xbdf960b0	-0.12176645
135	0x3df74873	0.120743655
136	0xbcc80fc7	-0.024421586
137	0x3bf99945	0.007617148
138	0x3e09a842	0.13443092
139	0xbbb836a3	-0.0056217476
140	0x3ca3d0e4	0.019997068
141	0x3d8a3410	0.067482114
142	0xbc885d7b	-0.016646137
143	0xbd136e79	-0.035994027
144	0x3c94b0b0	0.018150657
145	0x3d8e2316	0.06940286
146	0x3c8a5b99	0.01688938
147	0x3dcb6741	0.099318035
148	0xbe07f9b7	-0.13278852
149	0xbf1723d9	-0.59039074
150	0xbdf1dd4d	-0.11809788
151	0xbdd3ec53	-0.1034781
152	0xbb6a2b4d	-0.0035731376
153	0xbd618524	-0.055058613
154	0x3dc5452f	0.09632336
155	0xbbee7068	-0.0072765835
156	0xbd36f634	-0.04466839
157	0xbd91d80c	-0.07121286
158	0x3bc6893c	0.00605884
159	0xbe0d3d56	-0.13792929
160	0x3de1e17b	0.11029335
161	0xbc29b2c6	-0.010357564
162	0xbe208d8e	-0.15678999
163	0x3d0b2249	0.033968244
164	0x3d19fe06	0.03759577
165	0xbd492d91	-0.04911572
166	0xbd33d115	-0.043900568
167	0x3ca74e9e	0.02042323
168	0x37d3b2a9	2.5236355e-05
169	0x3dfae70f	0.12251102
170	0x3da5a30d	0.0808774
171	0xbd917eae	-0.0710424
172	0xbbf3c326	-0.007439035
173	0x3c4a442f	0.012345358
174	0x3e134c05	0.14384468
175	0x3d77bf34	0.06048508
176	0x3dc7e819	0.09761066
177	0xbde11895	-0.10991017
178	0xbe8f979e	-0.28045362
179	0xbcdc3bc9	-0.026883977
180	0x3d90b8ff	0.07066535
181	0x3e41aa72	0.18912676
182	0x3daa139d	0.08304522
183	0xbc79ac82	-0.015238883
184	0xbdcc3764	-0.099715024
185	0x3c22faa8	0.009947456
186	0x3e0a5704	0.13509756
187	0xbdb023be	-0.08600567
188	0xbdbccc8b	-0.09218701
189	0x3e49a7b0	0.19692874
190	0x3bfe4479	0.0077596274
191	0xbe578e92	-0.2105048
192	0xbc9dfede	-0.01928657
193	0xbdc2b891	-0.095078595
194	0xbe7cbd88	-0.24681675
195	0x3dacd9c5	0.08439974
196	0xbdebcd63	-0.11513784
197	0x3dad2f8c	0.084563345
198	0x3b97e08e	0.0046349233
199	0x3d160fa9	0.03663603
200	0x3e3c7ea0	0.18407679
201	0xbdc779db	-0.09740039
202	0x3d83159f	0.06400608
203	0xbe59d1e6	-0.21271476
204	0x3daa0fcc	0.08303794
205	0x3db4c60e	0.088268384
206	0xbe095b51	-0.1341374
207	0xbd5ad76f	-0.05342811
208	0x3e021bf2	0.12705973
209	0xbcf0eedc	-0.029410772
210	0xbd3a0b5a	-0.045420982
211	0xbd1ce4c3	-0.0383041
212	0x3c70bac5	0.014692967
213	0x3d1e7357	0.038684215
214	0x3d8d921d	0.069126345
215	0x3da4cd0f	0.08046924
216	0xbddc5a86	-0.107594535
217	0xbd42754e	-0.04747515
218	0xbd74017b	-0.059571724
219	0xbd6e46ed	-0.05817311
220	0xbd2152df	-0.039385673
221	0xbbb18fc6	-0.0054187505
222	0xbe6b4942	-0.22977164
223	0xbd120610	-0.035650313
224	0xbd16c41b	-0.036808114
225	0x3e3b26c6	0.1827651
226	0xbd2e9006	-0.04261782
227	0x3d7217b4	0.059104636
228	0xbe5030e5	-0.20331152
229	0xbe3e9af0	-0.18613791
230	0x3c92255e	0.017840084
231	0xbd67d1fc	-0.05659674
232	0xbb89a589	-0.0042006415
233	0x3caa2462	0.020769302
234	0x3c55d1f9	0.01305055
235	0xb9fb439c	-0.00047924824
236	0x3e599f5a	0.21252194
237	0x3dbf44c1	0.09339286
238	0xbe9cf7e9	-0.3065789
239	0x3e4a6970	0.19766784
240	0xbd0cc1f4	-0.034364656
241	0x3e0e3538	0.13887489
242	0x3d3bc10e	0.04583841
243	0x3da069eb	0.07832702
244	0xbd894a70	-0.06703651
245	0xbde00c3a	-0.10939832
246	0x3e1db798	0.15402067
247	0xbcbcaf7d	-0.023032898
248	0xbe1426b4	-0.14467889
249	0xbd850042	-0.0649419
250	0x3d9e00d1	0.077149995
251	0xbd1b721a	-0.037950613
252	0x3decdaf1	0.11565197
253	0xbd838d61	-0.0642345
254	0x3e108eeb	0.14117019
255	0x3c5fc95f	0.01365885

enc2.layer.4.weight f4 [64]
0	0x3f300eef	0.68772787
1	0x3f761d69	0.96138626
2	0x3efd3a86	0.49458712
3	0x3f0e0b58	0.5548606
4	0x3f7e2973	0.99281996
5	0x3f25ddf7	0.64791816
6	0x3f5d4337	0.86430687
7	0x3f704f62	0.9387113
8	0x3f6e3012	0.930421
9	0x3eeef493	0.4667097
10	0x3f66a12f	0.90089697
11	0x3f2cc512	0.67488205
12	0x3f470e69	0.77756363
13	0x3f3dc9a4	0.74135804
14	0x3f6cc684	0.9249041
15	0x3ee4e22b	0.44703802
16	0x3f294c8a	0.66132414
17	0x3f2ab709	0.6668554
18	0x3f2fd02e	0.6867703
19	0x3f73d825	0.95251685
20	0x3f1a2bea	0.6022326
21	0x3f199ef7	0.60008186
22	0x3ee69d33	0.45041808
23	0x3f552c0e	0.8327035
24	0x3f1df579	0.61702687
25	0x3f2a5820	0.6654072
26	0x3f40464a	0.7510725
27	0x3f77ec19	0.9684463
28	0x3f564483	0.8369829
29	0x3f17af3d	0.5925177
30	0x3eec71f9	0.46180704
31	0x3f7c0304	0.984421
32	0x3ed6bc8c	0.41940725
33	0x3f65bb30	0.8973875
34	0x3f725526	0.94661176
35	0x3f7a648b	0.97809666
36	0x3f1002e1	0.5625439
37	0x3f330378	0.6992717
38	0x3e3f27e7	0.18667565
39	0x3f7741b8	0.96584654
40	0x3f336f30	0.70091534
41	0x3f3eccac	0.74531054
42	0x3f144458	0.57916784
43	0x3f3fc4c4	0.74909616
44	0x3f6fe1ef	0.9370412
45	0x3f4c44cf	0.79792494
46	0x3f5482c5	0.8301204
47	0x3f737475	0.95099574
48	0x3f33eddd	0.70284826
49	0x3f5f7ca0	0.8729954
50	0x3f2c9681	0.6741715
51	0x3f6f901e	0.9357928
52	0x3f588336	0.8457521
53	0x3f1790fd	0.5920561
54	0x3f32427c	0.696327
55	0x3f66c8ab	0.90149945
56	0x3f5e906d	0.86939126
57	0x3f377bc8	0.7167325
58	0x3f17b7c3	0.59264773
59	0x3f5e91c7	0.8694119
60	0x3f764349	0.9619642
61	0x3f5f556b	0.8723971
62	0x3f615557	0.88020843
63	0x3f618b72	0.881034

enc2.layer.4.bias f4 [64]
0	0x3e16b6b6	0.14718136
1	0x3dbfc29c	0.09363291
2	0xbd3330ae	-0.043747596
3	0xbe7aebc0	-0.24503994
4	0x3da7c312	0.081915036
5	0x3d2c922f	0.0421316
6	0x3d92b97f	0.07164287
7	0x3e2db83d	0.16964813
8	0x3d9c4993	0.07631221
9	0xbe90fe22	-0.28318888
10	0xbb313f4e	-0.002704579
11	0xbcbe282d	-0.023212517
12	0xbc8f73ce	-0.017511275
13	0x3c8d0682	0.017215017
14	0x3d744a2e	0.059641056
15	0xbdac9e21	-0.08428598
16	0x3d4e4df4	0.05036731
17	0x3d51c30c	0.0512114
18	0xbc84039b	-0.016115
19	0x3e00c2f5	0.1257437
20	0x3d972062	0.073792234
21	0xbe0cdff3	-0.13757305
22	0xbe6f2fdf	-0.23358105
23	0x3e3d0153	0.18457536
24	0xbe37904a	-0.17926136
25	0xbe763aa7	-0.24045812
26	0xbccd38aa	-0.025051434
27	0x3e346ef9	0.17620458
28	0xbddabb0f	-0.1068021
29	0xbda03d92	-0.078242436
30	0x3cbe04c9	0.023195641
31	0x3cda0aa2	0.026616398
32	0xbe709889	-0.23495688
33	0x3db79afe	0.08965109
34	0xbb1f9ec4	-0.0024356106
35	0x3e2255e9	0.15853085
36	0xbe393fb8	-0.18090713
37	0xbdb680da	-0.08911295
38	0x3c9e65d7	0.01933567
39	0x3df55fbf	0.11981153
40	0x3d93aa63	0.07210233
41	0xbe049109	-0.12945952
42	0xbd814d52	-0.06313576
43	0x3daad9cb	0.08342322
44	0x3db7665d	0.08955071
45	0x3cf97136	0.030449491
46	0x3d724c4a	0.059154786
47	0x3e48ac33	0.19596939
48	0xb94a6b36	-0.0001930416
49	0xbd96239e	-0.07331012
50	0xbe2bdbbc	-0.16783041
51	0x3e3b331a	0.18281212
52	0x3ded6515	0.115915455
53	0x3d392273	0.04519887
54	0x3cca70ee	0.024712052
55	0xbd5e4f0e	-0.05427461
56	0x3e538ee7	0.20659982
57	0x3d9d474f	0.07679617
58	0x3daa35f8	0.08311075
59	0xbccf91db	-0.025338104
60	0x3d6d5ae2	0.057948
61	0x3e2dc314	0.16968948
62	0x3ac3682d	0.0014908366
63	0x3e83ba08	0.25727868

enc2.layer.4.running_mean f4 [64]
0	0xbee72e02	-0.4515229
1	0xbe81bfe6	-0.2534172
2	0xbecb27d0	-0.39678812
3	0xbf06ed6a	-0.52706015
4	0xbe9f7fb4	-0.31152117
5	0x3d1a6324	0.037692204
6	0xbeac1fc4	-0.33617985
7	0xbc3b3124	-0.01142529
8	0xbe774b48	-0.24149811
9	0xbe28155e	-0.16414401
10	0xbe879513	-0.26480922
11	0xbe97ab1a	-0.29622728
12	0xbe754e4a	-0.23955646
13	0xbdf334bb	-0.11875292
14	0xbe44220a	-0.1915361
15	0xbe83553a	-0.2565096
16	0x3e39c26d	0.18140574
17	0x3e70cd24	0.23515755
18	0xbed73950	-0.42035913
19	0x3ddb05ed	0.1069449
20	0xbe91cd68	-0.28477025
21	0xbed4dfaa	-0.41576892
22	0xbe1b5112	-0.15167645
23	0x3e922037	0.28540203
24	0xbd0af34f	-0.033923443
25	0xbed6f4be	-0.41983598
26	0xbe7ec33d	-0.24879165
27	0xbd18360c	-0.037160918
28	0xbe90215c	-0.2815045
29	0x3e1ffbc3	0.15623383
30	0xbeac94d6	-0.33707303
31	0x3e891798	0.26775813
32	0xbe6c4417	-0.23072849
33	0xbdda2908	-0.10652357
34	0xbedcfee8	-0.43163228
35	0xbed93b90	-0.42428255
36	0xbe742353	-0.238416
37	0xbe843a98	-0.25825953
38	0xbd2d7313	-0.04234607
39	0xbeab625e	-0.33473486
40	0xbe384e94	-0.17998725
41	0xbf0b29f2	-0.5436088
42	0x3ae539a6	0.0017488494
43	0xbe7a714b	-0.2445728
44	0x3de54204	0.11194232
45	0x3dea44af	0.114388816
46	0x3d1496b8	0.03627655
47	0xbf1221ea	-0.57083
48	0xbeb768a0	-0.3582201
49	0x3e8e41c1	0.2778454
50	0xbf0e67d2	-0.5562717
51	0xbee778c2	-0.45209318
52	0xbec3bc7b	-0.38229737
53	0x3d75c2a9	0.060000096
54	0xbd264928	-0.04059711
55	0xbf1d991c	-0.6156175
56	0xbf095fd9	-0.53661877
57	0xbecc2e7e	-0.3987922
58	0xbed3a9d4	-0.41340506
59	0xbdc3884b	-0.0954748
60	0x3cf1b940	0.02950728
61	0x3e29cd76	0.16582283
62	0xbeb8e798	-0.36114192
63	0xbea0fd8a	-0.31443435

enc2.layer.4.running_var f4 [64]
0	0x3f0952fb	0.53642243
1	0x3e6485f3	0.22316723
2	0x3f7d8c3c	0.99042106
3	0x3ecaad5a	0.39585382
4	0x3e7643cb	0.24049298
5	0x3e0a90fc	0.1353187
6	0x3efe5410	0.4967351
7	0x3eb6f202	0.35731512
8	0x3f42c1d7	0.76077026
9	0x3f209ec9	0.62742287
10	0x3f006fca	0.50170577
11	0x3f06761b	0.52523965
12	0x3e266b5d	0.16251893
13	0x3eaddd5e	0.33957952
14	0x3e977b44	0.29586232
15	0x3eacd2e8	0.3375466
16	0x3eb5c6b7	0.3550317
17	0x3e128ca9	0.1431147
18	0x3f45ac44	0.7721598
19	0x3ee7b79a	0.45257264
20	0x3f1dd2c3	0.6164972
21	0x3e875846	0.26434535
22	0x3eb3c4c4	0.35111058
23	0x3f13482e	0.5753201
24	0x3f182c5c	0.5944269
25	0x3e68bd44	0.22728449
26	0x3f4b140a	0.7932745
27	0x3e6bffde	0.23046824
28	0x3e6bcf05	0.2302819
29	0x3e22ce39	0.1589898
30	0x3f2e9dab	0.6820933
31	0x3e443601	0.19161226
32	0x3f00825c	0.5019891
33	0x3f0be485	0.5464557
34	0x3eecaf5e	0.46227545
35	0x3f0b9120	0.5451832
36	0x3e8ac92e	0.27106613
37	0x3deab4e3	0.11460283
38	0x3e91f66c	0.28508317
39	0x3ecd163c	0.40056026
40	0x3f3cdf23	0.7377798
41	0x3ed2a886	0.41144198
42	0x3e0db28a	0.13837638
43	0x3f2c7acc	0.67374873
44	0x3e361ffc	0.17785639
45	0x3e8df4bd	0.27725783
46	0x3e8f5ede	0.28002065
47	0x3f4b48fc	0.7940824
48	0x3e5e83c1	0.21729948
49	0x3ea06203	0.31324777
50	0x3f7674e2	0.962721
51	0x3eb222e1	0.34792235
52	0x3f1e397e	0.61806476
53	0x3e3576b6	0.17721066
54	0x3f2fb041	0.6862832
55	0x3f096e6a	0.53684103
56	0x3e81fb4a	0.2538703
57	0x3e951560	0.2911787
58	0x3e94b980	0.29047775
59	0x3e9d6baf	0.3074622
60	0x3ea13fc7	0.3149397
61	0x3e68b129	0.22723831
62	0x3f2c3794	0.67272305
63	0x3e9a7e15	0.30174318

enc3.layer.0.weight f4 [64, 1, 3, 3]
0	0x3c325383	0.010884169
1	0x3e44e46d	0.19227763
2	0x3d9c5cce	0.076348886
3	0xbba714dc	-0.005098922
4	0x3e32f26a	0.17475286
5	0xbcd7e3a2	-0.026353661
6	0xbeb1d6e7	-0.3473427
7	0xbe6721b9	-0.22571458
8	0x3e019a4d	0.12656517
9	0xbe73029f	-0.23731469
10	0xbb2e48c0	-0.0026593655
11	0x3e8374cb	0.25675043
12	0xbe4574de	-0.19282863
13	0x3cc6f5dc	0.024287157
14	0x3e65f72b	0.22457568
15	0x3e5373eb	0.20649688
16	0x3a2158d0	0.00061548967
17	0xbe90fb4d	-0.28316727
18	0xbe67e494	-0.2264579
19	0xbe8358b8	-0.25653625
20	0xbdb0d2f8	-0.08633989
21	0x3b98794f	0.004653133
22	0x3d07caf9	0.033152554
23	0x3dd14789	0.102187224
24	0x3e71969c	0.23592609
25	0x3eab0e35	0.33409277
26	0x3d6d96c6	0.058005117
27	0x3ebf822c	0.37404
28	0x3e9dfa56	0.30855054
29	0x3efe89e5	0.4971458
30	0x3ce4e1db	0.027939728
31	0x3d6cb298	0.057787508
32	0x3e795472	0.2434862
33	0x3df7bf84	0.120970756
34	0xbcd9048b	-0.026491424
35	0xbdbd9353	-0.092566155
36	0xbe3473dd	-0.17622323
37	0xbd01aaa7	-0.031656887
38	0x3e5e6a57	0.21720253
39	0xbe3db9a0	-0.18527842
40	0x3d14a2a3	0.036287915
41	0x3e28391e	0.16428038
42	0x3e936ccd	0.28793946
43	0x3d00a2e9	0.031405363
44	0xbe902945	-0.28156486
45	0xbd8687c6	-0.065688655
46	0xbe87b6a5	-0.26506534
47	0xbeb8de94	-0.36107314
48	0xbd559a72	-0.052149244
49	0xbe52cf3c	-0.20586866
50	0xbe2e0d66	-0.16997299
51	0xbd7c33db	-0.06157289
52	0xbdbd87f8	-0.092544496
53	0xbca76d42	-0.02043784
54	0x3e6e2e2f	0.23259805
55	0xbd50fb67	-0.051021006
56	0x3e8091f4	0.25111353
57	0xbe11db70	-0.14243865
58	0x3dec68d1	0.1154343
59	0x3e70adbc	0.23503774
60	0x3e784eab	0.2424876
61	0x3db2533f	0.08707284
62	0x3eea4143	0.45752916
63	0x3e455f88	0.19274724
64	0xbe99f636	-0.30070657
65	0xbe5cd530	-0.215657
66	0x3e150588	0.14552891
67	0xbc4fb4c0	-0.0126773715
68	0xbe141eb3	-0.14464836
69	0xbd8c9cdf	-0.06865858
70	0xbee1aad0	-0.44075632
71	0xbe853c50	-0.26022577
72	0xbd3022ad	-0.04300182
73	0x3dd70129	0.10498268
74	0x3de12c7a	0.10994811
75	0x3ea0d266	0.3141052
76	0x3eb63b9b	0.3559235
77	0x3cbb6b44	0.022878297
78	0x3d0e24ad	0.034702946
79	0x3eb6506e	0.35608238
80	0x3e39755a	0.18111172
81	0xbc27b692	-0.010236399
82	0xbd05f778	-0.032706708
83	0x3dcbb920	0.09947419
84	0xbde73c8a	-0.11290844
85	0xbe0a3471	-0.13496567
86	0xbe4ae871	-0.19815232
87	0xbe1a72cb	-0.15082853
88	0x3e95f8e6	0.29291457
89	0x3e81e526	0.2537014
90	0xbcd706b3	-0.026248312
91	0xbdd28f97	-0.10281294
92	0x3e968c9a	0.29404145
93	0xbbc8a7ca	-0.0061235176
94	0xbd8e1f9f	-0.06939625
95	0x3e332a3e	0.17496583
96	0x3e5688ac	0.20950574
97	0x3be60efc	0.0070208292
98	0x3ea8c425	0.32962146
99	0xbe8bcfc0	-0.27306938
100	0xbece80c0	-0.40332603
101	0xbeb35a5f	-0.35029885
102	0x3bbfc4f0	0.005852334
103	0x3e238f2a	0.15972582
104	0x3e8947f5	0.2681271
105	0xbe86a5c6	-0.2629835
106	0x3cc46916	0.02397589
107	0xbd55dbfc	-0.052211747
108	0xbe0ac338	-0.13551033
109	0xbdc67dd2	-0.09691967
110	0x3d9fe42b	0.078071915
111	0xbea9d5f9	-0.3317106
112	0x3dc8212a	0.097719505
113	0x3e9d0be9	0.3067315
114	0x3e510384	0.20411497
115	0x3e11a44d	0.14222832
116	0xbe702c0a	-0.234543
117	0x3cce152f	0.025156585
118	0xbe091d50	-0.13390088
119	0xbeb60f57	-0.35558578
120	0xbcd39372	-0.025827143
121	0x3e421f09	0.18957151
122	0xbed0f4a7	-0.40811655
123	0x3daf23a8	0.08551723
124	0xbe820c26	-0.25399894
125	0xbcac9980	-0.021069288
126	0xbe8d8381	-0.27639392
127	0xbe91142a	-0.28335696
128	0xbe5af1dc	-0.21381325
129	0xbe2cfd61	-0.16893531
130	0xbebdc388	-0.3706324
131	0xbdc10ec7	-0.09426647
132	0x3e1213b6	0.14265332
133	0xbe2ce49d	-0.16884084
134	0xbe107546	-0.14107236
135	0x3e245041	0.1604624
136	0xbd9a7790	-0.07542336
137	0x3d629011	0.055313174
138	0x3dd8d641	0.10587741
139	0x3e5cea7c	0.21573824
140	0x3e4fed5a	0.20305386
141	0x3e11e4f6	0.14247498
142	0x3ebaea8c	0.3650707
143	0x3dcf98cc	0.101365656
144	0x3cb6d56e	0.022318568
145	0xbe83f71d	-0.2577447
146	0x3bca0e3e	0.0061662486
147	0xbd83e3ec	-0.06439957
148	0xbdb259be	-0.08708523
149	0xbeb6dfa3	-0.35717496
150	0x3cbf5754	0.023357071
151	0x3e72e4eb	0.23720138
152	0x3e68c4ca	0.22731319
153	0xbe192571	-0.14955689
154	0xbe08263c	-0.13295835
155	0xbcb61f10	-0.022231609
156	0xbe30b805	-0.17257698
157	0xbdd97fa6	-0.1062005
158	0xbbed070e	-0.007233507
159	0xbe546bf8	-0.20744312
160	0xbe14a0c3	-0.1451445
161	0xbcdd013f	-0.026978133
162	0x3e927fb6	0.2861306
163	0x3e03afef	0.12860082
164	0xbdb93c9f	-0.09044766
165	0x3e703458	0.23457468
166	0x3e5ee68a	0.21767631
167	0x3de69237	0.11258357
168	0x3e14e75e	0.14541385
169	0x3d818fff	0.06326293
170	0xbdffeb9b	-0.1249611
171	0xbd9328e2	-0.07185532
172	0xbe1914e0	-0.1494937
173	0xbd783f24	-0.06060709
174	0xbdf76473	-0.12079706
175	0xbdf14723	-0.117811464
176	0x3d40c400	0.04706192
177	0xbe5430b0	-0.20721698
178	0xbdd6f676	-0.104962274
179	0xbe38e389	-0.18055548
180	0x3e45b2bb	0.19306462
181	0x3e706033	0.23474197
182	0x3e37aacf	0.17936252
183	0xbe673af5	-0.22581084
184	0xbe67eda7	-0.22649251
185	0x3dcd8fd2	0.10037197
186	0xbd2786b1	-0.040899936
187	0xbe3671aa	-0.17816797
188	0xbe352e05	-0.17693336
189	0x3e24bd4e	0.16087839
190	0x3ea3ba42	0.3197804
191	0x3e8531ca	0.2601455
192	0xbc1fd1ca	-0.009754607
193	0x3d774e83	0.06037761
194	0xbeabe2af	-0.33571383
195	0xbdc3771e	-0.09544204
196	0x3e024e08	0.12725079
197	0xbe672d80	-0.2257595
198	0xbd150132	-0.036378093
199	0x3daa9bc8	0.08330494
200	0xbdcb88e0	-0.09938216
201	0x3e728606	0.23683938
202	0xbe4acd8b	-0.19804971
203	0xbe16caaf	-0.14725755
204	0x3e156674	0.14589864
205	0x3e57ab36	0.21061406
206	0xbe0cb9f5	-0.13742812
207	0x3d9229a7	0.07136851
208	0x3e924f06	0.28575915
209	0x3de19310	0.11014378
210	0x3d7a0d3b	0.061047774
211	0xbe229aaf	-0.1587932
212	0xbe052efa	-0.13006201
213	0xbe185e79	-0.14879788
214	0xbebc4065	-0.3676788
215	0xbea255dc	-0.3170613
216	0xbdf9178f	-0.121626966
217	0xbea66fe4	-0.3250724
218	0xbcee8e1b	-0.029120496
219	0xbd8a7dbd	-0.06762264
220	0xbca81417	-0.020517392
221	0xbe8732b7	-0.2640588
222	0xbea34a9d	-0.31892863
223	0xbe60fc5a	-0.21971264
224	0xbe114c0a	-0.14189163
225	0x3e501e1b	0.20323984
226	0x3d871e18	0.06597537
227	0x3e095f28	0.13415205
228	0x3dd759ef	0.105152
229	0x3e285313	0.1643794
230	0x3dbd21d8	0.09234971
231	0x3e6b0283	0.22950177
232	0x3e959508	0.29215264
233	0x3eb5123f	0.35365483
234	0x3e1c4cdf	0.15263699
235	0x3e1530a2	0.14569333
236	0x3d85f68f	0.06541168
237	0x3e3af964	0.18259197
238	0xbdd18b8e	-0.10231696
239	0xbe387d45	-0.18016537
240	0xbe72bb43	-0.23704247
241	0xbe33c196	-0.17554316
242	0xbe30a685	-0.17251022
243	0x3e0f9a71	0.14023758
244	0x3e5b03be	0.21388146
245	0x3e7e3bc7	0.24827491
246	0x3e348b26	0.17631206
247	0xbd98fd56	-0.07470195
248	0xbd0d0d17	-0.03443631
249	0xbda62193	-0.081118725
250	0x3c4d77df	0.0125407865
251	0x3da05499	0.07828636
252	0xbdea58aa	-0.114426926
253	0xbd06a4de	-0.032872073
254	0xbb83ef50	-0.004026331
255	0x3e4cdafd	0.20005412

enc3.layer.1.weight f4 [64]
0	0x3f6bcdbf	0.9211082
1	0x3f8ac26f	1.0840586
2	0x3f917bbc	1.1365886
3	0x3f89e411	1.0772725
4	0x3f8667be	1.050041
5	0x3f76c2ef	0.96391195
6	0x3f8884ed	1.0665566
7	0x3f608bd7	0.8771338
8	0x3f7a2a5e	0.977209
9	0x3f6a83c1	0.9160729
10	0x3f6d1baf	0.92620367
11	0x3f7da113	0.99073905
12	0x3f640fe1	0.8908673
13	0x3f65599f	0.89589876
14	0x3f8781dc	1.0586505
15	0x3f80d4e8	1.0064974
16	0x3f7565f7	0.9585871
17	0x3f83e377	1.0303792
18	0x3f7e77f0	0.9940176
19	0x3f89f5e8	1.077817
20	0x3f722dc1	0.94601065
21	0x3f55a14f	0.8344926
22	0x3f7ee5e6	0.9956955
23	0x3f753ba6	0.9579414
24	0x3f789f4a	0.97118056
25	0x3f94a3bf	1.1612471
26	0x3f660b4f	0.89861006
27	0x3f5ff780	0.8748703
28	0x3f7040b4	0.9384873
29	0x3f8484d7	1.035304
30	0x3f6202da	0.882856
31	0x3f714fc7	0.94262356
32	0x3f66fae6	0.9022659
33	0x3f8d18aa	1.1023152
34	0x3f796a22	0.9742757
35	0x3f54ebd4	0.83172345
36	0x3f6be8a5	0.9215186
37	0x3f7f8f84	0.9982836
38	0x3f83ec08	1.0306406
39	0x3f727e33	0.94723815
40	0x3f6e8d3f	0.93184274
41	0x3f8072c9	1.003503
42	0x3f5f0abb	0.8712575
43	0x3f70c5b3	0.94051665
44	0x3f7e6b93	0.99382895
45	0x3f540666	0.82822263
46	0x3f5b85bf	0.85750955
47	0x3f9069a5	1.128224
48	0x3f79bc76	0.97553194
49	0x3f6aefd3	0.9177219
50	0x3f80c848	1.0061121
51	0x3f87ba34	1.06037
52	0x3f780d6a	0.9689547
53	0x3f6c09f9	0.9220272
54	0x3f66aa9f	0.901041
55	0x3f8d0eef	1.1020182
56	0x3f867af1	1.0506269
57	0x3f60e4c7	0.87849087
58	0x3f80bf7c	1.0058436
59	0x3f807a4b	1.0037321
60	0x3f885c26	1.0653121
61	0x3f52b9f8	0.82315016
62	0x3f91574c	1.1354766
63	0x3f560d83	0.8361437

enc3.layer.1.bias f4 [64]
0	0x3dbacde8	0.09121305
1	0xbd69b2db	-0.057055335
2	0x3e40910d	0.18805332
3	0xbdb3d163	-0.08780172
4	0xbd8892b6	-0.06668608
5	0x3d40bfa2	0.047057755
6	0x3deb6e8a	0.11495693
7	0xbce3c603	-0.02780438
8	0x3d9eb14d	0.07748661
9	0x3d177706	0.036978744
10	0xbd5052f4	-0.05086036
11	0x3d859553	0.06522622
12	0xbcf87f06	-0.030334007
13	0xbd8e78e9	-0.069566555
14	0x3dce864b	0.10084208
15	0x3d542f4b	0.051802915
16	0xbd8685ea	-0.06568511
17	0xbbd65a3d	-0.006541519
18	0x3e1f6ede	0.15569636
19	0x3db8863c	0.09009978
20	0x3df9a58c	0.12189779
21	0xbd1e6f24	-0.03868021
22	0x3d832c7d	0.0640497
23	0x3ccd3ba4	0.025052853
24	0x3b26cb42	0.002545074
25	0xbd71e23c	-0.059053645
26	0x3d823980	0.063586235
27	0xbc89305d	-0.016746694
28	0xbe3e3836	-0.1857613
29	0x3d56e150	0.05246097
30	0xbdb2805d	-0.087158896
31	0x3d3632d4	0.044482067
32	0xbd7d6590	-0.061864436
33	0x3d899a31	0.06718863
34	0x3d7c8021	0.06164563
35	0xbe0dff9c	-0.13867038
36	0xbb73a8da	-0.00371795
37	0x3c85f846	0.016353738
38	0xbc934ddf	-0.017981468
39	0xbd5806c7	-0.05274084
40	0x3c65bd63	0.014022204
41	0xbca351da	-0.01993649
42	0xbdd48fef	-0.10379016
43	0xbca5ee75	-0.020255307
44	0x3d42b11f	0.047532197
45	0xbaffc0ac	-0.0019512377
46	0x3c7699f6	0.015051356
47	0x3e2bdb3d	0.16782852
48	0x3e0468d9	0.12930621
49	0xbd1d6aa4	-0.03843178
50	0x3dd01add	0.10161374
51	0x3e51e70b	0.20498292
52	0x3c2852a3	0.010273608
53	0x3d985f17	0.07440012
54	0x3dab83d8	0.083747566
55	0x3d19e3a1	0.0375706
56	0xbc6306bf	-0.013856589
57	0x3d3f23f4	0.046665147
58	0x3e254d1d	0.16142698
59	0x3dbde037	0.09271281
60	0x3bb90ea5	0.0056474977
61	0x3d77d290	0.060503542
62	0x3e9800ed	0.29688206
63	0xbd9c92a7	-0.07645159

enc3.layer.1.running_mean f4 [64]
0	0xbc174718	-0.009233259
1	0xbb1a62bf	-0.0023557392
2	0x3d07af34	0.03312607
3	0x3dfd8e12	0.123806134
4	0x3cd5a8c6	0.026081454
5	0xbea48cfd	-0.32138816
6	0x3f1189dd	0.5685099
7	0xbf0724f0	-0.5279074
8	0x3f1f6b6e	0.622733
9	0x39cf7470	0.0003956887
10	0x3e9dab9f	0.30795
11	0xbe735b82	-0.23765376
12	0x3c301728	0.010747708
13	0xbe909e9a	-0.28246003
14	0xbf250441	-0.64459616
15	0x3e38103d	0.17974944
16	0xbda47559	-0.08030195
17	0xbe8ef772	-0.2792316
18	0x3e8c7b12	0.27437645
19	0xbeeb185d	-0.45917025
20	0xbd1eb622	-0.038747914
21	0x3d322478	0.04349181
22	0x3b87df44	0.0041464884
23	0xbe88d224	-0.26722825
24	0xbe88e8cc	-0.2674011
25	0x3e50f61f	0.20406388
26	0xbdc0d806	-0.09416203
27	0x3eab9f1c	0.33519828
28	0x3e7fe75e	0.24990603
29	0xbe554e16	-0.20830569
30	0x3e8cc3be	0.2749309
31	0xbf16cca2	-0.58905995
32	0xbbf46a3a	-0.0074589523
33	0xbc86f38a	-0.01647355
34	0xbea853b1	-0.3287635
35	0x3c89f8c8	0.016842261
36	0x3e0e5496	0.13899454
37	0xbeadcbed	-0.33944646
38	0xbe246796	-0.1605514
39	0xbe9ff138	-0.31238723
40	0xbdd5c374	-0.1043767
41	0xbe7f5f6a	-0.24938741
42	0xbe28c144	-0.16479975
43	0xbce0986e	-0.027416434
44	0xbeb12c8c	-0.346043
45	0x3d30fa46	0.04320743
46	0x3efaffab	0.49023184
47	0x3f137b9e	0.576105
48	0xbe932941	-0.28742412
49	0xbe94b7fb	-0.29046616
50	0xbdc20e8e	-0.09475432
51	0x3ea20924	0.316476
52	0x3edcbc4b	0.43112406
53	0x3ebb1b0d	0.36544076
54	0xbd563703	-0.052298557
55	0x3f05a0eb	0.52198666
56	0xbf4c72a2	-0.79862416
57	0x3e899b66	0.26876372
58	0xbebf6566	-0.37382048
59	0xbed691ac	-0.41908014
60	0xbbdd037c	-0.0067448
61	0x3ee87f99	0.4540985
62	0x3c96e066	0.018417548
63	0x3eb1bd88	0.34714913

enc3.layer.1.running_var f4 [64]
0	0x3c904a5c	0.017613582
1	0x3d698c16	0.057018362
2	0x3bf47736	0.0074605
3	0x3d0e447f	0.03473329
4	0x3d0ed722	0.034873135
5	0x3dd23b34	0.10265198
6	0x3edd319d	0.43201914
7	0x3ea5ff48	0.32421327
8	0x3ee8ad96	0.45444936
9	0x3b0e05ab	0.002167086
10	0x3dfc1f38	0.12310642
11	0x3da1118c	0.07864675
12	0x3d921192	0.071322575
13	0x3dd0705c	0.10177681
14	0x3f11647d	0.5679396
15	0x3cf429e5	0.029805133
16	0x3ce70e10	0.028204948
17	0x3d789c3b	0.060695868
18	0x3daed1ba	0.08536096
19	0x3e46a22c	0.19397801
20	0x3cb65468	0.022257045
21	0x3cf79c6d	0.030225957
22	0x3b4219fa	0.0029617534
23	0x3e30e97e	0.1727657
24	0x3df82490	0.12116349
25	0x3d8f16b0	0.06986749
26	0x3cde3576	0.027125102
27	0x3e01f314	0.12690383
28	0x3d9c9d02	0.07647134
29	0x3d6c5860	0.05770147
30	0x3d978763	0.0739887
31	0x3f1625db	0.5865151
32	0x3ad1bece	0.0016002299
33	0x3c5c0714	0.013429422
34	0x3e195547	0.14973937
35	0x3d4a8924	0.049447194
36	0x3d2f6e8d	0.04283004
37	0x3e15ecc9	0.14641108
38	0x3cb0105a	0.021492172
39	0x3e0902b8	0.13379943
40	0x3cfd155a	0.03089397
41	0x3db044de	0.086068854
42	0x3d2e8245	0.042604703
43	0x3d0bc095	0.034119207
44	0x3e285df8	0.16442096
45	0x3dcdb671	0.100445636
46	0x3e9a0247	0.30079862
47	0x3ea2b476	0.31778306
48	0x3d8c283c	0.068436116
49	0x3e124e82	0.14287761
50	0x3c936919	0.01799445
51	0x3e238e92	0.15972355
52	0x3e25932c	0.16169423
53	0x3e1fa77c	0.15591234
54	0x3c983971	0.018582078
55	0x3eb07fd0	0.34472513
56	0x3e9dcd28	0.30820584
57	0x3d8e4be0	0.06948066
58	0x3ddd5c06	0.10808568
59	0x3e812862	0.25226122
60	0x3d9c278a	0.07624729
61	0x3e4d2826	0.20034847
62	0x3d1b752e	0.037953548
63	0x3e1a9638	0.15096366

enc3.layer.3.weight f4 [128, 64, 1, 1]
0	0x3dbdb3d5	0.09262816
1	0x3de06245	0.109562434
2	0xbe8c3c7a	-0.2738989
3	0x3d05fed3	0.032713722
4	0x3df0f130	0.11764753
5	0x3d5b767e	0.0535798
6	0x3e35ea47	0.17765151
7	0xbc8a09ed	-0.016850436
8	0x3d9c5462	0.07633282
9	0xbd6ac4a7	-0.05731645
10	0x3df10647	0.117687754
11	0xbdb21170	-0.08694732
12	0xbd3fe983	-0.046853554
13	0x3bbdad1e	0.0057884594
14	0x3d126e5f	0.03574979
15	0xbd95c314	-0.07312599
16	0xbc963039	-0.018333541
17	0xbd2b0d4e	-0.041760735
18	0xbd8976e2	-0.06712128
19	0x3d5199b8	0.05117199
20	0x3dfae329	0.122503586
21	0xbd6c214f	-0.057648953
22	0xbd39b146	-0.045335077
23	0xbd2cfd61	-0.04223383
24	0xbda36ba0	-0.07979512
25	0xbddb59e2	-0.10710503
26	0x3d6d1a51	0.057886425
27	0xbdb8d97b	-0.09025856
28	0x3d98fa69	0.07469637
29	0xba42d7ee	-0.0007432689
30	0x3cca4674	0.024691798
31	0x3d8a9ad1	0.0676781
32	0x3c036150	0.008018807
33	0x3e88b9a9	0.26704147
34	0x3c8bb8e6	0.01705594
35	0xbcbebeda	-0.023284364
36	0x3ce11770	0.027476996
37	0x3db0ab01	0.086263664
38	0xbd8f5152	-0.069979325
39	0x3d821b40	0.06352854
40	0x3da24718	0.07923716
41	0x3daa66b2	0.08320369
42	0x3d05cc1e	0.032665364
43	0x3e0100f4	0.1259802
44	0xbda99b83	-0.08281615
45	0xbd59838f	-0.05310398
46	0x3d372e87	0.044722106
47	0x3b8b2fe0	0.0042476505
48	0xbdb5d616	-0.08878724
49	0xbd9769fc	-0.07393262
50	0xbcc67a5e	-0.024228271
51	0x3de30986	0.11085801
52	0x3d0f50c8	0.03498915
53	0xbd11b38e	-0.035571627
54	0x3d29a2be	0.04141497
55	0x3c31558f	0.010823621
56	0xbd8a2caa	-0.067468
57	0xbd4dbe93	-0.050230574
58	0x3da7aea2	0.081876054
59	0xbdc7f49f	-0.09763455
60	0xbda69122	-0.08133151
61	0xbd286513	-0.041112017
62	0x3d533034	0.051559642
63	0x3ca566e4	0.020190664
64	0x3c518fb6	0.012790611
65	0xbdb42593	-0.08796229
66	0xbe727f52	-0.23681381
67	0xbd84dd19	-0.064874835
68	0xbd5d5984	-0.054040447
69	0x3dbfa080	0.09356785
70	0xbdcb9cf7	-0.09942048
71	0x3e27038f	0.16309951
72	0xbdc7b043	-0.09750416
73	0xbdbf2432	-0.093330756
74	0x3dbe1275	0.09280864
75	0x3bd06c62	0.0063605765
76	0xbde021fe	-0.109439835
77	0x3d4792ed	0.048724104
78	0xbd4af338	-0.049548358
79	0x3d381825	0.0449449
80	0x3e1db896	0.15402445
81	0xbd9b72f2	-0.075902835
82	0xbdfff1d1	-0.12497295
83	0xbd946be6	-0.072471425
84	0x3d5b56f2	0.053549714
85	0x3d4a4361	0.049380664
86	0xbdb2b323	-0.08725574
87	0x3d476322	0.048678525
88	0xbd1df490	-0.03856331
89	0xbc8e80c5	-0.017395386
90	0xbc437301	-0.011929275
91	0xbda91db0	-0.082576156
92	0xbd6248c4	-0.055245176
93	0xbdbb32bb	-0.091405354
94	0x3d180601	0.0371151
95	0x3db7229e	0.089421496
96	0xbda7a378	-0.08185476
97	0xbd928d07	-0.07155805
98	0xbd014669	-0.03156129
99	0xbc08d1b1	-0.008350776
100	0xbdd399cf	-0.10332071
101	0x3dadb073	0.08480921
102	0xbb0a8e75	-0.002114204
103	0x3d85b94b	0.065294825
104	0x3de9a2b2	0.11407985
105	0xbdd04864	-0.101700574
106	0x3e026839	0.1273507
107	0xbd76e4cd	-0.060276795
108	0x3c0e3cb7	0.008681468
109	0x3d46adfc	0.04850577
110	0xbba05a23	-0.0048935576
111	0xbd82eab7	-0.063924246
112	0xbdc8a6da	-0.097974494
113	0xbd07c120	-0.033143163
114	0xbdd108f7	-0.10206788
115	0x3df70932	0.12062301
116	0xbb29bcaa	-0.0025899806
117	0xbd702776	-0.058631383
118	0x3d3600a0	0.04443419
119	0xbd8981ff	-0.06714248
120	0xbdb0ca96	-0.0863239
121	0x3aed2e7b	0.0018095517
122	0x3e11b508	0.14229214
123	0x3de8cb58	0.1136691
124	0xbcaa1872	-0.02076361
125	0xbd9e4002	-0.07727052
126	0x3d9f1b40	0.077688694
127	0xbdaeca21	-0.08534647
128	0x3d6bcd67	0.057568934
129	0xbd5ca9d1	-0.053872887
130	0x3bc04935	0.005868102
131	0x3d067629	0.03282753
132	0xbd5f6443	-0.054538976
133	0x3d066e8d	0.032820273
134	0x3db8e5c6	0.09028201
135	0x3d563b3e	0.05230259
136	0xbd9db2ff	-0.077001564
137	0xbe56ae47	-0.20964919
138	0xbd07b959	-0.033135746
139	0xbd4a988a	-0.04946188
140	0x3cac8375	0.021058777
141	0xbd136c9f	-0.03599226
142	0xbd206c5e	-0.039165847
143	0xbdba22cb	-0.090886675
144	0xbdaabcf3	-0.083368205
145	0xbcd5faff	-0.02612066
146	0x3da77434	0.08176461
147	0xbdad122d	-0.084507324
148	0xbd630a2b	-0.05542962
149	0xbd9a715f	-0.07541155
150	0xbe4bc797	-0.19900356
151	0x3d35345d	0.04423939
152	0x3d8458e9	0.06462271
153	0x3d5f549c	0.05452405
154	0xbdb25a41	-0.08708621
155	0xbb2cebb9	-0.002638562
156	0xbd84fb39	-0.064932294
157	0xbd12971a	-0.035788633
158	0x3df0cd1b	0.11757871
159	0x3d85d689	0.0653506
160	0x3cf7e97c	0.030262701
161	0xbe0a9b91	-0.13535906
162	0xbd8439cd	-0.06456337
163	0xbe58515d	-0.21124788
164	0xbdc9f3e4	-0.098609716
165	0xbc5e66cb	-0.013574312
166	0x3da9e222	0.082950845
167	0x3cca7e7b	0.024718514
168	0xbd2c3b59	-0.042048786
169	0x3db07596	0.08616178
170	0x3c4fceb1	0.012683556
171	0x3d3a1301	0.04542828
172	0xb9882a10	-0.0002597128
173	0x3cb36828	0.021900252
174	0xbeb19a50	-0.34688044
175	0xbe3e0ea5	-0.18560274
176	0xbe643a7d	-0.22287937
177	0xbd80df2d	-0.062925674
178	0xbc217698	-0.009854935
179	0x3c2121e0	0.009834737
180	0xbdfaf345	-0.12253431
181	0x3c98a4e6	0.018633317
182	0x3d2020ae	0.039093666
183	0x3b14fc00	0.0022733212
184	0x3d622cc7	0.055218484
185	0x3c9b3054	0.018943943
186	0xbd19235d	-0.03738724
187	0xbdfac521	-0.122446306
188	0xbc391082	-0.01129544
189	0xbe878286	-0.2646677
190	0xbe82d94a	-0.25556403
191	0xbc82bd66	-0.015959453
192	0x3da347ec	0.079727024
193	0xbd560f3a	-0.052260615
194	0xbee90cdf	-0.45517632
195	0xbd52ff86	-0.051513217
196	0xbcd9e260	-0.026597202
197	0xbdfecf59	-0.12441892
198	0xbcf9f1f6	-0.030510884
199	0x3e08f12b	0.13373248
200	0x39edd33e	0.0004536155
201	0xbd7fee44	-0.062483087
202	0x3d81b7f5	0.06333915
203	0xbd92b072	-0.071625605
204	0x3d13bebf	0.03607058
205	0xbbe6f4a5	-0.007048207
206	0x3db2f8dc	0.087388724
207	0x3d9750fc	0.073884934
208	0xbe016d3a	-0.12639323
209	0x3d2e6aab	0.042582195
210	0x3ca19f30	0.019729227
211	0x3d1c3af3	0.038142156
212	0x3de1ff8a	0.11035068
213	0xbbfd4242	-0.007728846
214	0x3b1e6a37	0.0024172196
215	0xbdf43b75	-0.11925403
216	0x3d628565	0.055302996
217	0x3d23fbea	0.040035166
218	0x3db6e4c5	0.08930353
219	0xbd4f0431	-0.050541107
220	0xbdb91e1c	-0.09038946
221	0xbdb3a9a1	-0.087725885
222	0xbc8ce9cd	-0.017201329
223	0xbcf7cc8f	-0.030248908
224	0xbe668ca0	-0.22514582
225	0x3bfd6173	0.007732564
226	0x3df41b8a	0.11919315
227	0xbbe4c63d	-0.0069816397
228	0xbd1d2241	-0.038362745
229	0x3c8ae5b9	0.016955243
230	0xbc0c3e52	-0.00855978
231	0xbc4cf4c6	-0.01250953
232	0x3ca1922c	0.01972302
233	0x3d7eccbe	0.062206976
234	0xbc301d22	-0.010749133
235	0xbd08a854	-0.033363655
236	0xbc4c063c	-0.012452658
237	0x3ca18c11	0.01972011
238	0xbd317b9a	-0.043330766
239	0x3c46d56f	0.0121358475
240	0x3d5765a5	0.05258717
241	0x3cbf2ca2	0.023336712
242	0x3e2a4f9b	0.1663193
243	0x3cd92e7e	0.026511427
244	0x3d126d43	0.03574873
245	0x3d366cd7	0.04453739
246	0x3e054d92	0.13017872
247	0x3d9c1017	0.076202564
248	0xbc16388d	-0.009168756
249	0xbce5a605	-0.028033266
250	0x3ac501ea	0.0015030478
251	0x3d1e34da	0.038624622
252	0xbd1d3f1d	-0.038390268
253	0x3d59799d	0.053094495
254	0x3d71134d	0.058856297
255	0x3d57915c	0.05262886
